Betweenness-GCN-model.pth (torch, 642464 bytes, 20 tensors)

conv1.bias f4 [500]
0.438595 3.1723096 -0.18579893 0.13499808 -0.56274265 0.078758344 0.21365431 -0.107731774
-0.11029797 -0.30171058 0.21923122 0.22043055 -0.3458293 -0.5390693 1.5303726 0.4434259
-0.062210247 -0.1992716 0.25975186 0.11563967 0.20337653 -0.53564066 -0.16063717 0.15962893
-0.20250005 1.6225173 0.3105321 0.00094636035 -0.11765608 0.050679877 -0.6633691 -0.21842706
0.39165935 -0.17469242 -0.24304436 -0.017990202 -0.028351765 -0.22307937 0.28654116 0.9313342
-0.36889398 -0.10636368 0.18782438 0.8079496 -0.3377581 0.56967175 -0.11095066 0.34243345
-0.1979922 -0.08023723 0.17701505 -1.026539 0.9879527 -0.22938584 -0.10143929 -0.14429311
-0.15434058 0.072244816 0.7108326 0.6566122 -0.059566956 0.03182236 -0.18428046 0.7078927
-0.19730029 -0.13310985 1.2320373 0.16582769 0.13307121 1.9352516 -0.45381564 -0.16259201
0.23603253 -0.36781102 -0.13069533 0.079684526 -2.1884313 -0.97903174 -0.19385466 -0.34430262
0.44452387 0.26948753 0.98191893 -1.6308832 -0.67202705 -0.22156887 1.1567807 -0.318438
0.9755646 -0.68836576 0.16932881 0.24434736 -0.14068457 0.15259582 -0.17404902 0.6934682
0.32499632 0.05921347 -1.0405449 0.17551959 0.18589023 -2.014409 0.0012046159 -0.40270004
0.0116918245 0.014814778 0.24664497 0.028396465 -0.06309584 0.2382102 0.13045098 0.11699797
-0.20690455 1.3336741 -0.036268592 -0.52161896 0.14346664 0.20378569 -0.057089224 0.30482423
0.12562521 -0.52592456 0.7272957 1.4120712 -0.9041046 0.1709588 -0.18461514 -0.11075485
-0.23658349 -0.12526572 -0.26269475 -0.16191845 -0.09092819 -0.44338712 0.59689194 -0.93220747
0.14080484 0.03071034 0.08154457 -0.17723696 1.0453056 -0.00629665 0.018637752 -0.02682525
0.16795015 0.4631488 0.10140432 -0.0822536 -0.044077985 -1.2106304 0.077362336 -1.0936232
-0.37596932 3.0668766 -0.119951405 0.25931546 0.14250588 -0.07837139 0.115960814 0.036897127
1.1620328 0.1361666 1.3024726 0.6029412 -0.1439705 0.053532638 -0.041576643 0.5054764
0.22083427 0.18182907 -0.001381976 0.45211145 -0.1965342 -0.14533962 -0.20726597 0.2466401
0.587428 0.2453559 -0.33120412 0.325964 0.3330758 0.22492518 0.43855026 -0.44672698
-0.1544175 0.05444098 0.29878876 0.00433761 0.57785064 0.11065466 -0.072323054 0.41328266
0.22153416 0.0046931454 0.6058574 -0.13273555 -0.45462653 -0.15854533 -0.009792811 1.1717786
-0.11462382 0.20833871 0.11053517 0.5274585 0.1311242 -0.075248465 0.083747804 0.28581136
0.25049442 0.2599502 -0.56639063 0.11958666 0.17417924 -0.041902505 0.14282158 -1.3826848
-0.28299144 0.12539992 0.29591206 -0.13745181 0.07037453 0.056352563 0.06280023 -0.67721087
0.0066073616 0.37155908 0.21913797 -0.45009083 0.12302295 -0.29717672 -0.18216674 0.3913283
-0.30031317 0.15183009 -0.3555256 -0.18257259 0.049589854 0.2545386 -0.41867062 -0.2747972
-0.05596681 0.46363595 0.610897 0.10038529 0.13890606 0.111537755 -0.033215903 -0.09114935
-0.1724747 2.777377 0.4608789 -0.14124587 0.54670066 0.015917992 0.045350324 -0.092773356
00000000: 868f e03e 1f07 4b40 1342 3ebe f03c 0a3e
00000010: e70f 10bf 0e4c a13d 32c8 5a3e 7aa2 dcbd
00000020: e7e3 e1bd cf79 9abe 267e 603e 8cb8 613e
00000030: 8a10 b1be 7200 0abf 40e3 c33f b808 e33e
00000040: 2cd0 7ebd db0d 4cbe 32fe 843e 7ed4 ec3d
00000050: f041 503e bf1f 09bf 127e 24be c475 233e
00000060: 2c5c 4fbe a6ae cf3f 10fe 9e3e 2b15 783a
00000070: acf5 f0bd b495 4f3d 8fd2 29bf 58ab 5fbe
00000080: 9387 c83e 92e2 32be 9fe0 78be 3060 93bc
00000090: f641 e8bc eb6e 64be 86b5 923e eb6b 6e3f
000000a0: acdf bcbe 33d5 d9bd 0955 403e c9d5 4e3f
000000b0: a1ee acbe 02d6 113f 1a3a e3bd 7053 af3e
000000c0: 78be 4abe 6b53 a4bd 6f43 353e a165 83bf
000000d0: 78ea 7c3f 1fe4 6abe 67bf cfbd 93c1 13be
000000e0: 750b 1ebe 17f5 933d 20f9 353f bd17 283f
000000f0: 7bfc 73bd 2a58 023d 04b4 3cbe 7538 353f
00000100: 1609 4abe f34d 08be 66b3 9d3f bcce 293e
00000110: d243 083e 53b6 f73f 865a e8be 857e 26be
00000120: 83b2 713e ba51 bcbe ffd4 05be a431 a33d
00000130: 420f 0cc0 d3a1 7abf d681 46be 6f48 b0be
00000140: a298 e33e 45fa 893e 0a5f 7b3f c8c0 d0bf
00000150: f709 2cbf f3e2 62be 6411 943f 4e0a a3be
00000160: 9abe 793f bd38 30bf 8864 2d3e 3236 7a3e
00000170: 9e0f 10be 1442 1c3e e839 32be 2287 313f
00000180: eb65 a63e d389 723d 9330 85bf 68bb 333e
00000190: 025a 3e3e 14ec 00c0 34e4 9d3a b32e cebe
000001a0: 118f 3f3c afb9 723c 8090 7c3e b49f e83c
000001b0: 6438 81bd 60ed 733e f194 053e a29c ef3d
000001c0: c9de 53be d5b5 aa3f 608e 14bd d288 05bf
000001d0: ebe8 123e 32ad 503e 64d6 69bd ec11 9c3e
000001e0: e5a3 003e fea2 06bf 0d30 3a3f c0be b43f
000001f0: 6673 67bf d30f 2f3e c00b 3dbe 70d3 e2bd
00000200: f142 72be a845 00be ed7f 86be f3cd 25be
00000210: 8f38 babd a303 e3be e9cd 183f 26a5 6ebf
00000220: 252f 103e 4094 fb3c d700 a73d 9b7d 35be
00000230: 93cc 853f 2154 cebb 33ae 983c a0c0 dbbc
00000240: 20fb 2b3e d721 ed3e 11ad cf3d 9374 a8bd
00000250: 1e8b 34bd f0f5 9abf 2570 9e3d d8fb 8bbf
00000260: 0d7f c0be b547 4440 15a9 f5bd ffc4 843e
00000270: 10ed 113e 2e81 a0bd dd7c ed3d 7121 173d
00000280: 7ebd 943f 426f 0b3e 6cb7 a63f 5b5a 1a3f
00000290: 016d 13be 0a45 5b3d 454c 2abd e766 013f
000002a0: 6122 623e 6631 3a3e 6b23 b5ba 277b e73e
000002b0: 4340 49be e9d3 14be 883d 54be 398f 7c3e
000002c0: ae61 163f 943e 7b3e 9693 a9be c1e4 a63e
000002d0: e988 aa3e c952 663e a989 e03e 66b9 e4be
000002e0: 9f1f 1ebe 81fd 5e3d d7fa 983e 8322 8e3b
000002f0: 05ee 133f e99e e23d 1c1e 94bd c999 d33e
00000300: dad9 623e f5c8 993b 7819 1b3f d4eb 07be
00000310: cfc4 e8be b559 22be 0772 20bc d7fc 953f
00000320: e5bf eabd be56 553e 4360 e23d 8507 073f
00000330: 6c45 063e de1b 9abd f883 ab3d de55 923e
00000340: ce40 803e 3118 853e fafe 10bf dae9 f43d
00000350: 0b5c 323e f6a1 2bbd d23f 123e d1fb b0bf
00000360: 41e4 90be d668 003e c981 973e 2bc0 0cbe
00000370: 8620 903d f2d1 663d 689d 803d b15d 2dbf
00000380: 9182 d83b fe3c be3e b465 603e 4e72 e6be
00000390: 75f3 fb3d 8c27 98be eb89 3abe 2f5c c83e
000003a0: a6c2 99be 5979 1b3e 7407 b6be 4ff4 3abe
000003b0: bb1e 4b3d e252 823e ff5b d6be 38b2 8cbe
000003c0: 743d 65bd b161 ed3e bf63 1c3f ce96 cd3d
000003d0: 643d 0e3e e86d e43d 660d 08bd 83ac babd
000003e0: 359d 30be 8bc0 3140 52f8 eb3e c2a2 10be
000003f0: 93f4 0b3f 7366 823c 43c1 393d f5ff bdbd

conv1.lin.weight f4 [500, 1]
-0.2958003 0.705541 0.61793447 -0.5865258 -0.72147906 -0.5065487 -0.64945006 0.62683564
0.57464606 0.5965677 0.81613815 0.5218427 -0.57036006 0.79120654 0.59400904 0.6467622
-0.7389331 -0.7061274 0.50949055 -0.67517906 0.57021236 -0.71100575 -0.55464864 -0.686912
0.6082302 0.77440405 0.57478803 0.46157736 0.630257 0.4644507 0.6250305 0.62142617
-0.48970774 0.64688885 -0.5852021 -0.2398178 -0.7031698 0.6242219 -0.6276269 0.72292054
-0.5908041 0.7692273 -0.66508 0.6115136 -0.44060892 0.5844138 -0.5582357 0.5432521
0.5978967 0.60093236 0.78335416 0.6656413 0.7507395 0.5702568 -0.57051533 -0.75537026
0.5939575 0.53725153 0.73146623 -0.5628354 0.65549034 0.6116926 0.6054328 -0.7131724
0.6369616 0.9054835 0.5754817 -0.66863745 -0.5010058 0.68204343 0.85276955 -0.6906149
0.8953801 0.5752653 0.57444406 0.6217795 -0.78980523 -0.74843854 -0.5630234 -0.6059339
-0.55826056 0.6415546 0.62203264 0.60820067 -0.7751179 0.6030871 0.8005146 -0.59719914
0.59898704 -0.7733582 -0.6784215 -0.6396336 -0.71513844 0.5136615 0.6036046 -0.656924
0.20356818 -0.69797283 0.73220456 0.6715436 -0.2008751 0.629757 -0.62806386 0.61094075
-0.5855165 -0.6719772 0.6012492 0.54675996 0.58617646 -0.6300291 0.55957836 0.7033357
0.6369496 0.6004934 0.65265423 -0.811976 0.73775256 0.5824643 -0.5019176 -0.5565285
0.7598782 0.65097237 0.5856796 -0.6472561 0.60382134 0.5351264 0.58967125 -0.70443815
0.61584646 0.5909286 0.7277676 -0.6477555 0.6177228 0.59582824 0.5511011 0.66432303
-0.15135434 -0.6998078 -0.62159413 -0.09122914 0.6378098 -0.63204706 -0.71118796 0.57234
-0.5244227 0.53463763 -0.5414423 -0.57541776 -0.61667293 0.5745773 -0.816616 0.5425895
0.5735629 0.665076 0.5464098 -0.24883804 -0.68107176 0.60699344 -0.8060313 0.62157524
0.6192048 -0.65210193 0.70881134 -0.55900687 -0.5136671 -0.41146448 -0.0955404 -0.66599655
-0.6641215 0.7762362 -0.75926816 -0.54917336 -0.6647622 0.58332646 -0.76361144 0.7725099
-0.56078464 0.62601745 0.6230338 0.6117807 0.6924848 0.5350761 -0.60823584 0.5910308
0.62560505 -0.6180478 0.5047324 -0.6141398 -0.11456428 -0.61023724 0.29055268 0.7868376
0.7756931 0.59770364 0.7390021 -0.693815 0.64041096 -0.6455647 0.6700289 0.6842022
-0.41012874 -0.6474516 -0.68557966 -0.5604492 -0.22710423 -0.6212483 -0.7054968 -0.36611012
0.53414667 -0.5872508 0.82119155 -0.6681001 0.25215572 0.6144463 0.682921 0.69548786
-0.6457118 -0.50961804 -0.17148897 0.60552883 0.53924674 -0.61228746 -0.7043227 -0.6975149
-0.70819294 0.6190769 0.6963534 0.6244842 0.470427 0.54927295 -0.5796988 -0.5568552
-0.5982746 -0.70717657 0.7157427 0.73013204 -0.72804636 0.5898339 0.516961 0.54569095
0.63372755 -0.59488624 -0.5608054 -0.72757 0.5285963 -0.6692459 0.65579635 -0.7228589
-0.58138037 0.67540336 0.5285812 0.5921914 -0.2424106 0.64597327 -0.6155289 -0.6328675
00000000: 2373 97be 569e 343f f430 1e3f 8e26 16bf
00000010: dab2 38bf 2dad 01bf 5c42 26bf 4d78 203f
00000020: 011c 133f a9b8 183f 6eee 503f 7c97 053f
00000030: 1e03 12bf 838c 4a3f fa10 183f 3592 253f
00000040: b82a 3dbf c4c4 34bf f96d 023f 89d8 2cbf
00000050: 70f9 113f 7904 36bf 74fd 0dbf 77d9 2fbf
00000060: f9b4 1b3f 583f 463f 4f25 133f de53 ec3e
00000070: 8658 213f 7bcc ed3e 0002 203f c915 1f3f
00000080: f9ba fabe 829a 253f cecf 15bf cc92 75be
00000090: f002 34bf 02cd 1f3f 28ac 20bf 5211 393f
000000a0: f03e 17bf 15ec 443f af42 2abf 288c 1c3f
000000b0: 7e97 e1be 259c 153f 89e8 0ebf 9212 0b3f
000000c0: c20f 193f b4d6 193f e689 483f 7867 2a3f
000000d0: 7730 403f 5afc 113f 4b0d 12bf f25f 41bf
000000e0: 990d 183f 5189 093f 5f41 3b3f fb15 10bf
000000f0: 37ce 273f e397 1c3f a5fd 1a3f 7792 36bf
00000100: ea0f 233f c4cd 673f c552 133f d32b 2bbf
00000110: eb41 00bf 669a 2e3f 1b4f 5a3f 23cc 30bf
00000120: a137 653f 9644 133f c40e 133f f12c 1f3f
00000130: ad30 4abf ab99 3fbf 4d22 10bf 7c1e 1bbf
00000140: 2aea 0ebf ec3c 243f 883d 1f3f 0ab3 1b3f
00000150: 206e 46bf eb63 1a3f 86ee 4c3f 0be2 18bf
00000160: 3757 193f cefa 45bf 08ad 2dbf 07bf 23bf
00000170: 5013 37bf 527f 033f d585 1a3f 2c2c 28bf
00000180: 2d74 503e 59ae 32bf c271 3b3f 48ea 2b3f
00000190: 34b2 4dbe c137 213f cbc8 20bf 9d66 1c3f
000001a0: 69e4 15bf b306 2cbf 78eb 193f 76f8 0b3f
000001b0: a90f 163f 9649 21bf 8740 0f3f cf0d 343f
000001c0: 210f 233f efb9 193f 5914 273f a9dd 4fbf
000001d0: 5add 3c3f 611c 153f ac7d 00bf a778 0ebf
000001e0: 6187 423f 20a6 263f 19ef 153f 93b2 25bf
000001f0: 0994 1a3f 0bfe 083f b2f4 163f 0f56 34bf
00000200: 1da8 1d3f 1947 173f fa4e 3a3f 4ed3 25bf
00000210: 1523 1e3f 3388 183f f614 0d3f 1311 2a3f
00000220: a2fc 1abe 9b26 33bf cb20 1fbf 58d6 babd
00000230: 8147 233f d6cd 21bf 6a10 36bf e084 123f
00000240: 9140 06bf 03de 083f f69b 0abf 944e 13bf
00000250: 47de 1dbf 7f17 133f bf0d 51bf 25e7 0a3f
00000260: 05d5 123f 6c42 2a3f 83e1 0b3f 66cf 7ebe
00000270: b85a 2ebf ec63 1b3f 1158 4ebf 8e1f 1f3f
00000280: 3584 1e3f 27f0 26bf a974 353f 131b 0fbf
00000290: b07f 03bf 79ab d2be afaa c3bd c07e 2abf
000002a0: de03 2abf 6ab7 463f 665f 42bf a096 0cbf
000002b0: db2d 2abf e254 153f 0a7c 43bf 35c3 453f
000002c0: 958f 0fbf ae42 203f 257f 1f3f a99d 1c3f
000002d0: af46 313f bffa 083f 58b5 1bbf cb4d 173f
000002e0: a727 203f 6138 1ebf 2436 013f 4438 1dbf
000002f0: ada0 eabd 8238 1cbf 52c3 943e 306e 493f
00000300: d393 463f 1b03 193f 3e2f 3d3f dc9d 31bf
00000310: f9f1 233f ba43 25bf 0487 2b3f e027 2f3f
00000320: 65fc d1be 63bf 25bf 2682 2fbf 9979 0fbf
00000330: 038e 68be 210a 1fbf 709b 34bf c972 bbbe
00000340: d6bd 083f 1256 16bf 9c39 523f 9c08 2bbf
00000350: 8e1a 813e 5a4c 1d3f e9d3 2e3f 7e0b 323f
00000360: 5e4d 25bf 5476 02bf ce9a 2fbe f003 1b3f
00000370: 130c 0a3f dfbe 1cbf 7e4e 34bf 5690 32bf
00000380: 224c 35bf d37b 1e3f 3744 323f 32de 1f3f
00000390: cfdb f03e 279d 0c3f 2467 14bf 108e 0ebf
000003a0: 8628 19bf 8609 35bf ea3a 373f efe9 3a3f
000003b0: 3f61 3abf 5bff 163f 8e57 043f 67b2 0b3f
000003c0: f83b 223f 774a 18bf f190 0fbf 0742 3abf
000003d0: 1652 073f b353 2bbf 45e2 273f 480d 39bf
000003e0: 58d5 14bf 3ce7 2c3f 1951 073f db99 173f
000003f0: 7c3a 78be 815e 253f 4d93 1dbf 9b03 22bf

bn1.weight f4 [500]
0.27032956 2.5471342 1.6713692 -0.12538815 2.5460482 -0.114125386 0.44631124 1.5503339
1.7021899 2.0116727 1.710704 -0.30839562 -0.09220436 1.6343237 1.547883 2.6745288
1.4497638 1.6425716 0.7374624 -0.11228965 1.4502692 1.3153187 -0.12823893 0.51807123
1.5297008 1.4452649 1.4655105 0.6260058 1.5388997 0.6807313 1.908277 1.6300445
-0.14375748 1.2582369 -0.098366745 0.084950395 0.3995917 1.4298575 0.63289726 2.291616
0.050969712 1.4589199 1.2313244 1.6402814 -0.12442036 1.6023545 -0.19298662 0.8209481
1.8929149 1.5278951 1.6338485 1.7142531 1.4966453 1.7616551 -0.095536284 1.253692
2.1003222 0.73575056 2.3573804 1.2846638 1.6119095 2.216574 1.5160247 1.2428695
1.833976 1.91515 1.5531791 0.60969585 -0.16320027 1.4998043 2.1476617 0.46572855
1.8204765 1.4532889 1.5237263 1.1123445 2.8221917 2.56255 -0.20701039 2.2891328
1.1942295 2.4778209 1.6042749 2.5906835 1.2663428 0.62116903 1.7684314 -0.4305379
1.5798776 1.4642661 0.59764373 0.3779294 1.3581382 0.7183822 1.5071939 2.4727714
0.71086043 0.57775074 1.5002674 2.4496224 0.28464 2.609039 0.9170007 1.8105372
0.29629236 1.5318608 1.5688909 0.90861946 1.3566729 1.3204249 1.8186481 1.7321609
1.993279 2.3578699 2.5487921 1.2191676 2.005688 1.6350892 -0.14414132 1.9700501
1.5981785 1.4683131 1.6625596 1.5422423 1.4985 0.6519288 1.6763002 0.17007431
1.2676055 1.6835382 2.6296895 1.0838913 1.4475998 1.6651204 1.667333 1.801991
0.17611235 0.32392934 0.5688414 -0.16305074 1.4141942 0.31132427 0.28275028 1.3615161
0.13591632 0.68281263 -0.18431008 0.22330654 0.57896924 1.5163274 0.8087154 1.6671301
1.6878583 2.6423502 0.9756772 0.0011501745 0.4946992 1.5702403 0.27254114 2.7624116
1.9699788 -0.07131936 2.618303 1.1661855 -0.16651966 -0.25783294 -0.12011287 1.2189442
0.91487986 1.5106264 1.3270805 0.25138745 2.6705263 1.4879715 1.3207961 1.4686048
0.61322224 1.5958021 1.96241 2.076513 2.6523921 1.1203419 0.1716408 1.6595709
1.0929927 0.22429267 1.0899773 0.5375234 0.17158058 0.5142505 1.1398594 1.5541809
1.5130911 1.6237994 2.6223824 0.29379147 1.6155666 1.2309567 1.4198954 1.8555167
-0.115697876 1.2233913 0.36500692 1.0409089 -0.08009578 0.6255666 0.5919877 -0.07799661
0.67773926 -0.17299546 1.6925421 0.33182085 0.685425 1.8228989 2.4639974 2.616779
2.3471322 -0.20537795 -0.094632566 1.7478983 0.73350286 0.30425507 0.69032305 1.5094068
0.5416571 2.017956 1.8125364 2.035098 -0.046084452 1.3705131 -0.27822217 1.8045609
-0.4026983 0.6281129 1.62281 1.5689939 0.99184996 1.4886616 0.30098644 1.4952319
1.8835672 -0.24342808 0.4980604 1.5321628 1.1867732 0.5681366 1.5806807 0.64395535
-0.10783349 2.6538975 0.2829636 1.6385652 0.2428555 1.2694669 -0.2853675 0.78031033
00000000: a368 8a3e 3f04 2340 6def d53f c065 00be
00000010: 74f2 2240 92ba e9bd e882 e43e 5771 c63f
00000020: 5ce1 d93f 3fbf 0040 59f8 da3f 08e6 9dbe
00000030: a4d5 bcbd 8531 d13f 0821 c63f 7b2b 2b40
00000040: dc91 b93f c93f d23f 56ca 3c3f 1ef8 e5bd
00000050: 6ca2 b93f 5d5c a83f 1151 03be 51a0 043f
00000060: 3ccd c33f 71fe b83f d995 bb3f eb41 203f
00000070: aafa c43f 6844 2e3f 6c42 f43f 4ca5 d03f
00000080: 2935 13be e80d a13f 8174 c9bd 79fa ad3d
00000090: 4997 cc3e 9205 b73f 8e05 223f d6a9 1240
000000a0: 9ec5 503d e3bd ba3f 0a9c 9d3f bef4 d13f
000000b0: 1ad0 febd f419 cd3f 499e 45be a829 523f
000000c0: 094b f23f 1192 c33f f321 d13f a56c db3f
000000d0: 1392 bf3f ea7d e13f 87a8 c3bd fb78 a03f
000000e0: ae6b 0640 265a 3c3f 52df 1640 dd6f a43f
000000f0: 0d53 ce3f 59dc 0d40 190d c23f 5916 9f3f
00000100: babf ea3f a323 f53f 93ce c63f 0715 1c3f
00000110: f91d 27be 96f9 bf3f 4a73 0940 f973 ee3e
00000120: 6005 e93f 5f05 ba3f 7709 c33f 4e61 8e3f
00000130: ca9e 3440 d200 2440 88fa 53be 2781 1240
00000140: 83dc 983f 9e94 1e40 e158 cd3f c2cd 2540
00000150: 8517 a23f ef04 1f3f f65b e23f 776f dcbe
00000160: 6e39 ca3f 126d bb3f 2eff 183f f67f c13e
00000170: 79d7 ad3f e5e7 373f bbeb c03f e341 1e40
00000180: f3fa 353f 79e7 133f c308 c03f 9dc6 1c40
00000190: 56bc 913e 7ffa 2640 8fc0 6a3f afbf e73f
000001a0: a2b3 973e 0414 c43f 6bd1 c83f 499b 683f
000001b0: 75a7 ad3f af03 a93f 76c9 e83f 73b7 dd3f
000001c0: c423 ff3f 57e7 1640 691f 2340 af0d 9c3f
000001d0: 315d 0040 9a4a d13f c899 13be 9a2a fc3f
000001e0: 1d91 cc3f aff1 bb3f c1ce d43f 3268 c53f
000001f0: d9ce bf3f cee4 263f 0191 d63f f627 2e3e
00000200: e640 a23f 2e7e d73f d54c 2840 f3bc 8a3f
00000210: f34a b93f aa22 d53f 2b6b d53f a4a7 e63f
00000220: cc56 343e 11da a53e 979f 113f c6f6 26be
00000230: 5104 b53f e565 9f3e a5c4 903e 2946 ae3f
00000240: a62d 0b3e cfcc 2e3f c8bb 3cbe 78aa 643e
00000250: 5437 143f 0417 c23f f907 4f3f 8564 d53f
00000260: be0b d83f 441c 2940 fbc5 793f 74c1 963a
00000270: 3749 fd3e a2fd c83f 838a 8b3e 5acb 3040
00000280: 4428 fc3f e20f 92bd 4792 2740 9145 953f
00000290: 2184 2abe ae02 84be bdfd f5bd 5d06 9c3f
000002a0: 9135 6a3f 355c c13f c6dd a93f dbb5 803e
000002b0: e7e9 2a40 da75 be3f d90f a93f 3efb bb3f
000002c0: 22fc 1c3f 3e43 cc3f 4030 fb3f 97e5 0440
000002d0: cbc0 2940 5d67 8f3f 9bc2 2f3e d26c d43f
000002e0: 2fe7 8b3f faac 653e 6084 8b3f 229b 093f
000002f0: d2b2 2f3e eca5 033f eae6 913f 66ef c63f
00000300: f8ac c13f a9d8 cf3f 1dd5 2740 d66b 963e
00000310: e3ca ce3f fd8f 9d3f 22bf b53f 9281 ed3f
00000320: 02f3 ecbd 1698 9c3f 30e2 ba3e 813c 853f
00000330: 4209 a4bd 2225 203f 828c 173f b0bc 9fbd
00000340: 5280 2d3f b925 31be 38a5 d83f 6ce4 a93e
00000350: 0378 2f3f c054 e93f 22b2 1d40 4f79 2740
00000360: 6a37 1640 994e 52be b8ce c1bd 22bb df3f
00000370: d8c6 3b3f 52c7 9b3e 03b9 303f 3e34 c13f
00000380: 0aaa 0a3f 3126 0140 3101 e83f 0c3f 0240
00000390: 0dc3 3cbd f96c af3f 2373 8ebe dafb e63f
000003a0: 792e cebe 02cc 203f 3db8 cf3f cbd4 c83f
000003b0: e1e9 7d3f 778c be3f e51a 9a3e c263 bf3f
000003c0: bb18 f13f 3645 79be c601 ff3e e91d c43f
000003d0: 2fe8 973f 6671 113f bf53 ca3f 42da 243f
000003e0: ced7 dcbd 75d9 2940 9be0 903e 81bc d13f
000003f0: 1daf 783e e47d a23f b01b 92be 6bc2 473f

bn1.bias f4 [500]
-1.0049816 1.5136172 -0.80207014 -1.1963639 0.79081744 -1.4541742 0.54272115 -0.6979454
-1.8151692 -2.0648854 -0.844584 -1.2277654 -1.1772376 -2.2275877 -1.6622744 1.6424272
-0.09725195 -0.10813033 -1.2820073 -1.3600994 -2.0055242 -0.107805304 -1.3254174 0.36365768
-0.7392764 -2.0095918 -2.0146694 -1.1689357 -0.6776473 -1.1821865 0.4869916 -0.7359309
-1.160185 -0.32409188 -1.1272578 -0.7597042 0.69713694 -0.7996069 0.4136893 -1.6998327
-0.76823634 -2.0235069 -0.68577904 -0.76785326 -1.061242 -2.199449 -1.335476 -1.3490183
-1.9634875 -2.1026182 -1.7362229 -0.82706404 -2.0577908 -1.8460284 -1.0748056 -0.71370286
-2.1667285 -1.2884587 0.92040306 -0.48367804 -0.71382594 -2.2481802 -0.8325494 0.59003556
-0.9442033 -1.0899148 -1.6810447 1.1466259 -1.3268926 -2.050848 -2.196459 -0.18206708
-1.0563653 -1.9991251 -2.1170042 -0.28692278 0.88012516 0.63956 -1.322094 0.5603172
-0.6554998 1.517906 -0.71086186 1.6942068 0.3839252 2.8949382 -2.1913447 -1.2450776
-2.1704683 0.36439747 1.039633 0.52966714 -0.119913794 -1.2560879 -2.0669062 0.61699694
-1.3249501 0.60024905 -2.0667772 -2.442749 -1.0695411 1.605559 3.003261 -0.8801566
-1.1579821 -0.84802115 -2.1726565 -1.3296193 -1.883678 -0.50419635 -1.8993675 -0.76636386
0.51062053 -2.5210192 1.5691069 -0.3810124 -1.0524266 -1.7435832 -1.4746034 -0.18365842
-2.186944 -2.0334926 -2.2650123 -0.38978654 -0.72127134 -1.2207288 -2.2851114 0.15736847
-0.5601466 -0.8191733 1.6089038 2.6818871 -0.6946621 -2.2642746 -0.9477719 -0.98408616
-0.81569815 -1.613999 1.0693692 -1.4402308 -1.9558744 0.6721335 0.3515444 -1.8892899
-0.91950506 -1.2775776 -1.3878773 -0.8757516 0.9861222 -0.8096792 0.49789494 -0.7609098
-0.98168266 1.5991744 -1.375339 -1.0408895 0.85741913 -0.8866796 -1.8544197 1.699585
-1.1529745 -2.122506 1.1028739 -0.6592714 -1.5106797 -1.2961473 -1.1619388 -0.35679808
-0.3175361 -2.0754385 -0.75129646 -1.2251836 0.6664495 -2.0432918 -0.415185 -2.024812
-1.6281633 -0.76595545 -0.9400118 0.8072544 1.0999691 -0.66621083 6.9656744 -2.2578216
-0.28280863 0.17135859 -0.64803606 1.1065192 -0.79095876 0.9642728 -0.6497447 -2.1187592
-2.0830107 -0.88941395 1.6155025 0.31563488 0.4123527 -0.35893318 -1.9706565 -2.179493
-1.2581294 -0.100265056 0.6342429 0.7046154 -1.1861572 -0.20785554 1.2246834 -1.3920758
-1.2693104 -1.5036515 -0.94558024 0.50769407 -1.2843057 -2.14235 1.454075 -1.9401114
0.5524628 -1.3684043 -1.201652 -0.9761353 -1.3741056 0.45192304 -0.37340266 -0.5746166
0.3738906 -0.91579443 -2.2408 -1.0993409 -1.170671 -0.93212277 -1.3174042 -1.0023838
-1.2360728 0.43383554 -0.9072153 -2.1425102 -0.38198942 -2.0526102 -0.945867 -0.67832106
-0.99447376 -1.0114882 -1.3459326 0.38348356 -0.6978091 1.2223055 -0.6964806 0.41487974
-1.087959 1.097911 -0.860241 -2.2323227 -0.979871 -0.38459232 -1.7272351 -0.25926235
00000000: 3da3 80bf 35be c13f 7854 4dbf 7422 99bf
00000010: 0373 4a3f 6122 babf c6ef 0a3f 8dac 32bf
00000020: 7757 e8bf 1527 04c0 a836 58bf 6b27 9dbf
00000030: b9af 96bf cc90 0ec0 68c5 d4bf 0e3b d23f
00000040: 082c c7bd 6f73 ddbd d118 a4bf bd17 aebf
00000050: 825a 00c0 07c9 dcbd 47a7 a9bf 5731 ba3e
00000060: 3841 3dbf 279d 00c0 58f0 00c0 af9f 95bf
00000070: 4b7a 2dbf e351 97bf f756 f93e f865 3cbf
00000080: f180 94bf 5fef a5be fc49 90bf f97b 42bf
00000090: 9177 323f 0ab3 4cbf 15cf d33e 1e94 d9bf
000000a0: 23ab 44bf 2381 01c0 378f 2fbf 0892 44bf
000000b0: c7d6 87bf c6c3 0cc0 e1f0 aabf a2ac acbf
000000c0: 8f53 fbbf 4c91 06c0 8d3c debf 78ba 53bf
000000d0: d8b2 03c0 a94a ecbf 3b93 89bf 3bb5 36bf
000000e0: aeab 0ac0 37ec a4bf 899f 6b3f a6a4 f7be
000000f0: 4cbd 36bf 2fe2 0fc0 f521 55bf 920c 173f
00000100: 4fb7 71bf 5482 8bbf 792c d7bf a3c4 923f
00000110: 9ed7 a9bf 1841 03c0 c992 0cc0 cb6f 3abe
00000120: fa36 87bf 55e3 ffbf ff7c 07c0 8be7 92be
00000130: e24f 613f 34ba 233f 603a a9bf f370 0f3f
00000140: d6ce 27bf be4a c23f 0bfb 35bf c5db d83f
00000150: d891 c43e ab46 3940 fe3e 0cc0 b45e 9fbf
00000160: f4e8 0ac0 4e92 ba3e b212 853f 4498 073f
00000170: 5d95 f5bd 7dc7 a0bf 3148 04c0 83f3 1d3f
00000180: f797 a9bf eca9 193f 1446 04c0 0056 1cc0
00000190: b9e6 88bf f582 cd3f 6e35 4040 f151 61bf
000001a0: c238 94bf ea17 59bf ce0c 0bc0 f730 aabf
000001b0: 5c1c f1bf 0313 01bf 791e f3bf 6c30 44bf
000001c0: 07b8 023f 6158 21c0 7fd8 c83f 0f14 c3be
000001d0: eab5 86bf bc2d dfbf cebf bcbf f410 3cbe
000001e0: e4f6 0bc0 be24 02c0 f6f5 10c0 1a92 c7be
000001f0: 3da5 38bf d740 9cbf 443f 12c0 3325 213e
00000200: c465 0fbf 57b5 51bf 8ff0 cd3f 0aa4 2b40
00000210: 60d5 31bf e0e9 10c0 2ea1 72bf 12ed 7bbf
00000220: 98d1 50bf 8597 cebf 17e1 883f 7c59 b8bf
00000230: 185a fabf f110 2c3f a1fd b33e 40d4 f1bf
00000240: af64 6bbf aa87 a3bf f7a5 b1bf 4231 60bf
00000250: 8172 7c3f 2347 4fbf 16ec fe3e fcca 42bf
00000260: 8e4f 7bbf bfb1 cc3f 1c0b b0bf de3b 85bf
00000270: d27f 5b3f 6ffd 62bf a05d edbf 008c d93f
00000280: ab94 93bf 23d7 07c0 f92a 8d3f 03c6 28bf
00000290: f45d c1bf 28e8 a5bf 69ba 94bf 3dae b6be
000002a0: 1794 a2be fcd3 04c0 f754 40bf d1d2 9cbf
000002b0: 6f9c 2a3f 4bc5 02c0 2193 d4be 8596 01c0
000002c0: a867 d0bf a815 44bf 9da4 70bf 39a8 4e3f
000002d0: cacb 8c3f cb8c 2abf cee6 de40 2680 10c0
000002e0: 4bcc 90be a078 2f3e b1e5 25bf 6ca2 8d3f
000002f0: 467c 4abf 95da 763f ab55 26bf c099 07c0
00000300: 0c50 05c0 a2b0 63bf c9c8 ce3f e59a a13e
00000310: e51f d33e 17c6 b7be 793e fcbf d07c 0bc0
00000320: 620a a1bf c457 cdbd be5d 223f ad61 343f
00000330: 00d4 97bf 15d8 54be 6dc2 9c3f 8a2f b2bf
00000340: c378 a2bf a777 c0bf 8c11 72bf 3df8 013f
00000350: 2164 a4bf 431c 09c0 211f ba3f 9255 f8bf
00000360: 346e 0d3f df27 afbf bccf 99bf 01e4 79bf
00000370: b1e2 afbf 7562 e73e a22e bfbe 131a 13bf
00000380: 976e bf3e 8171 6abf 4469 0fc0 34b7 8cbf
00000390: 8cd8 95bf 999f 6ebf b3a0 a8bf 1d4e 80bf
000003a0: a237 9ebf b11f de3e 433f 68bf e31e 09c0
000003b0: 1e94 c3be f75d 03c0 5724 72bf 73a6 2dbf
000003c0: d595 7ebf 7278 81bf 8547 acbf f557 c43e
000003d0: 9ea3 32bf 8274 9c3f 8d4c 32bf 1e6b d43e
000003e0: 3e42 8bbf 5988 8c3f c138 5cbf 60de 0ec0
000003f0: d3d8 7abf 49e9 c4be 0a16 ddbf 09be 84be

bn1.running_mean f4 [500]
0.36086386 3.3130853 -0.010225316 -0.019130953 -0.75151616 -0.054354075 0.039101202 0.0598237
0.05218684 -0.14784887 0.4515087 0.35756207 -0.4957104 -0.32645008 1.7130008 0.6328015
-0.24839368 -0.37525478 0.39667487 -0.061785955 0.35173583 -0.70937884 -0.3063897 -0.016151473
-0.028714068 1.8309295 0.4667417 0.12140687 0.045784485 0.17161849 -0.47784063 -0.052804615
0.26297256 -0.0047286795 -0.3968257 -0.08101025 -0.21393906 -0.06119336 0.11546329 1.0880417
-0.52414745 0.09844557 0.034841515 0.975744 -0.4535428 0.73387885 -0.2576457 0.48725206
-0.05364865 0.07349516 0.37409365 -0.8438008 1.1918712 -0.07182405 -0.25136113 -0.35300845
0.002375732 0.21376026 0.88617724 0.5101576 0.122131936 0.21717781 -0.022079924 0.51889306
-0.035199564 0.093169235 1.3722421 -0.01424618 0.001415379 2.1324482 -0.23673812 -0.33436885
0.46045762 -0.22240941 0.020490784 0.23987387 -2.3874633 -1.1725307 -0.34180766 -0.5000558
0.30046052 0.44043803 1.1209166 -1.343738 -0.85381544 -0.06030977 1.3437012 -0.4753718
1.098788 -0.9016723 -0.006686313 0.071890265 -0.31766638 0.2875002 -0.0150892325 0.53623515
0.37940332 -0.11129292 -0.85253525 0.37010023 0.13310373 -1.8426114 -0.14004628 -0.2353557
-0.14217187 -0.17979778 0.40822786 0.17306347 0.09461715 0.07238402 0.28949878 0.29132253
-0.045116536 1.4870425 0.132329 -0.6885533 0.34888604 0.35337254 -0.18898474 0.16360405
0.316916 -0.35080743 0.8706012 1.2401459 -0.752923 0.31138763 -0.026875487 -0.29440218
-0.071519494 0.037310764 -0.09359703 -0.30402908 0.07573289 -0.29070067 0.7461771 -0.7526362
0.10103152 -0.1531874 -0.082622536 -0.20121041 1.2280456 -0.16882133 -0.1614394 0.12451606
0.03014075 0.60374546 -0.040877543 -0.23346366 -0.20544636 -1.0148332 -0.123638794 -0.9404505
-0.2565279 3.2198114 0.023372648 0.19392507 -0.04154109 0.07544584 -0.095850535 0.200695
1.3106426 -0.035194725 1.4838899 0.45689267 -0.27895367 -0.054593276 -0.066683 0.28174332
0.06285326 0.38182223 -0.17219457 0.30779815 -0.3536307 0.004665945 -0.36305073 0.45329565
0.4400635 0.4144752 -0.18506834 0.48202673 0.5121599 0.36966503 0.27777222 -0.29620275
0.0062627546 -0.10997895 0.4272495 -0.14291836 0.5477452 -0.04225464 0.0018665722 0.6221446
0.4274667 0.1724999 0.79538053 -0.31324288 -0.30303103 -0.31580228 0.16542512 1.367629
-0.2223988 0.022950709 -0.07277074 0.3806302 0.07144512 -0.24389602 -0.10567118 0.18960388
0.39121222 0.10563069 -0.3611005 -0.056765266 0.24054007 0.118012056 0.33084813 -1.1808423
-0.41181973 -0.008519059 0.2508478 0.028702855 0.21229368 -0.107372515 -0.12335673 -0.87565154
-0.18212281 0.5467859 0.41763905 -0.30047303 0.24664329 -0.15690626 -0.33450192 0.25119048
-0.45752975 -0.037581697 -0.176195 0.010701885 -0.14648254 0.4109631 -0.282822 -0.13325642
0.10093229 0.30731 0.46352687 -0.08904664 0.30029798 -0.060212255 0.14519466 -0.28672624
-0.32525188 2.958419 0.5997814 0.015051283 0.4829994 0.18602298 -0.11640028 -0.25109324
00000000: 26c3 b83e 9709 5440 1588 27bc 84b8 9cbc
00000010: 5d63 40bf 61a2 5ebd 9528 203d b209 753d
00000020: dec1 553d b265 17be 262c e73e 6012 b73e
00000030: c1cd fdbe 7724 a7be 9c43 db3f 47ff 213f
00000040: ea5a 7ebe 6521 c0be f818 cb3e 4513 7dbd
00000050: b816 b43e da99 35bf 1cdf 9cbe 1850 84bc
00000060: c439 ebbc e65b ea3f c5f8 ee3e 2aa4 f83d
00000070: 8388 3b3d c2bc 2f3e 87a7 f4be a749 58bd
00000080: 57a4 863e 0af3 9abb bd2c cbbe b4e8 a5bd
00000090: d712 5bbe e3a5 7abd 0478 ec3d f344 8b3f
000000a0: 872e 06bf d59d c93d fab5 0e3d 5cca 793f
000000b0: c336 e8be 7cdf 3b3f 23ea 83be 1a79 f93e
000000c0: b0be 5bbd a184 963d 3489 bf3e 5403 58bf
000000d0: 3c8f 983f 7d18 93bd 68b2 80be 86bd b4be
000000e0: 2bb2 1b3b f8e3 5a3e 83dc 623f b099 023f
000000f0: 4f20 fa3d dc63 5e3e f5e0 b4bc 2dd6 043f
00000100: 6b2d 10bd 83cf be3d a1a5 af3f cf68 69bc
00000110: 3d84 b93a 087a 0840 7a6b 72be 6532 abbe
00000120: 1ac1 eb3e 4bbf 63be 4adc a73c 7fa1 753e
00000130: 33cc 18c0 7c15 96bf 6a01 afbe a803 00bf
00000140: f6d5 993e 1881 e13e 327a 8f3f 9bff abbf
00000150: a693 5abf 6107 77bd 67fe ab3f ef63 f3be
00000160: 16a5 8c3f ffd3 66bf dc18 dbbb 343b 933d
00000170: 2ba5 a2be 3a33 933e d438 77bc b546 093f
00000180: 2741 c23e 8bed e3bd c03f 5abf c77d bd3e
00000190: 584c 083e b1da ebbf 4b68 0fbe 1601 71be
000001a0: 8195 11be e91c 38be 3e03 d13e 8d37 313e
000001b0: a3c6 c13d 133e 943d 2f39 943e 3a28 953e
000001c0: 1ecc 38bd 6957 be3f 4181 073e 0745 30bf
000001d0: 31a1 b23e 3fed b43e 3785 41be d287 273e
000001e0: d042 a23e 089d b3be b8df 5e3f 1abd 9e3f
000001f0: 90bf 40bf 336e 9f3e fb29 dcbc e2bb 96be
00000200: d078 92bd 2cd3 183d cdaf bfbd b3a9 9bbe
00000210: d819 9b3d b8d6 94be 7605 3f3f c4ac 40bf
00000220: 9de9 ce3d 28dd 1cbe 0136 a9bd 1a0a 4ebe
00000230: 9930 9d3f 80df 2cbe 5f50 25be 4702 ff3d
00000240: bce9 f63c 108f 1a3f 366f 27bd 1911 6fbe
00000250: 8860 52be 0ee6 81bf 5636 fdbd 5dc1 70bf
00000260: a057 83be 6411 4e40 ff77 bf3c 4b94 463e
00000270: fd26 2abd 5983 9a3d 494d c4bd fd82 4d3e
00000280: 23c3 a73f 5828 10bd 1bf0 bd3f d6ed e93e
00000290: 04d3 8ebe 339d 5fbd 1991 88bd a940 903e
000002a0: 36b9 803d 347e c33e c653 30be b897 9d3e
000002b0: 150f b5be c9e4 983b c9e1 b9be 5e16 e83e
000002c0: 0150 e13e 1836 d43e 8e82 3dbe 35cc f63e
000002d0: e91c 033f bc44 bd3e 2938 8e3e e3a7 97be
000002e0: cb37 cd3b a53c e1bd 72c0 da3e 3159 12be
000002f0: 0839 0c3f 3413 2dbd c5a7 f43a de44 1f3f
00000300: eadc da3e d0a3 303e 0f9e 4b3f 5f61 a0be
00000310: e226 9bbe d6b0 a1be 3465 293e 780e af3f
00000320: 83bc 63be 2003 bc3c d308 95bd f6e1 c23e
00000330: d251 923d e1bf 79be 226a d8bd 8527 423e
00000340: f84c c83e e754 d83d 2ae2 b8be b282 68bd
00000350: 2350 763e 4eb0 f13d ed64 a93e d725 97bf
00000360: 09da d2be 8693 0bbc 1f6f 803e 4022 eb3c
00000370: 8463 593e 1fe6 dbbd 74a2 fcbd b32a 60bf
00000380: 677e 3abe 29fa 0b3f c9d4 d53e 9ad7 99be
00000390: 0f90 7c3e 09ac 20be d643 abbe 0a9c 803e
000003a0: 5741 eabe 44ef 19bd 766c 34be f656 2f3c
000003b0: 85ff 15be c169 d23e 0cce 90be 5f74 08be
000003c0: 97b5 ce3d bc57 9d3e 6553 ed3e 165e b6bd
000003d0: a8c0 993e 20a1 76bd e9ad 143e c8cd 92be
000003e0: 6a87 a6be bd56 3d40 468b 193f a899 763c
000003f0: b34b f73e cf7c 3e3e 4563 eebd 4b8f 80be

bn1.running_var f4 [500]
0.007083873 0.040263567 0.03091496 0.027851446 0.04212177 0.020773806 0.03414815 0.031843107
0.026735077 0.028813427 0.053981446 0.022047166 0.02633732 0.050685592 0.028566884 0.03386631
0.04420476 0.04036607 0.021016054 0.03690724 0.02632586 0.040926028 0.024906289 0.038203657
0.029951006 0.048555583 0.026749462 0.017248668 0.032200985 0.017464397 0.031628698 0.031268254
0.019415436 0.033894744 0.027725866 0.0046562506 0.04003207 0.031589374 0.031891525 0.042307235
0.028259218 0.047909547 0.03581165 0.030275166 0.015717372 0.027654361 0.025229493 0.02389357
0.028941851 0.029242141 0.049679372 0.035904225 0.04563479 0.026327284 0.026351646 0.04619562
0.028562177 0.02336849 0.043329686 0.025646968 0.03480575 0.030314073 0.029728452 0.041176796
0.03288993 0.06641146 0.026812548 0.036195192 0.020321649 0.037664272 0.05890604 0.03861784
0.06493927 0.026794113 0.026716948 0.03131044 0.050452657 0.045326278 0.025664123 0.029725056
0.025231699 0.033321597 0.03132619 0.02994791 0.04861797 0.029446656 0.0518924 0.0288743
0.02905246 0.048389167 0.03726128 0.03312353 0.04139617 0.021361532 0.029498275 0.034933235
0.003354387 0.039445337 0.043410033 0.03658986 0.0032668237 0.03210832 0.031933703 0.030218745
0.027755652 0.036551308 0.029275611 0.024203135 0.02781818 0.032136273 0.02535226 0.040088408
0.032850143 0.029193677 0.03448406 0.053352132 0.044131972 0.027466407 0.020395689 0.025075356
0.046754524 0.034314804 0.02777163 0.033917714 0.0295205 0.023183867 0.028151104 0.040176876
0.03071901 0.028293487 0.04287711 0.033959866 0.030917443 0.028741939 0.024588974 0.03577976
0.0018546557 0.039648905 0.03128145 0.0006738149 0.032936797 0.032342423 0.040951785 0.026522275
0.02226571 0.02314153 0.023734374 0.026806476 0.030788083 0.026762754 0.053937245 0.023835521
0.026650008 0.035804637 0.024172012 0.00501311 0.037554063 0.029829381 0.05259898 0.031279624
0.031044994 0.03442742 0.04069225 0.02529924 0.02136175 0.013706863 0.00073900534 0.035905648
0.0357111 0.04878756 0.04666687 0.024417007 0.03577018 0.027548632 0.047067113 0.04831912
0.025460424 0.03176841 0.031428326 0.030301789 0.038833328 0.023180027 0.029951429 0.028282024
0.03170176 0.030925585 0.020626212 0.030535707 0.0010626053 0.030148854 0.0068473243 0.05012655
0.048719835 0.028946856 0.044209484 0.038973417 0.03320449 0.033739213 0.03635002 0.037900288
0.013618014 0.03393814 0.038053777 0.025429947 0.00417565 0.031246837 0.040298726 0.010851679
0.023099013 0.027920328 0.054650348 0.036136717 0.005147602 0.030567093 0.03773026 0.03915985
0.033752203 0.021026324 0.0023809266 0.029698504 0.023542242 0.030351784 0.0401666 0.039391264
0.04061102 0.031028965 0.03927228 0.03157605 0.017916694 0.024426073 0.027206859 0.025104785
0.028978385 0.040493157 0.041522898 0.043163393 0.042920478 0.028166577 0.021636602 0.024108773
0.03252985 0.028651081 0.025462305 0.042846743 0.022622194 0.036262598 0.034835488 0.042297184
0.027364906 0.0369409 0.022620227 0.028392212 0.004757476 0.033788584 0.030673988 0.03242675
00000000: d51f e83b 69eb 243d 5f41 fd3c b728 e43c
00000010: e187 2c3d d42d aa3c eede 0b3d eb6d 023d
00000020: 8503 db3c 230a ec3c a61b 5d3d 429c b43c
00000030: 5dc1 d73c b29b 4f3d 1905 ea3c 66b7 0a3d
00000040: 0d10 353d e456 253d dc29 ac3c 0c2c 173d
00000050: 54a9 d73c 0da2 273d 4608 cc3c 707b 1c3d
00000060: d05b f53c 38e2 463d b021 db3c 144d 8d3c
00000070: 2ee5 033d 7f11 8f3c 188d 013d 2413 003d
00000080: 1f0d 9f3c 37d5 0a3d 5b21 e33c 7693 983b
00000090: abf8 233d dc63 013d b0a0 023d 5a4a 2d3d
000000a0: e07f e73c cd3c 443d 3daf 123d a003 f83c
000000b0: b8c1 803c 668b e23c 15ae ce3c 73bc c33c
000000c0: 7617 ed3c 378d ef3c 997c 4b3d 4f10 133d
000000d0: 8ceb 3a3d 51ac d73c 68df d73c 9e37 3d3d
000000e0: 3afb e93c 476f bf3c 787a 313d 9719 d23c
000000f0: 7990 0e3d 3855 f83c 1589 f33c 00a9 283d
00000100: 97b7 063d bb02 883d fda5 db3c 6941 143d
00000110: 9679 a63c da45 1a3d 7647 713d bd2d 1e3d
00000120: e1fe 843d 547f db3c 80dd da3c 603f 003d
00000130: 72a7 4e3d 0ca8 393d 913d d23c f681 f33c
00000140: b5b2 ce3c 3a7c 083d e44f 003d 5255 f53c
00000150: a323 473d 1d3a f13c 208d 543d cc89 ec3c
00000160: 6dff ed3c b833 463d 499f 183d 8aac 073d
00000170: 088f 293d 61fe ae3c 5ea6 f13c 2716 0f3d
00000180: 46d5 5b3b 6f91 213d b8ce 313d 40df 153d
00000190: 3518 563b 0484 033d eacc 023d 4d8d f73c
000001a0: d25f e33c d3b6 153d 68d3 ef3c a745 c63c
000001b0: f4e2 e33c 53a1 033d 8baf cf3c be33 243d
000001c0: df8d 063d 9427 ef3c 283f 0d3d c487 5a3d
000001d0: bac3 343d 3b01 e13c dc14 a73c d56a cd3c
000001e0: ac81 3f3d ae8d 0c3d 5481 e33c 4ded 0a3d
000001f0: fad4 f13c 18ec bd3c 259d e63c 8290 243d
00000200: 6fa6 fb3c bec7 e73c e99f 2f3d 8019 0b3d
00000210: 9446 fd3c 3774 eb3c d16e c93c cc8d 123d
00000220: eb17 f33a e466 223d fa20 003d f4a2 303a
00000230: bce8 063d 7d79 043d 0fbd 273d 3e45 d93c
00000240: 9466 b63c 4e93 bd3c 976e c23c 4199 db3c
00000250: 4a37 fc3c 903d db3c 4ded 5c3d b642 c33c
00000260: 1e51 da3c e2a7 123d 6204 c63c 0445 a43b
00000270: 4ad2 193d bf5c f43c 0772 573d 101f 003d
00000280: 1252 fe3c c403 0d3d ebac 263d 5a40 cf3c
00000290: d6fe ae3c c092 603c cfb9 413a cd11 133d
000002a0: cd45 123d 77d5 473d c325 3f3d 2d06 c83c
000002b0: c183 123d abad e13c 72c9 403d 45ea 453d
000002c0: 6192 d03c 981f 023d fdba 003d 753b f83c
000002d0: b20f 1f3d 0ae4 bd3c b35c f53c b4af e73c
000002e0: b4d9 013d a757 fd3c 4df8 a83c 0526 fa3c
000002f0: 1e47 8b3a bbfa f63c 855f e03b 7f51 4d3d
00000300: 738e 473d f521 ed3c 0115 353d 97a2 1f3d
00000310: 6e01 083d 2132 0a3d c2e3 143d 553d 1b3d
00000320: 171e 5f3c b802 0b3d 47de 1b3d 7752 d03c
00000330: e4d3 883b 5ef9 ff3c 4710 253d 3ecb 313c
00000340: 243a bd3c 2cb9 e43c 0bd9 5f3d 1804 143d
00000350: 37ad a83b d767 fa3c 0c8b 1a3d 1466 203d
00000360: c03f 0a3d 663f ac3c 5209 1c3b 474a f33c
00000370: a9db c03c 4ea4 f83c bc85 243d bc58 213d
00000380: be57 263d 7530 fe3c f8db 203d e355 013d
00000390: 08c6 923c 3019 c83c ebe0 de3c 8da8 cd3c
000003a0: 1464 ed3c 27dc 253d ea13 2a3d 19cc 303d
000003b0: 62cd 2f3d 98bd e63c 3e3f b13c c37f c53c
000003c0: 053e 053d acb5 ea3c 5396 d03c 1180 2f3d
000003d0: 2e52 b93c 1788 143d a8af 0e3d d03f 2d3d
000003e0: 5e2c e03c 574f 173d 0e4e b93c c996 e83c
000003f0: 9ae4 9b3b e665 0a3d 0448 fb3c e9d1 043d

conv2.bias f4 [250]
-0.059598383 -0.025351552 0.09659923 -0.107453115 0.14529543 0.024032049 0.09543952 -0.011008418
-0.17398898 -0.00932776 -0.060088385 -0.017658764 0.09258299 -0.011333407 -0.07291743 0.015989732
-0.10050652 -0.09361408 0.17177267 -0.014439366 -0.089476354 -0.04075054 0.05428254 -0.1325709
0.094293565 -0.025179708 -0.05648282 0.052375793 -0.054399073 -0.038043387 0.004873076 -0.0010713602
0.04249081 -0.0017124492 -0.003720164 -0.11104554 -0.047582176 -0.058185395 0.020474186 -0.040918756
-0.054551408 0.032892585 -0.000795145 -0.07666858 -0.18496376 0.04554053 0.0147703225 0.05251085
0.0065557 0.19216508 -0.026694061 -0.04833709 0.12391648 0.027514279 -0.06004485 -0.089547485
0.029705781 -0.0034249595 -0.09907752 0.020211378 0.03729782 0.07016173 0.054970067 -0.07937309
-0.11942976 0.112935185 -0.0119129075 0.05494164 0.019216094 -0.004908027 -0.035734836 0.23345391
0.015499166 -0.30138636 -0.030163897 0.026555885 0.0108115 0.00042274914 0.050259504 -0.1255939
0.014316523 0.18352163 0.04213648 0.051284004 0.2604239 -0.006816402 0.0027613924 -0.056031656
-0.14030206 -0.096324995 -0.24061176 -0.092037536 0.080275394 -0.019521408 -0.11415439 -0.061252438
0.28332487 -0.008204975 0.0006294337 0.08251919 -0.0351923 0.020614156 0.028281892 -0.13988261
0.0326579 -0.011099715 -0.030048436 -0.11726982 -0.24146022 -0.00011244008 -0.04726028 -0.002048387
-0.007816323 -0.07042005 0.03229649 0.035014182 0.13177682 0.10729133 -0.049561262 -0.092403725
-0.050228816 -0.0091513675 0.15398632 -0.119949974 0.009984226 0.025742337 0.1429586 -0.086542666
0.12668513 0.2935881 -0.086421214 0.015922625 0.03904034 -0.0040858737 -0.45591664 -0.019026142
-0.17949405 -0.033362158 -0.17279103 0.025495168 0.021340385 -0.114278644 -0.037499662 0.025530776
-0.015792554 0.007032206 -0.014228677 0.07043787 -0.16600388 -0.03281659 -0.04450109 0.023888852
0.088717476 0.010647077 -0.09693144 0.17527376 0.029702675 -0.004718939 -0.29242203 0.090210035
-0.0044663497 0.0389485 0.28323686 -0.012550298 0.09631769 -0.15088224 -0.016907223 -0.03550373
-0.03816991 0.22345935 0.108997725 -0.0942818 -0.026685957 -0.01674019 0.058326792 0.14428793
-0.011056044 -0.104457065 -0.0011388012 0.00015063646 -0.044548016 -0.24589866 -0.051555194 0.015147345
0.063836105 0.012822006 0.13379939 -0.01730129 -0.030495146 -0.124493845 -0.013472451 -0.03874198
-0.016635735 -0.14995776 0.019009639 -0.024413692 -0.096456215 -0.27083772 0.0004042752 0.0044859024
-0.27806172 -0.09244388 0.03196713 0.16530319 0.016702175 0.12566698 -0.07322852 0.009764757
0.06066268 0.0075842002 -0.13325903 0.2511536 0.020129336 -0.03542752 -0.00065283885 -0.014082323
-0.0151456315 -0.1999469 0.02233983 0.024204519 0.055861954 -0.23037365 -0.18785223 0.05262279
0.051751494 -0.05232676 0.1601808 -0.031077165 -0.004170266 -0.010135417 0.052873578 -0.13659571
0.0045972536 -0.016260542 -0.0050329734 -0.14777362 0.033204168 0.016879205 0.41607326 0.030480403
0.1493936 0.013987457 -0.04282224 -0.12130095 0.034726936 -0.13980876 0.086451925 -0.013882404
0.0035862653 -0.03527449
00000000: 6f1d 74bd 0fae cfbc d1d5 c53d 6110 dcbd
00000010: 53c8 143e dcde c43c cc75 c33d a75c 34bc
00000020: 2b2a 32be 76d3 18bc 3d1f 76bd 1da9 90bc
00000030: 279c bd3d c1af 39bc bc55 95bd e6fc 823c
00000040: 5dd6 cdbd bdb8 bfbd 2de5 2f3e 1793 6cbc
00000050: 613f b7bd 0aea 26bd 5e57 5e3d aac0 07be
00000060: fc1c c13d ad45 cebc 885a 67bd 0088 563d
00000070: 90d1 5ebd 62d3 1bbd 53ae 9f3b e26c 8cba
00000080: d80a 2e3d 4374 e0ba ffcd 73bb d86b e3bd
00000090: 87e5 42bd cf53 6ebd 7bb9 a73c 6d9a 27bd
000000a0: 4c71 5fbd 60ba 063d 4771 50ba 6b04 9dbd
000000b0: 2467 3dbe b588 3a3d 39ff 713c 9e15 573d
000000c0: 33d1 d63b ecc6 443e 81ad dabc 1dfd 45bd
000000d0: ecc7 fd3d a065 e13c 97f1 75bd ac64 b7bd
000000e0: 8a59 f33c 4975 60bb 28e9 cabd 5592 a53c
000000f0: 99c5 183d f4b0 8f3d 4b28 613d 5c8e a2bd
00000100: 9797 f4bd 904a e73d 5b2e 43bc 7c0a 613d
00000110: 126b 9d3c 84d3 a0bb b15e 12bd 8b0e 6f3e
00000120: 37f0 7d3c 504f 9abe 471a f7bc ba8b d93c
00000130: b822 313c 6ea4 dd39 e9dc 4d3d b09b 00be
00000140: da8f 6a3c 18ed 3b3e 4d97 2c3d 2d0f 523d
00000150: 4856 853e 205c dfbb 7af8 343b 7381 65bd
00000160: 58ab 0fbe 0a46 c5bd ee62 76be 2d7e bcbd
00000170: 6d67 a43d 5ceb 9fbc c7c9 e9bd d6e3 7abd
00000180: f50f 913e 296e 06bc 9500 253a d2ff a83d
00000190: cd25 10bd 05df a83c 6daf e73c 633d 0fbe
000001a0: 4ac4 053d 94db 35bc 2328 f6bc 292b f0bd
000001b0: 5941 77be cfcd ebb8 ff93 41bd 3b3e 06bb
000001c0: 0910 00bc 6338 90bd 5349 043d 086b 0f3d
000001d0: 81f0 063e 8fbb db3d c000 4bbd 2a3e bdbd
000001e0: bbbc 4dbd 9eef 15bc 97ae 1d3e 55a8 f5bd
000001f0: e194 233c 98e1 d23c bd63 123e 483d b1bd
00000200: bfb9 013e 2e51 963e 9bfd b0bd 2a70 823c
00000210: c3e8 1f3d cbe2 85bb e86d e9be b6dc 9bbc
00000220: 4acd 37be c2a6 08bd 22f0 30be 3edb d03c
00000230: 08d2 ae3c ec0a eabd 3f99 19bd eb25 d13c
00000240: 635f 81bc 6b6e e63b 661f 69bc bb41 903d
00000250: ecfc 29be b06a 06bd c646 36bd 8eb2 c33c
00000260: 82b1 b53d 1471 2e3c fe83 c6bd f77a 333e
00000270: 0653 f33c 54a1 9abb 57b8 95be 0ac0 b83d
00000280: 755a 92bb 7688 1f3d 6c04 913e c49f 4dbc
00000290: 3642 c53d e080 1abe 0481 8abc 5c6c 11bd
000002a0: 0d58 1cbd 87d2 643e 333a df3d d116 c1bd
000002b0: 829c dabc b922 89bc 13e8 6e3d 37c0 133e
000002c0: 6924 35bc 96ed d5bd d443 95ba 2bf4 1d39
000002d0: fb77 36bd dccc 7bbe 8a2b 53bd 922c 783c
000002e0: 81bc 823d 6413 523c b502 093e 6fbb 8dbc
000002f0: f5d0 f9bc a1f6 febd 8ebb 5cbc e9af 1ebd
00000300: aa47 88bc 878e 19be 1aba 9b3c 39ff c7bc
00000310: d68a c5bd 3eab 8abe e6f4 d339 7afe 923b
00000320: 1b5e 8ebe 3853 bdbd f7ef 023d 3d45 293e
00000330: 00d3 883c d8ae 003e d6f8 95bd 5cfc 1f3c
00000340: 6e79 783d e284 f83b 0e75 08be 3497 803e
00000350: 47e6 a43c 721c 11bd 4623 2bba 8bb9 66bc
00000360: 6225 78bc e1be 4cbe 0502 b73c 8e48 c63c
00000370: 81cf 643d 12e7 6bbe 565c 40be ff8a 573d
00000380: 60f9 533d 9654 56bd 7006 243e 8a95 febc
00000390: baa6 88bb 050f 26bc f791 583d bfdf 0bbe
000003a0: 8fa4 963b d434 85bc a4eb a4bb f851 17be
000003b0: 1801 083d 4246 8a3c 8e07 d53e 0ab2 f93c
000003c0: a3fa 183e a62b 653c 6066 2fbd a26c f8bd
000003d0: d53d 0e3d 072a 0fbe b50d b13d 0673 63bc
000003e0: 8c07 6b3b fc7b 10bd

conv2.lin.weight f4 [250, 500]
0.68381566 0.6366477 0.48295438 0.7240326 0.6072076 0.664222 0.54070914 0.5501352
0.6794117 0.5737356 0.6244517 0.7261423 0.587835 0.5877009 0.5344876 0.58921754
0.63522935 0.6234637 0.62766933 0.6828975 0.6003755 0.65741307 0.678255 0.6926132
0.50207734 0.64394397 0.6444857 0.67468536 0.49348518 0.67817795 0.6661342 0.5207635
0.55972683 0.5737662 0.59742194 0.68149024 0.64934814 0.47547323 0.64879 0.6555416
0.6225354 0.533625 0.67384696 0.5857787 0.5477208 0.53766805 0.63151973 0.61828476
0.47537404 0.620341 0.5056966 0.607621 0.62927973 0.5755753 0.72449255 0.7080171
0.5813172 0.6240318 0.5915566 0.5571869 0.63798237 0.54837507 0.5798495 0.65535116
0.6313696 0.5069782 0.5714667 0.6615263 0.70669204 0.5080504 0.6551339 0.68961775
0.58687556 0.5913356 0.6257598 0.54512614 0.6909558 0.6218279 0.6815104 0.69989336
0.5471152 0.5421166 0.5293669 0.6671565 0.6194808 0.5854154 0.5441503 0.71417695
0.6079968 0.58826417 0.6513089 0.6426277 0.69095606 0.57407993 0.6335896 0.7103725
0.6788306 0.54872555 0.49618158 0.50168574 0.6183416 0.5977011 0.5978775 0.54831684
0.6305776 0.59371084 0.4963851 0.6108287 0.5631106 0.5811699 0.6670553 0.5658356
0.59480256 0.36098427 0.55940175 0.69010085 0.55158144 0.489074 0.6991336 0.5372588
0.5292965 0.50125384 0.568699 0.64686227 0.6121177 0.58528167 0.5469642 0.5516405
0.5887323 0.5882537 0.60473555 0.67150086 0.5732255 0.55545986 0.59551215 0.51216483
0.68181825 0.69381994 0.55886215 0.5924136 0.63079953 0.68578416 0.5896369 0.4931778
0.6620429 0.70853394 0.5724155 0.6170137 0.5675054 0.4830267 0.6655186 0.55805326
0.64061093 0.6682488 0.61447895 0.6546175 0.6030944 0.5408114 0.61521256 0.5300877
0.60544306 0.5873423 0.6015196 0.51232314 0.600636 0.68619704 0.6106625 0.58681566
0.58225363 0.513403 0.61280155 0.5675362 0.6078594 0.49244437 0.6095132 0.5796722
0.571677 0.61739445 0.5383219 0.6542839 0.50065714 0.56569374 0.7254378 0.4312915
0.5827732 0.56929976 0.55303276 0.659318 0.6328827 0.57222635 0.6541799 0.5847136
0.56113917 0.5483722 0.67900455 0.66112286 0.6485577 0.69356024 0.5351116 0.58813965
0.6162691 0.659733 0.66851187 0.6416712 0.6007399 0.70463675 0.662058 0.5864244
0.61653656 0.61404014 0.5612596 0.6494668 0.5920376 0.57010996 0.6444792 0.6684316
0.72071785 0.70407045 0.5394757 0.51351464 0.7107734 0.66431046 0.6334225 0.5949272
0.61640567 0.63471186 0.5620562 0.63444173 0.61459315 0.6408244 0.6188937 0.6299399
0.7930922 0.65296084 0.5966768 0.50306755 0.71349347 0.4869958 0.5952898 0.7176343
0.63185173 0.6393178 0.6172967 0.6039985 0.64528936 0.55091286 0.64986587 0.6666333
0.69396853 0.5341282 0.5703214 0.6087319 0.5730602 0.50922024 0.5568889 0.56414664
00000000: 8b0e 2f3f 58fb 223f cc45 f73e 335a 393f
00000010: f571 1b3f 740a 2a3f ea6b 0a3f a9d5 0c3f
00000020: eded 2d3f 56e0 123f 11dc 1f3f 76e4 393f
00000030: 5b7c 163f 9173 163f 2ed4 083f f6d6 163f
00000040: 649e 223f 519b 1f3f f0ae 203f 5fd2 2e3f
00000050: 35b2 193f 394c 283f 1fa2 2d3f 194f 313f
00000060: 2488 003f 83d9 243f 04fd 243f 2eb8 2c3f
00000070: 17aa fc3e 129d 2d3f c587 2a3f c250 053f
00000080: 424a 0f3f 57e2 123f a5f0 183f 2576 2e3f
00000090: ae3b 263f 3a71 f33e 1a17 263f 93d1 273f
000000a0: 7b5e 1f3f a69b 083f 3c81 2c3f 98f5 153f
000000b0: 6e37 0c3f 9da4 093f 47ab 213f e947 1e3f
000000c0: 3a64 f33e abce 1e3f 5575 013f 0d8d 1b3f
000000d0: 7a18 213f e758 133f 5878 393f 9c40 353f
000000e0: 34d1 143f 8cc0 1f3f 4170 173f cda3 0e3f
000000f0: d052 233f 4f62 0c3f 0471 143f 18c5 273f
00000100: 70a1 213f 53c9 013f a44b 123f ca59 293f
00000110: c5e9 343f 970f 023f dbb6 273f ca8a 303f
00000120: 7a3d 163f c561 173f cb31 203f 638d 0b3f
00000130: 7be2 303f 1d30 1f3f 7777 2e3f 362c 333f
00000140: be0f 0c3f 27c8 0a3f 9784 073f c5ca 2a3f
00000150: 4b96 1e3f c9dd 153f 6f4d 0b3f 4dd4 363f
00000160: aea5 1b3f 7b98 163f 2ebc 263f 4083 243f
00000170: 7fe2 303f e7f6 123f ee32 223f f9da 353f
00000180: d8c7 2d3f 4779 0c3f 830b fe3e 7a6e 003f
00000190: a34b 1e3f f002 193f 800e 193f 7e5e 0c3f
000001a0: 896d 213f 6ffd 173f 3026 fe3e 455f 1c3f
000001b0: 0428 103f 8dc7 143f 23c4 2a3f 9ada 103f
000001c0: fb44 183f eed2 b83e f434 0f3f 73aa 303f
000001d0: 7134 0d3f e867 fa3e 6bfa 323f cb89 093f
000001e0: fa7f 073f 2c52 003f 4296 113f c498 253f
000001f0: bfb3 1c3f 05d5 153f d905 0c3f 5038 0d3f
00000200: 29b7 163f cb97 163f f3cf 1a3f 7be7 2b3f
00000210: e8be 123f 9e32 0e3f 7c73 183f 3c1d 033f
00000220: a48b 2e3f 2f9e 313f 9711 0f3f 6ba8 173f
00000230: 147c 213f 8d8f 2f3f 72f2 163f cd81 fc3e
00000240: a57b 293f 7b62 353f d289 123f 9cf4 1d3f
00000250: 0948 113f 474f f73e 6d5f 2a3f 94dc 0e3f
00000260: 14ff 233f 5a12 2b3f 7e4e 1d3f 0395 273f
00000270: 6564 1a3f 9e72 0a3f 927e 1d3f d4b3 073f
00000280: 51fe 1a3f 115c 163f 30fd 193f 9c27 033f
00000290: 48c3 193f 9caa 2f3f 6154 1c3f 8d39 163f
000002a0: 930e 153f 616e 033f 90e0 1c3f 0d4a 113f
000002b0: ac9c 1b3f ab21 fc3e 0f09 1c3f 6665 143f
000002c0: 6d59 123f 900d 1e3f 77cf 093f 267f 273f
000002d0: 112b 003f 4ed1 103f 4bb6 393f 3dd2 dc3e
000002e0: a030 153f a1bd 113f 8e93 0d3f 10c9 283f
000002f0: 9a04 223f 6d7d 123f 5578 273f caaf 153f
00000300: d1a6 0f3f 1f62 0c3f 3ed3 2d3f 593f 293f
00000310: e107 263f 2a8d 313f 13fd 083f 5290 163f
00000320: d0c3 1d3f 43e4 283f 9823 2b3f 9044 243f
00000330: 17ca 193f 1363 343f a27c 293f e91f 163f
00000340: 57d5 1d3f bc31 1d3f b6ae 0f3f 7543 263f
00000350: c78f 173f baf2 113f 97fc 243f 551e 2b3f
00000360: f780 383f f63d 343f 141b 0a3f b275 033f
00000370: 3ff5 353f 4010 2a3f fa27 223f 264d 183f
00000380: c3cc 1d3f 7a7c 223f eae2 0f3f c66a 223f
00000390: fa55 1d3f 110d 243f d16f 1e3f be43 213f
000003a0: 1708 4b3f 7128 273f d0bf 183f 09c9 003f
000003b0: 82a7 363f 8357 f93e ea64 183f e2b6 373f
000003c0: 09c1 213f 55aa 233f 2807 1e3f a59f 1a3f
000003d0: af31 253f a008 0d3f 9c5d 263f 7ba8 2a3f
000003e0: eca7 313f a0bc 083f 9500 123f dbd5 1b3f
000003f0: 13b4 123f 425c 023f 4590 0e3f ea6b 103f
