Closeness-GCN-model.pth (torch, 642464 bytes, 20 tensors)

conv1.bias f4 [500]
1.2696664 2.1523516 0.39109904 0.6897195 -0.20367315 0.20535451 0.03383592 -0.032665674
0.27027783 0.3865493 -0.17967382 0.1556144 0.00088443956 0.025466962 -0.53283006 0.023889279
0.3839358 -1.0221946 0.22044757 0.9096667 0.2506793 0.06388661 0.11578198 0.17910162
-0.1002152 0.3356135 0.19803531 1.255721 1.2147838 -0.06503731 -0.51520014 -1.0460442
0.5627755 -0.02125911 0.25458682 -0.057939984 0.22207451 -0.638777 0.06442965 -0.29883674
8.490832 0.11828369 -0.031579435 -1.8645408 0.11561816 -0.04170893 0.042234637 0.088809066
0.020368306 -0.002166833 -0.0409186 0.6049371 0.0051736496 0.17207018 0.50063294 -0.16271745
-0.098581 0.9961106 -0.27141863 0.05364093 1.1228057 0.30037034 0.33383635 -1.0940437
-0.123443164 0.009211597 0.9260356 0.29085514 -0.11558093 -0.07399116 -0.020477926 0.10079868
0.037918087 0.2299373 0.28785574 0.2628041 -0.2701828 -0.011737125 0.06992156 -0.07442313
0.12221775 -0.12060953 0.29926884 0.23828913 0.18149054 0.1460803 0.02889179 -0.38035238
0.039968092 -0.050291006 -1.3085614 -0.07367794 2.8866155 -0.05094561 -0.016636755 0.10727786
0.10310051 -0.95289093 0.2504966 0.20934168 0.046843044 0.21332864 -0.33867922 0.4371331
0.07220423 0.38273174 0.019009529 0.039442863 0.6472706 0.069409944 1.1107024 -1.2349389
0.84255534 0.3776187 0.052636452 0.02751768 -0.04282087 0.09911369 0.19450624 -0.07215907
0.063781485 -0.3846111 -1.3155718 0.068688065 -0.09359931 -0.16284473 0.26022357 0.033863395
2.460935 0.065781325 0.17966488 -0.590456 1.3611218 0.3557666 -0.067454234 -0.06515254
-0.035202377 0.027436841 -0.23312199 0.010672549 0.168891 1.3963914 -0.16883206 0.060933508
-0.56500524 -0.1318898 -0.08213765 -0.2593197 -0.104119316 0.32459176 -0.08205441 0.3935791
0.1499403 0.15104705 0.6082207 -0.22457826 -0.6292665 0.4730553 -0.70429456 0.103873044
0.033184856 0.6359597 0.17067501 0.29079893 0.005900427 -0.08577737 -0.96948624 -0.039378446
0.6025417 -0.24230954 0.1447582 0.82964003 -0.14835952 1.4076446 -0.02680643 -0.095130116
0.026693638 -0.054850016 -0.028431963 0.075496145 0.13779211 -0.06314661 1.8872933 -0.04329286
0.13246648 0.11070328 0.8298723 -0.24906829 1.6692095 -0.70062155 1.4197956 -0.06503302
0.11326302 -0.103213206 -0.55633473 0.015655445 -0.058837183 1.2894267 -0.1280015 -0.32755613
-0.0264149 -0.053025257 -0.33619067 0.106143065 -0.054115698 -0.36284554 -1.657289 -0.5674247
-0.2764235 0.090543956 -0.12912098 -0.21628901 0.024247728 0.12356514 1.8495233 -0.042319905
-0.0931861 0.17260642 0.14353126 -1.7198176 0.2949313 2.1367407 0.25067925 0.039664328
0.23564743 0.34171954 -0.41181368 0.7769431 1.4239591 0.08491813 -0.16145076 -0.35917303
-0.2941219 1.3472257 -0.22872727 0.3671375 -0.3076718 -0.038587227 0.023237163 -0.10441206
0.50142324 -1.5221483 0.6389246 -0.27529624 0.03904462 0.18487982 0.8246344 0.3074761
0.1182288 0.041250817 0.25444287 0.15346685 -0.12631007 -0.09583434 0.22502887 -0.5158233
00000000: 6e84 a23f 21c0 0940 223e c83e 7591 303f
00000010: b28f 50be 7448 523e 8997 0a3d 71cc 05bd
00000020: db61 8a3e cae9 c53e 6afc 37be 6259 1f3e
00000030: bcd9 673a 17a0 d03c 8d67 08bf 73b3 c33c
00000040: 3c93 c43e 46d7 82bf 02bd 613e ebdf 683f
00000050: 0a59 803e fcd6 823d 1a1f ed3d 6a66 373e
00000060: a03d cdbd 88d5 ab3e c5c9 4a3e 77bb a03f
00000070: 097e 9b3f 4832 85bd 28e4 03bf c7e4 85bf
00000080: 0e12 103f 9627 aebc 3459 823e 7a52 6dbd
00000090: 8067 633e e486 23bf b1f3 833d 2101 99be
000000a0: 73da 0741 b83e f23d 7059 01bd 46a9 eebf
000000b0: 37c9 ec3d fcd6 2abd 3afe 2c3d 87e1 b53d
000000c0: 6fdb a63c 6d01 0ebb 439a 27bd 28dd 1a3f
000000d0: b887 a93b 2a33 303e 7b29 003f 679f 26be
000000e0: d6e4 c9bd 1b01 7f3f 62f7 8abe 98b6 5b3d
000000f0: 19b8 8f3f 24ca 993e 99ec aa3e a009 8cbf
00000100: c5cf fcbd 3dec 163c ab10 6d3f f7ea 943e
00000110: b2b5 ecbd ad88 97bd 53c1 a7bc 8a6f ce3d
00000120: ff4f 1b3d af74 6b3e d461 933e 428e 863e
00000130: 6655 8abe 124d 40bc 0933 8f3d 276b 98bd
00000140: 4d4d fa3d 2102 f7bd c439 993e 1102 743e
00000150: a8d8 393e 1396 153e 7aae ec3c 8cbd c2be
00000160: 95b5 233d f1fd 4dbd f17e a7bf 76e4 96bd
00000170: 4fbe 3840 58ac 50bd ce49 88bc 7fb4 db3d
00000180: 5c26 d33d a9f0 73bf 1741 803e aa5d 563e
00000190: 7ede 3f3d d372 5a3e 5d67 adbe e9cf df3e
000001a0: d0df 933d 6af5 c33e dfb9 9b3c d78e 213d
000001b0: 87b3 253f cd26 8e3d 7f2b 8e3f 7a12 9ebf
000001c0: b5b1 573f 3d57 c13e 5299 573d c26c e13c
000001d0: f064 2fbd 1efc ca3d a52c 473e 22c8 93bd
000001e0: de9f 823d bfeb c4be a864 a8bf 54ac 8c3d
000001f0: ffb0 bfbd c5c0 26be 063c 853e 58b4 0a3d
00000200: f67f 1d40 5cb8 863d 12fa 373e 2028 17bf
00000210: 3d39 ae3f 0a27 b63e 7225 8abd b26e 85bd
00000220: 5e30 10bd 3ac3 e03c 88b7 6ebe eadb 2e3c
00000230: c3f1 2c3e f4bc b23f 50e2 2cbe 6a95 793d
00000240: 2fa4 10bf 1f0e 07be c937 a8bd 8dc5 84be
00000250: 823c d5bd e430 a63e 240c a8bd 3383 c93e
00000260: f389 193e 14ac 1a3e 5ab4 1b3f d8f7 65be
00000270: 9c17 21bf 4e34 f23e a64c 34bf 64bb d43d
00000280: d8ec 073d 41ce 223f 6ec5 2e3e 99e3 943e
00000290: 5e58 c13b 0cac afbd 4030 78bf 4b4b 21bd
000002a0: 2c40 1a3f fe1f 78be 7e3b 143e 4a63 543f
000002b0: 8feb 17be b32d b43f 2999 dbbc 94d3 c2bd
000002c0: 9eac da3c 69aa 60bd 26ea e8bc b99d 9a3d
000002d0: 6019 0d3e 0353 81bd d492 f13f db53 31bd
000002e0: 4ba5 073e 67b8 e23d 8372 543f c20b 7fbe
000002f0: a8a8 d53f ef5b 33bf ddbb b53f 0830 85bd
00000300: 71f6 e73d 7261 d3bd f46b 0ebf d93f 803c
00000310: 42ff 70bd ef0b a53f d312 03be 70b5 a7be
00000320: 0f64 d8bc 0331 59bd 2f21 acbe 8961 d93d
00000330: 6ca8 5dbd e4c6 b9be 0c22 d4bf bf42 11bf
00000340: 6287 8dbe 1c6f b93d 4a38 04be de7a 5dbe
00000350: 2ca3 c63c b80f fd3d 2ebd ec3f a357 2dbd
00000360: 5bd8 bebd bdbf 303e dcf9 123e fc22 dcbf
00000370: 3c01 973e 5cc0 0840 0859 803e 1077 223d
00000380: 8f4d 713e ddf5 ae3e 3ed9 d2be bee5 463f
00000390: 4b44 b63f 8ee9 ad3d 5953 25be 87e5 b7be
000003a0: 2597 96be e471 ac3f 7b37 6abe 72f9 bb3e
000003b0: 2887 9dbe a40d 1ebd dd5b be3c fdd5 d5bd
000003c0: 465d 003f c1d5 c2bf 9090 233f a1f3 8cbe
000003d0: 40ed 1f3d 2351 3d3e 3d1b 533f 826d 9d3e
000003e0: f121 f23d 9ef6 283d 5646 823e 6a26 1d3e
000003f0: 6d57 01be cb44 c4bd f86d 663e ff0c 04bf

conv1.lin.weight f4 [500, 1]
1.0960261 0.6704527 0.68999255 -0.76790655 0.628325 -0.60150534 -0.59853405 0.5488664
-0.6270482 -0.59860134 0.52243435 -0.8220615 0.5585869 -0.2239882 1.3208034 -0.6466604
0.7342952 0.60838884 -0.5561686 0.846048 -0.5546869 -0.53397256 1.1590161 -0.53586406
0.33378884 -0.55610365 -0.4893348 0.7584011 0.85836923 0.9448731 0.95306486 0.6143897
0.8452468 -0.61373484 -0.5473757 -0.6319545 -0.61308765 0.99066556 -0.4945989 0.7293764
0.58922195 -0.73312306 -0.5594451 0.59590566 0.62154615 0.49016526 -0.5561042 -0.30831367
-0.99641436 -0.6322007 -0.63207334 0.5844627 -0.58029395 3.1234322 -0.59784937 -0.6277793
0.60477245 0.9370893 -0.6068177 -0.55935335 0.6488654 -0.7468606 0.5075798 0.5583184
-0.61631185 -0.56685793 0.63541615 -0.6238217 -0.5465408 0.41586867 -0.6323296 -0.5492891
-0.59969735 -0.58491975 -0.594708 -0.5927826 0.5844691 0.5804233 0.38747594 2.3824022
-0.64079773 0.52773863 -0.5469504 -0.596859 -0.55012316 -0.5885634 -0.09820864 1.1851565
2.9848487 -0.57203287 0.62365574 -0.63045084 0.5675543 0.5309701 1.2170321 -0.6291051
-0.6443255 -2.9162934 1.1782949 1.3455615 1.7408273 0.7603355 1.0454339 0.7189575
-0.56104124 -0.5953826 2.3807952 -0.7418471 0.5717179 -0.6234436 0.66903114 0.6383494
0.6663255 0.79779 0.5777298 -0.6692234 0.5147521 -0.61220425 -0.59393674 -0.3575379
-0.62374943 0.59769875 0.6142109 -0.6424178 -0.52974373 0.611693 -0.5907249 0.9896823
0.6136233 -0.6325451 -0.632213 -0.6311837 0.6526325 0.74857473 -2.7494905 -0.62687445
0.45227736 -0.23632993 -0.55560577 -0.62306774 -0.60040486 0.85687476 -0.6156278 0.6338384
-0.6364056 -0.6175116 -0.9458927 0.7701081 0.5213037 0.7412221 0.5645846 -0.7416633
-0.53026754 -0.5370106 0.58216566 -0.7015099 0.6130194 0.91436595 0.722376 -0.4461749
0.5605763 0.8185099 -0.57792044 -0.59797645 -0.6298611 0.5088901 0.7328876 0.5110746
0.56970036 0.59782696 -0.6240643 0.5821915 -0.61390525 0.58266264 -0.55730444 0.56044906
-0.19572097 -0.631892 -0.53525573 -0.62504625 -0.5645729 0.4656614 2.0329123 -0.49756655
-0.49052826 -0.8782307 0.5944652 0.5923819 0.70960814 0.64144707 0.71819663 -0.59643656
-0.6145459 -0.62857115 1.2730093 -0.62668675 -0.55846465 0.5519477 -0.63255334 -0.4394335
-0.63832414 0.5421804 0.8794251 -1.2598825 0.58086616 -0.55919117 0.60664874 0.7916611
-0.6472156 -0.7142403 0.58033365 0.70356286 1.9206455 -0.55910945 0.6346052 -2.2156255
0.63283265 0.71461374 -0.5798815 0.78726727 -0.6399739 0.5915781 1.3201902 0.58590806
-0.72415257 0.9544079 -0.88194543 0.6133814 0.84802324 -0.60255647 -0.5870939 0.79302025
0.5557287 0.5645883 0.5584122 0.72010916 0.7503503 -0.6311766 -0.6167198 0.6123689
-0.5567272 0.60346264 -0.6277926 2.980162 -0.63358694 -0.6024269 0.59667844 -0.6476243
-0.53795904 -0.115045644 -0.3091334 -0.5376696 0.5607637 -0.8419113 -0.53696066 0.6763972
00000000: 954a 8c3f caa2 2b3f 5aa3 303f 8695 44bf
00000010: e8d9 203f 41fc 19bf 8739 19bf 8282 0c3f
00000020: 3b86 20bf f03d 19bf 42be 053f 9f72 52bf
00000030: 8dff 0e3f 2a5d 65be 1610 a93f 898b 25bf
00000040: c5fa 3b3f 5fbf 1b3f 1161 0ebf 9a96 583f
00000050: f6ff 0dbf 6db2 08bf a45a 943f 632e 09bf
00000060: 5fe6 aa3e cf5c 0ebf 178a fabe 9326 423f
00000070: 16be 5b3f 34e3 713f 0ffc 733f a548 1d3f
00000080: 1862 583f ba1d 1dbf d020 0cbf c5c7 21bf
00000090: 50f3 1cbf 429c 7d3f 113c fdbe 69b8 3a3f
000000a0: 40d7 163f f4ad 3bbf cb37 0fbf 468d 183f
000000b0: a61d 1f3f f1f6 fa3e d85c 0ebf 4adb 9dbe
000000c0: 0315 7fbf e8d7 21bf 8fcf 21bf 599f 153f
000000d0: 258e 14bf 50e6 4740 a80c 19bf 25b6 20bf
000000e0: 5ed2 1a3f 16e5 6f3f 6858 1bbf c831 0fbf
000000f0: 0b1c 263f 4232 3fbf c0f0 013f f4ed 0e3f
00000100: 9dc6 1dbf 9a1d 11bf a2aa 223f c7b2 1fbf
00000110: 19ea 0bbf bdec d43e 5ae0 21bf 369e 0cbf
00000120: c485 19bf 4dbd 15bf c93e 18bf 9ac0 17bf
00000130: c49f 153f 9f96 143f 3f63 c63e 4779 1840
00000140: 520b 24bf e119 073f f104 0cbf c0cb 18bf
00000150: dfd4 0cbf 17ac 16bf 9d21 c9bd 35b3 973f
00000160: c307 3f40 bf70 12bf e7a7 1f3f 3a65 21bf
00000170: 3d4b 113f a8ed 073f b5c7 9b3f 080d 21bf
00000180: 84f2 24bf 8da4 3ac0 5ed2 963f 5c3b ac3f
00000190: 6ed3 de3f 59a5 423f c7d0 853f 990d 383f
000001a0: 66a0 0fbf fe6a 18bf f35e 1840 b1e9 3dbf
000001b0: 1b5c 123f 009a 1fbf a045 2b3f de6a 233f
000001c0: 4f94 2a3f f73b 4c3f 1ae6 133f 3a52 2bbf
000001d0: cbc6 033f 6bb9 1cbf 3d0c 18bf 350f b7be
000001e0: 0bae 1fbf c902 193f ed3c 1d3f 7e75 24bf
000001f0: 499d 07bf ea97 1c3f bf39 17bf d25b 7d3f
00000200: 6b16 1d3f 7aee 21bf b6d8 21bf 4195 21bf
00000210: ec12 273f 98a2 3f3f a7f7 2fc0 d87a 20bf
00000220: e690 e73e 7900 72be 2e3c 0ebf 5e81 1fbf
00000230: 22b4 19bf 255c 5b3f c999 1dbf 3c43 223f
00000240: 7aeb 22bf 3d15 1ebf 0626 72bf ce25 453f
00000250: 2974 053f bbc0 3d3f 9e88 103f a5dd 3dbf
00000260: 9dbf 07bf 8779 09bf cf08 153f 2796 33bf
00000270: d7ee 1c3f e313 6a3f a2ed 383f 0971 e4be
00000280: ee81 0f3f dd89 513f 98f2 13bf fc14 19bf
00000290: 943e 21bf 9f46 023f 869e 3b3f c9d5 023f
000002a0: e2d7 113f 300b 193f aec2 1fbf 810a 153f
000002b0: e528 1dbf 6129 153f 81ab 0ebf 9779 0f3f
000002c0: 146b 48be adc3 21bf 8506 09bf 0803 20bf
000002d0: d987 10bf 2c6b ee3e 3c1b 0240 0bc1 febe
000002e0: 8526 fbbe bad3 60bf df2e 183f 57a6 173f
000002f0: e1a8 353f e035 243f bcdb 373f 11b0 18bf
00000300: e152 1dbf 0aea 20bf f8f1 a23f 8b6e 20bf
00000310: 8af7 0ebf 724c 0d3f 04ef 21bf 6dfd e0be
00000320: 3669 23bf 56cc 0a3f 0122 613f d443 a1bf
00000330: a5b3 143f 2727 0fbf 554d 1b3f 4daa 4a3f
00000340: ecaf 25bf 74d8 36bf bf90 143f b21c 343f
00000350: b6d7 f53f cc21 0fbf 7d75 223f cfcc 0dc0
00000360: 5201 223f edf0 363f 1d73 14bf 598a 493f
00000370: 54d5 23bf aa71 173f fefb a83f 12fe 153f
00000380: 1062 39bf 1354 743f 2dc7 61bf 9006 1d3f
00000390: 0d18 593f 2441 1abf c94b 16bf 6003 4b3f
000003a0: 3c44 0e3f dc88 103f 1af4 0e3f 1359 383f
000003b0: f516 403f ca94 21bf 59e1 1dbf 35c4 1c3f
000003c0: ac85 0ebf 877c 1a3f 04b7 20bf f9ba 3e40
000003d0: c132 22bf a638 1abf ebbf 183f b5ca 25bf
000003e0: afb7 09bf 0d9d ebbd bc46 9ebe b7a4 09bf
000003f0: 368e 0f3f 8087 57bf 4176 09bf 5e28 2d3f

bn1.weight f4 [500]
6.1347446 6.289652 5.5832124 2.0024064 5.727254 -0.8293272 -0.25026402 -0.7645052
1.9582179 0.0006597993 0.8405133 1.5330364 3.3854542 1.3284477 6.473662 2.090653
5.509282 5.707488 -0.24364515 5.9068336 -4.0912375 0.4509221 5.748852 -0.5314287
-0.7008107 -0.51420975 -0.0850658 5.3008604 5.3626904 5.2116194 5.751924 5.4308853
5.3646617 2.453992 -0.20417665 1.8015363 0.095627815 5.216708 0.06463992 2.9487133
9.663508 -0.7491164 0.012895238 5.027612 6.057064 -0.5253809 -0.50566894 -0.02240988
-3.1414375 1.2010518 0.39415935 3.4807837 -0.502001 10.404253 0.09499021 0.31699836
6.6432414 6.004036 0.26035967 -0.25100726 5.336624 -1.4624858 0.49042344 3.5587978
0.32328814 -0.614204 5.4932327 1.9476745 -0.21169446 0.034312695 -0.19258052 -0.4496656
0.17456767 -0.73493457 -0.43274724 -0.527733 3.766245 1.4920089 0.8021997 6.2661576
1.4206504 -0.60848147 -0.527444 -1.4971044 -0.52863395 -0.7177372 -0.41192514 6.191622
1.6991451 0.2269716 5.2397966 0.16323468 4.559747 -0.72587633 5.4807825 1.5061321
1.3312408 0.6131483 6.048447 -0.13318178 1.3989624 6.01616 5.6609917 5.5541425
-0.42928088 -0.22401789 6.3112054 0.99993396 3.1552253 1.3176274 5.7408657 5.0084496
5.1508927 5.9636874 3.0634296 2.5062253 -0.425967 -0.6310836 -0.21915142 -0.5036492
0.20152348 -0.5390246 5.436239 1.759989 -0.5039568 5.351649 -0.5030684 5.190487
8.886475 -0.6565063 1.34105 2.2323375 6.1556215 5.493888 0.7659327 0.17517112
-0.37991065 0.4832021 -0.22997814 0.25660738 -0.5210915 5.1903152 1.6078564 6.4645915
2.2981956 0.33335778 2.3024094 5.15986 1.4517783 3.6760395 3.0424368 2.0455642
-0.08845396 -0.5542426 3.0102303 1.7719011 6.043453 6.1762795 5.2406654 0.8032092
1.41894 5.8900595 -0.40518564 -0.75590676 -0.69773716 0.07373264 5.903196 0.25795025
2.794448 0.42556676 -0.19378242 0.8260318 1.2046288 3.2810333 -0.7595521 1.4832597
-0.54185927 0.43876338 0.70148546 0.18507534 -1.5412499 0.17645712 0.053160965 0.58567667
-0.68561065 0.5308288 4.902831 2.8197925 4.147619 5.3361697 5.448244 -0.23510954
-0.55974275 0.78278255 5.8763766 0.40143237 -0.5511115 3.1243315 0.23146199 0.10658162
0.32429296 -1.5935572 5.8723454 1.2053566 0.36073685 -0.73087317 5.4135103 5.3605423
1.8560736 -0.81546384 1.9103522 5.1307983 6.2763877 -0.42736092 3.7405763 1.2195225
5.840415 1.713165 -0.67123085 6.388766 -0.09980082 4.229297 6.1026363 -0.59293294
-1.4299655 5.9543357 1.7925249 3.6078844 6.244434 0.2591339 -0.19769168 5.1800547
3.3240016 3.0875394 2.0276403 5.7812076 5.5228376 0.17288028 -0.26725757 3.4735281
-0.4145463 5.684201 1.4642684 1.4899522 2.052096 -0.43584475 3.1781158 1.3464133
-0.13053064 -0.5156029 -0.17900841 -0.42178383 3.020372 -4.036702 0.022034848 5.609453
00000000: d44f c440 d444 c940 ada9 b240 6d27 0040
00000010: aa45 b740 ca4e 54bf 9b22 80be 9db6 43bf
00000020: e2a6 fa3f 62f6 2c3a e12b 573f 893a c43f
00000030: 48ab 5840 930a aa3f 3d28 cf40 42cd 0540
00000040: 0a4c b040 bea3 b640 1d7e 79be c804 bd40
00000050: 6beb 82c0 43df e63e 98f6 b740 b60b 08bf
00000060: 5468 33bf 40a3 03bf fa36 aebd a6a0 a940
00000070: 299b ab40 96c5 a640 c30f b840 d0c9 ad40
00000080: 4fab ab40 340e 1d40 af13 51be be98 e63f
00000090: 84d8 c33d 46ef a640 ef61 843d b8b7 3c40
000000a0: bb9d 1a41 18c6 3fbf 8c46 533c 33e2 a040
000000b0: 78d3 c140 5d7f 06bf 8573 01bf ed94 b7bc
000000c0: 500d 49c0 11bc 993f 41cf c93e 29c5 5e40
000000d0: 2383 00bf d277 2641 3a8a c23d 9c4d a23e
000000e0: 6f95 d440 1021 c040 dd4d 853e 0684 80be
000000f0: a0c5 aa40 bc32 bbbf c818 fb3e 58c3 6340
00000100: 0686 a53e 793c 1dbf 90c8 af40 664d f93f
00000110: 6fc6 58be 788b 0c3d d433 45be 923a e6be
00000120: dec1 323e ac24 3cbf 0c91 ddbe 8319 07bf
00000130: 280a 7140 26fa be3f f65c 4d3f 5d84 c840
00000140: dfd7 b53f 71c5 1bbf 9206 07bf 1ea1 bfbf
00000150: 8e54 07bf a0bd 37bf dae7 d2be c421 c640
00000160: 967d d93f 3e6b 683e 6aac a740 fe26 273e
00000170: 73e9 9140 08d3 39bf 9262 af40 f0c8 c03f
00000180: 1966 aa3f 49f7 1c3f e18c c140 ce60 08be
00000190: 3311 b33f 6284 c040 d826 b540 89bb b140
000001a0: b4ca dbbe f264 65be 65f5 c940 acfb 7f3f
000001b0: 36ef 4940 04a8 a83f 2cb5 b740 3845 a040
000001c0: 1dd4 a440 87d6 be40 3b0f 4440 ff65 2040
000001d0: 5918 dabe b28e 21bf 3b69 60be 27ef 00bf
000001e0: 2c5c 4e3e 84fd 09bf abf5 ad40 5247 e13f
000001f0: 5003 01bf b540 ab40 17c9 00bf 7818 a640
00000200: 002f 0e41 cc10 28bf 87a7 ab3f 9ede 0e40
00000210: dafa c440 eecd af40 2a14 443f 0f60 333e
00000220: a683 c2be 4466 f73e 647f 6bbe 0b62 833e
00000230: 4166 05bf 1017 a640 3dce cd3f efdd ce40
00000240: a315 1340 dfad aa3e ad5a 1340 931d a540
00000250: dfd3 b93f 3b44 6b40 49b7 4240 86ea 0240
00000260: 5a27 b5bd d8e2 0dbf 9da7 4040 a8cd e23f
00000270: f863 c140 15a4 c540 88b3 a740 1e9f 4d3f
00000280: d39f b53f 5e7b bc40 7e74 cfbe 1b83 41bf
00000290: e79e 32bf 2301 973d fbe6 bc40 0e12 843e
000002a0: 3cd8 3240 e3e3 d93e e66e 46be d276 533f
000002b0: 4731 9a3f 73fc 5140 0272 42bf 74db bd3f
000002c0: 4ab7 0abf 98a5 e03e 8d94 333f 6484 3d3e
000002d0: ad47 c5bf 2db1 343e 50bf 593d e8ee 153f
000002e0: 2e84 2fbf 65e4 073f fee3 9c40 7b77 3440
000002f0: 4bb9 8440 e7c1 aa40 0458 ae40 8ec0 70be
00000300: 4d4b 0fbf 7064 483f 470b bc40 8b88 cd3e
00000310: a515 0dbf 0cf5 4740 5f04 6d3e 7747 da3d
00000320: ba09 a63e aff9 cbbf 41ea bb40 2049 9a3f
00000330: 80b2 b83e 811a 3bbf 7a3b ad40 9089 ab40
00000340: d293 ed3f 3dc2 50bf 6c86 f43f 802f a440
00000350: 2bd8 c840 0dcf dabe 9a65 6f40 5019 9c3f
00000360: aee4 ba40 fe48 db3f c9d5 2bbf c570 cc40
00000370: 5f64 ccbd 6756 8740 cc48 c340 74ca 17bf
00000380: 1c09 b7bf eb89 be40 7571 e53f 94e7 6640
00000390: 67d2 c740 33ad 843e b06f 4abe 02c3 a540
000003a0: 71bc 5440 3f9a 4540 dcc4 0140 a7ff b840
000003b0: 16bb b040 8707 313e fcd5 88be 494e 5e40
000003c0: 6a3f d4be f9e4 b540 266d bb3f c1b6 be3f
000003d0: 8a55 0340 0b27 dfbe 4066 4b40 4557 ac3f
000003e0: d3a9 05be 8dfe 03bf fb4d 37be 0df4 d7be
000003f0: c64d 4140 aa2c 81c0 6d82 b43c a480 b340

bn1.bias f4 [500]
0.6309949 0.64963084 0.5655963 0.60268444 0.21797444 5.636593 1.5640193 5.2139444
0.47847205 -0.9930202 6.6767426 0.37365156 -2.0130785 5.4712334 0.2510514 0.5112219
0.66306806 0.21387261 -0.902785 0.23494257 -3.1412559 2.7577686 0.9972748 -1.0820348
5.7387705 -1.1100844 -0.92214555 0.57150286 0.20147571 0.57434064 0.21895571 1.0479851
0.6202715 0.6018394 -0.8463698 0.439799 -0.8585017 0.60010237 -0.9177684 6.029032
-3.109898 -1.4089354 -0.87649184 -1.590257 0.6257029 5.0369835 -1.0259916 -1.3193083
-1.8656216 0.584161 2.798445 -1.9841747 -1.0863472 -3.3849967 -0.851225 3.0200377
0.2534647 0.6369306 2.0180411 -0.9149578 0.9762443 -2.0841265 -1.0443733 -1.08429
2.8043327 -1.2856772 0.6428985 0.5839641 -0.8854794 7.1642194 1.1924919 -1.362877
-1.1691016 -1.4258014 -1.1043377 -1.4654493 -1.2563674 5.4726267 7.1968384 0.19253674
-0.43083847 5.110766 -1.4735144 -2.1304672 -1.1135097 -1.3122426 -1.4516208 0.24046649
4.6259556 1.9861292 0.8953503 1.9390571 -1.5457125 5.351569 0.6346653 0.48781684
0.3210373 7.128291 1.3314959 6.277821 3.3481395 0.2396311 0.54059815 0.68298554
-1.0738761 -0.89703274 0.2390047 -0.3040563 -1.8516527 5.4887276 1.0268193 0.9077391
0.943367 0.21343577 -1.7939467 0.61764175 5.124065 -1.1813387 -0.8026106 -1.5338978
1.7896656 5.979251 0.9501962 0.43089244 -1.0723224 0.5420417 -1.1575279 -1.7807919
-2.8167672 -1.2938062 0.5054773 0.5513197 0.7280324 -1.8573457 5.7236204 1.8968657
5.0476084 4.937973 -0.93141127 2.3600721 -1.0655055 -1.759464 0.6651697 0.05050694
0.563465 2.8611147 0.5639883 0.90434533 3.8794432 -1.1888142 -1.7676241 0.61930424
-0.9194411 -1.113883 -1.7760586 0.43490657 0.2319458 0.21972284 0.5414383 3.745939
3.5461073 0.21491939 -1.0314893 -1.3827202 -1.3112987 7.1898036 0.21407911 7.5955744
-1.6589997 8.122314 -0.87132436 -1.9767545 0.5049986 -1.9297484 -1.3881406 4.0187693
-1.4808674 3.3883533 3.3377612 2.1204045 -2.0926957 5.941363 6.405216 3.1755443
-1.2898612 6.3826957 -1.6818197 5.709167 -1.4050194 0.57875407 0.97285 -0.9884573
-1.1038039 4.317692 0.23198415 1.7792653 -1.3917062 -1.7866012 1.5245697 -1.0156373
1.6898835 5.0961256 0.2137588 5.264668 8.035801 -1.4278435 0.6253631 0.9131482
0.5968971 -1.4903165 4.2981887 0.8992854 0.23866671 -1.0845593 -1.2896668 5.3031917
0.22171445 3.798619 -1.3386403 0.24638906 -0.8692113 -1.3408096 0.579386 5.059497
-2.0390399 0.23165679 0.57572323 -2.133549 0.23981279 2.087994 -0.8419627 0.9386983
-1.9669616 -1.8155133 4.727124 0.21950258 1.0102952 1.8795016 1.6711925 -1.9776828
-1.5007125 1.3399943 0.6142506 3.2930572 0.5011488 -1.1050483 -1.8511639 0.5758362
0.71156543 -1.536028 -1.3299416 -1.0289946 -1.7789564 -1.3895354 -0.86687636 0.1997426
00000000: e288 213f 354e 263f ebca 103f 8749 1a3f
00000010: b134 5f3e f85e b440 c931 c83f a2d8 a640
00000020: 4afa f43e 9236 7ebf e0a7 d540 424f bf3e
00000030: 47d6 00c0 5814 af40 cf89 803e 70df 023f
00000040: d4be 293f 6c01 5b3e eb1c 67bf c994 703e
00000050: 560a 49c0 487f 3040 674d 7f3f 1e80 8abf
00000060: 02a4 b740 3f17 8ebf bb11 6cbf 034e 123f
00000070: a64f 4e3e fd07 133f ed35 603e 6024 863f
00000080: 1dca 1e3f 2612 1a3f b1ab 58bf 562d e13e
00000090: c4c6 5bbf 4fa0 193f dff2 6abf d5ed c040
000000a0: 9208 47c0 ff57 b4bf c561 60bf 8b8d cbbf
000000b0: 112e 203f f82e a140 b153 83bf 18df a8bf
000000c0: b0cc eebf 938b 153f b919 3340 70f9 fdbf
000000d0: 6d0d 8bbf c9a3 58c0 e2e9 59bf 4c48 4140
000000e0: 20c6 813e e20d 233f 9627 0140 ad3a 6abf
000000f0: 25eb 793f 5462 05c0 06ae 85bf 04ca 8abf
00000100: 307a 3340 1291 a4bf ff94 243f ac7e 153f
00000110: c7ae 62bf 4941 e540 93a3 983f c172 aebf
00000120: 1fa5 95bf a980 b6bf f05a 8dbf d893 bbbf
00000130: a6d0 a0bf c21f af40 804c e640 5a28 453e
00000140: dc96 dcbe 658b a340 1f9c bcbf 9359 08c0
00000150: 7c87 8ebf 91f7 a7bf b6ce b9bf d93c 763e
00000160: d407 9440 7b39 fe3f ad35 653f 0633 f83f
00000170: e8d9 c5bf 0e40 ab40 6d79 223f 21c3 f93e
00000180: 005f a43e f61a e440 756e aa3f e9e3 c840
00000190: eb47 5640 db61 753e a464 0a3f 24d8 2e3f
000001a0: c674 89bf f0a3 65bf a6bd 743e 44ad 9bbe
000001b0: f502 edbf a8a3 af40 d16e 833f 9761 683f
000001c0: 8080 713f e88e 5a3e 0ca0 e5bf c51d 1e3f
000001d0: 57f8 a340 1b36 97bf e377 4dbf c356 c4bf
000001e0: c313 e53f 0656 bf40 0f40 733f ef9d dc3e
000001f0: dc41 89bf 3fc3 0a3f e029 94bf fdf0 e3bf
00000200: ea45 34c0 719b a5bf f666 013f 4a23 0d3f
00000210: 5560 3a3f 81bd edbf e627 b740 7fcc f23f
00000220: 0286 a140 e003 9e40 f870 6ebf 6c0b 1740
00000230: 7c62 88bf 1e36 e1bf 9048 2a3f 5de0 4e3d
00000240: 3e3f 103f 811c 3740 8a61 103f 2d83 673f
00000250: cc48 7840 102b 98bf 8241 e2bf b98a 1e3f
00000260: 7e60 6bbf b893 8ebf e355 e3bf 13ac de3e
00000270: 3383 6d3e 06ff 603e b39b 0a3f 77bd 6f40
00000280: 6cf3 6240 d413 5c3e d707 84bf fafc b0bf
00000290: a3d8 a7bf df12 e640 8e37 5b3e f20e f340
000002a0: 1a5a d4bf 00f5 0141 1d0f 5fbf 4b06 fdbf
000002b0: 9747 013f ff01 f7bf 97ae b1bf c299 8040
000002c0: 108d bdbf c8da 5840 e19d 5540 b5b4 0740
000002d0: baee 05c0 a51f be40 88f7 cc40 1e3c 4b40
000002e0: 2c1a a5bf 0b3f cc40 de45 d7bf 7fb1 b640
000002f0: add7 b3bf 3a29 143f b30c 793f 8a0b 7dbf
00000300: 7249 8dbf 882a 8a40 418d 6d3e f7be e33f
00000310: 6e23 b2bf 59af e4bf 1a25 c33f 6700 82bf
00000320: 1a4e d83f 7613 a340 96e3 5a3e 2978 a840
00000330: a492 0041 93c3 b6bf cc17 203f 15c4 693f
00000340: 40ce 183f b1c2 bebf c38a 8940 9137 663f
00000350: 0c65 743e d7d2 8abf cd13 a5bf bfb3 a940
00000360: 1d09 633e 931c 7340 9158 abbf 6a4d 7c3e
00000370: a284 5ebf a69f abbf a452 143f 66e7 a140
00000380: a17f 02c0 7037 6d3e 9962 133f 118c 08c0
00000390: 7c91 753e b2a1 0540 de8a 57bf 884e 703f
000003a0: 66c5 fbbf bd62 e8bf 9a44 9740 49c5 603e
000003b0: 5a51 813f 8293 f03f a3e9 d53f b624 fdbf
000003c0: 5917 c0bf ef84 ab3f 873f 1d3f 73c1 5240
000003d0: 4a4b 003f 3972 8dbf f0f2 ecbf 006a 133f
000003e0: 2729 363f 919c c4bf 873b aabf 18b6 83bf
000003f0: d8b4 e3bf 4cdc b1bf 9ceb 5dbf 5389 4c3e

bn1.running_mean f4 [500]
1.4598922 2.2640703 0.50617856 0.5583298 -0.0987636 0.10581722 -0.0678062 0.06373728
0.14534518 0.2844114 -0.0852549 0.01716765 0.095133424 -0.010665198 -0.30752248 -0.09838017
0.50876707 -0.9197344 0.12554982 1.0535219 0.14984812 -0.027265796 0.31925783 0.08766846
-0.036496043 0.2407268 0.11454129 1.3826104 1.360073 0.0957483 -0.35185578 -0.9481959
0.70867205 -0.10117658 0.16118933 -0.16500169 0.11746489 -0.46826154 -0.019962551 -0.16039312
8.612218 -0.006807321 -0.12703614 -1.7660798 0.21857451 0.043913882 -0.05265207 0.036202233
-0.15060474 -0.09960838 -0.14814506 0.7057922 -0.09384045 0.7067238 0.3986231 -0.26914325
0.0060375193 1.1538466 -0.37415752 -0.041800186 1.2326738 0.1729747 0.42044318 -1.0064864
-0.22879277 -0.08751 1.0300862 0.16304724 -0.20883578 -0.0027562873 -0.12847082 0.007074811
-0.06440684 0.1301338 0.18638213 0.16165915 -0.16609682 0.09174581 0.13575809 0.3327851
0.017762799 -0.02949484 0.20594405 0.13679372 0.08762436 0.04565519 0.012134679 -0.17673609
0.5492253 -0.14742467 -1.2020776 -0.18141843 2.9839556 0.03997242 0.18869604 0.0021647736
0.003419314 -1.4503237 0.45248717 0.43920925 0.3446212 0.34007514 -0.16147125 0.55824596
-0.023524875 0.28114298 0.42514518 -0.08518293 0.7458315 -0.038105518 1.2263669 -1.1242232
0.9617693 0.5127312 0.1518863 -0.06733464 0.045391675 -0.005345234 0.09316424 -0.13316497
-0.04315056 -0.2820838 -1.22065 -0.053508993 -0.18398811 -0.055453267 0.15942964 0.20209354
2.5807889 -0.042148314 0.07595283 -0.6987992 1.4684049 0.48188463 -0.5366498 -0.17136271
0.038238965 -0.014164129 -0.3279234 -0.094678454 0.06644533 1.5442065 -0.275165 0.16980425
-0.68305576 -0.23685214 -0.25012532 -0.12718356 -0.020281846 0.45326394 0.020191094 0.27121502
0.05946201 0.0594182 0.7072792 -0.36056787 -0.5261694 0.6274149 -0.5792127 0.024430757
0.13078845 0.7736783 0.072065905 0.18876778 -0.10157125 0.0015888009 -0.84500057 0.04815389
0.70161736 -0.14252822 0.03827558 0.92897785 -0.24971317 1.5084805 -0.12189792 0.0051006177
-0.006701756 -0.16329043 -0.11797044 -0.030298078 0.041239355 0.016664667 2.2341697 -0.1267284
0.048768826 -0.039057616 0.9279492 -0.14607535 1.7927201 -0.5912852 1.5376104 -0.16680141
0.00840454 -0.21090212 -0.3398822 -0.090362206 -0.15412676 1.381895 -0.23636213 -0.40253556
-0.13593285 0.042115886 -0.18788439 -0.10903271 0.04500085 -0.45825902 -1.5545722 -0.4333955
-0.3813387 -0.031325113 -0.019330015 -0.09650578 0.3525248 0.028165655 1.9577725 -0.4194303
0.01760603 0.29555553 0.044587523 -1.5836414 0.18573408 2.241844 0.47579673 0.1414241
0.11216398 0.50560385 -0.5715449 0.8792803 1.5672774 -0.017442035 -0.26162493 -0.22768524
-0.19857545 1.4417032 -0.13530736 0.49065357 -0.18539345 -0.14566486 -0.08190988 0.0024282574
0.4064304 -1.4208134 0.5337093 0.23317674 -0.07857786 0.08208918 0.93072516 0.19627306
0.026198652 0.021620845 0.20169617 0.061725605 -0.030050028 -0.23907335 0.13340847 -0.39980403
00000000: bfdd ba3f 87e6 1040 eb94 013f b4ee 0e3f
00000010: 9244 cabd b3b6 d83d fadd 8abd b188 823d
00000020: 5ed5 143e 5f9e 913e 1f9a aebd 2ca3 8c3c
00000030: 50d5 c23d 15bd 2ebc 9673 9dbe 8b7b c9bd
00000040: 8f3e 023f b773 6bbf 2290 003e ced9 863f
00000050: c971 193e 855c dfbc c375 a33e 868b b33d
00000060: e07c 15bd 1681 763e a094 ea3d 61f9 b03f
00000070: df16 ae3f af17 c43d 7126 b4be f7bc 72bf
00000080: 886b 353f ab35 cfbd d10e 253e 34f6 28be
00000090: 6f91 f03d fabf efbe 8188 a3bc 183e 24be
000000a0: a5cb 0941 f30f dfbb c315 02be e70e e2bf
000000b0: ffd1 5f3e 0bdf 333d b2a9 57bd cb48 143d
000000c0: 2138 1abe 7aff cbbd 57b3 17be ccae 343f
000000d0: 6c2f c0bd daeb 343f 5418 cc3e 25cd 89be
000000e0: 62d6 c53b 3fb1 933f 9391 bfbe ac36 2bbd
000000f0: 41c8 9d3f 4820 313e 5444 d73e 8cd4 80bf
00000100: a748 6abe 7138 b3bd ddd9 833f dbf5 263e
00000110: 0cd9 55be d4a2 34bb db8d 03be d1d3 e73b
00000120: bce7 83bd cb41 053e f5da 3e3e fa89 253e
00000130: 4915 2abe 3ae5 bb3d 2b04 0b3e cf62 aa3e
00000140: 4a83 913c 2a9f f1bc ffe2 523e a713 0c3e
00000150: 6774 b33d f000 3b3d 88d0 463c 4efa 34be
00000160: 079a 0c3f 7ef6 16be aedd 99bf c1c5 39be
00000170: 21f9 3e40 1fba 233d 8939 413e e0de 0d3b
00000180: 9216 603b 35a4 b9bf 66ac e73e 09e0 e03e
00000190: 3172 b03e 541e ae3e b858 25be 35e9 0e3f
000001a0: 3db7 c0bc f9f1 8f3e a1ac d93e 6374 aebd
000001b0: d0ee 3e3f 8814 1cbd 97f9 9c3f 8ce6 8fbf
000001c0: 8336 763f 5a42 033f 1588 1b3e bee6 89bd
000001d0: 9fec 393d 1327 afbb e5cc be3d 665c 08be
000001e0: a4be 30bd 4a6d 90be 423e 9cbf 3f2c 5bbd
000001f0: 6167 3cbe f722 63bd 8641 233e 9cf1 4e3e
00000200: a52b 2540 b6a3 2cbd 288d 9b3d 81e4 32bf
00000210: b1f4 bb3f 95b9 f63e e261 09bf b579 2fbe
00000220: 76a0 1c3d aa10 68bc 93e5 a7be c7e6 c1bd
00000230: 7d14 883d 8fa8 c53f 6de2 8cbe 2ae1 2d3e
00000240: bedc 2ebf 5e89 72be 6d10 80be 683c 02be
00000250: 1d26 a6bc 3612 e83e cb67 a53c b2dc 8a3e
00000260: 708e 733d 8060 733d 4010 353f 5a9c b8be
00000270: 0ab3 06bf 439e 203f 4947 14bf 0323 c83c
00000280: 68ed 053e c80f 463f 4a97 933d 574c 413e
00000290: 9604 d0bd 503f d03a f551 58bf 033d 453d
000002a0: 329d 333f ebf2 11be dbc6 1c3d 7ed1 6d3f
000002b0: cfb4 7fbe e415 c13f 9ea5 f9bd 1523 a73b
000002c0: 679a dbbb 9b35 27be 7c9a f1bd ad33 f8bc
000002d0: 99ea 283d 5784 883c a3fc 0e40 17c5 01be
000002e0: d2c1 473d e1fa 1fbd 148e 6d3f c794 15be
000002f0: da77 e53f 785e 17bf 6bd0 c43f fdcd 2abe
00000300: 32b3 093c baf6 57be 0a05 aebe d20f b9bd
00000310: 68d3 1dbe efe1 b03f ea08 72be 2419 cebe
00000320: fb31 0bbe b581 2c3d c464 40be 8b4c dfbd
00000330: d052 383d eda0 eabe 39fc c6bf 04e6 ddbe
00000340: d33e c3be c34e 00bd fb59 9ebc d3a4 c5bd
00000350: 217e b43e a9bb e63c 4a98 fa3f 91bf d6be
00000360: 853a 903c 0e53 973e 68a1 363d c3b4 cabf
00000370: 1331 3e3e 5f7a 0f40 a19b f33e 7bd1 103e
00000380: 3bb6 e53d 416f 013f c450 12bf 8418 613f
00000390: 8c9c c83f 99e2 8ebc b4f3 85be 5226 69be
000003a0: 5d57 4bbe bb89 b83f 038e 0abe f236 fb3e
000003b0: c8d7 3dbe 2b29 15be 5ec0 a7bd 6623 1f3b
000003c0: a517 d03e 37dd b5bf 2ca1 083f e2c5 6e3e
000003d0: 6eed a0bd 5f1e a83d 0144 6e3f cefb 483e
000003e0: 8e9e d63c 331e b13c 7189 4e3e fdd3 7c3d
000003f0: 7a2b f6bc a5cf 74be 3b9c 083e 1db3 ccbe

bn1.running_var f4 [500]
0.8370231 0.31319773 0.33170786 0.41100207 0.27504435 0.2520633 0.24956176 0.20987806
0.27393252 0.24963559 0.19013317 0.4711521 0.21737331 0.03543549 1.2154596 0.29138523
0.3756761 0.25786576 0.21549852 0.4986866 0.21431424 0.19873475 0.9361384 0.20005094
0.07782245 0.21544816 0.16681823 0.40074685 0.5133255 0.62212104 0.6328896 0.26297852
0.4977974 0.26241794 0.2087384 0.2782502 0.26186436 0.6838583 0.1704267 0.370113
0.24186668 0.3744424 0.21804498 0.2473917 0.26914436 0.16740379 0.2154486 0.066224225
0.69106656 0.27847856 0.2783411 0.2379814 0.23459958 6.7979035 0.24900885 0.2745666
0.2548093 0.6118603 0.2565357 0.21797346 0.2933212 0.38859823 0.17948988 0.21716392
0.26466 0.22386165 0.28128633 0.27112126 0.20810203 0.12048741 0.27855626 0.21020027
0.25055066 0.23835482 0.24639891 0.24480613 0.23796293 0.23469281 0.10444878 3.9545546
0.28624117 0.19403188 0.20841406 0.24818438 0.21083908 0.24133356 0.0067194044 0.9786004
6.206917 0.22804616 0.27097294 0.27690986 0.22440821 0.19642326 1.0321777 0.27574462
0.28954363 5.9250703 0.9675333 1.2613592 2.1112938 0.4027831 0.76150274 0.36013687
0.21929102 0.24695815 3.9495473 0.38389018 0.22771384 0.27078938 0.31186983 0.283892
0.30933097 0.44343072 0.23253003 0.3120541 0.18460822 0.26111037 0.24576025 0.08905852
0.2710656 0.24888338 0.26282516 0.2875702 0.19550727 0.26067466 0.24310948 0.6822883
0.2622908 0.27874982 0.2788213 0.27755678 0.2967516 0.3903067 5.2666845 0.2737756
0.14252774 0.039203774 0.21506251 0.27048954 0.25114223 0.51144665 0.26403964 0.27989098
0.28217056 0.2656951 0.62356484 0.4132275 0.1892552 0.38255075 0.22205472 0.38339287
0.1958941 0.2009079 0.23611437 0.34302393 0.2618064 0.58246744 0.36359143 0.13887638
0.21890856 0.4667661 0.23268448 0.2491148 0.27638912 0.18041712 0.3742082 0.18196718
0.22610909 0.24899009 0.27132526 0.23613648 0.26256353 0.23649219 0.2163795 0.2188249
0.026687386 0.27818173 0.1996677 0.27218077 0.22205415 0.15105923 2.8791769 0.17260551
0.16763303 0.5375944 0.24619685 0.2444738 0.3507789 0.28665832 0.35939017 0.2478333
0.2631116 0.27529284 1.12919 0.27364486 0.21728145 0.21218236 0.27877277 0.13452955
0.2838943 0.20478155 0.5388174 1.1058921 0.23506236 0.21784711 0.2563928 0.4366885
0.2918693 0.355402 0.23448706 0.34488216 2.570173 0.21778347 0.28053957 3.41999
0.279006 0.3556574 0.23426624 0.431838 0.28533554 0.24381164 1.2144009 0.23916157
0.3653181 0.6346624 0.542193 0.26195726 0.5010547 0.25297043 0.24012999 0.43819597
0.21515657 0.22204946 0.21723926 0.36127585 0.39230284 0.27754855 0.26496086 0.26118127
0.21593155 0.2537066 0.27461758 6.187435 0.2796819 0.25283664 0.24800158 0.29243633
0.20163059 0.009220868 0.06657686 0.20140128 0.21906316 0.49369144 0.2008705 0.31874752
00000000: 2547 563f 745b a03e 9dd5 a93e dd6e d23e
00000010: 9dd2 8c3e 710e 813e 1e8d 7f3e 46ea 563e
00000020: e240 8c3e 79a0 7f3e 45b2 423e d93a f13e
00000030: 1c97 5e3e ce24 113d 2e94 9b3f 7230 953e
00000040: 9e58 c03e fb06 843e a5ab 5c3e da53 ff3e
00000050: 3175 5b3e 1f81 4b3e c4a6 6f3f 27da 4c3e
00000060: 6061 9f3d 719e 5c3e 66d2 2a3e b12e cd3e
00000070: 4d69 033f 5343 1f3f 0e05 223f 1fa5 863e
00000080: 4ddf fe3e a55b 863e 85bf 553e cf76 8e3e
00000090: 1613 863e 5611 2f3f 5684 2e3e 737f bd3e
000000a0: e6ab 773e eab6 bf3e 2f47 5f3e 4054 7d3e
000000b0: 4acd 893e e66b 2b3e 8f9e 5c3e 91a0 873d
000000c0: bde9 303f be94 8e3e ba82 8e3e 65b1 733e
000000d0: df3a 703e 6d88 d940 2dfc 7e3e fe93 8c3e
000000e0: 5d76 823e e0a2 1c3f a658 833e 6f34 5f3e
000000f0: 322e 963e 59f6 c63e 32cc 373e 3860 5e3e
00000100: 8481 873e fd3b 653e c304 903e 68d0 8a3e
00000110: b318 553e 1ac2 f63d ed9e 8e3e bd3e 573e
00000120: 2d48 803e 4913 743e ff4f 7c3e 75ae 7a3e
00000130: 8eac 733e 5053 703e 3ee9 d53d 6c17 7d40
00000140: 348e 923e 4bb0 463e 7f6a 553e 0c24 7e3e
00000150: 33e6 573e 2520 773e 732e dc3b 8e85 7a3f
00000160: 109f c640 ef84 693e f7bc 8a3e 21c7 8d3e
00000170: 44cb 653e 2e23 493e 661e 843f 662e 8d3e
00000180: 103f 943e 2d9a bd40 43b0 773f 3874 a13f
00000190: 701f 0740 9639 ce3e d8f1 423f dc63 b83e
000001a0: d38d 603e 99e2 7c3e 62c5 7c40 418d c43e
000001b0: d12d 693e e8a4 8a3e 67ad 9f3e 4b5a 913e
000001c0: a160 9e3e 5a09 e33e 5a1c 6e3e 8ec5 9f3e
000001d0: f009 3d3e 42b0 853e 93a8 7b3e 5064 b63d
000001e0: 1cc9 8a3e 49db 7e3e 0591 863e 673c 933e
000001f0: 0f33 483e 2677 853e b1f1 783e 72aa 2e3f
00000200: fb4a 863e 4cb8 8e3e aac1 8e3e ec1b 8e3e
00000210: d3ef 973e 48d6 c73e ae88 a840 512c 8c3e
00000220: cbf2 113e 2394 203d 5939 5c3e 9b7d 8a3e
00000230: b795 803e 2bee 023f 3430 873e df4d 8f3e
00000240: a978 903e 3009 883e f2a1 1f3f 8e92 d33e
00000250: 1dcc 413e b1dd c33e 5062 633e 124c c43e
00000260: 7798 483e cdba 4d3e f7c7 713e d5a0 af3e
00000270: 7d0b 863e 961c 153f a828 ba3e 9c35 0e3e
00000280: 9129 603e f7fb ee3e d744 6e3e f317 7f3e
00000290: e082 8d3e 44bf 383e 3898 bf3e 9b55 3a3e
000002a0: 2489 673e 42f7 7e3e 25eb 8a3e c3cd 713e
000002b0: ba6e 863e 022b 723e 9692 5d3e a213 603e
000002c0: 819f da3c d66d 8e3e b175 4c3e 475b 8b3e
000002d0: 2a62 633e 45af 1a3e 6f44 3840 80bf 303e
000002e0: fea7 2b3e c99f 093f 071b 7c3e 5757 7a3e
000002f0: 4b99 b33e e1c4 923e fd01 b83e 03c8 7d3e
00000300: 90b6 863e 2ff3 8c3e 4c89 903f 2e1b 8c3e
00000310: 077f 5e3e 5546 593e 4ebb 8e3e 1dc2 093e
00000320: 985a 913e 41b2 513e f0ef 093f df8d 8d3f
00000330: 30b4 703e 5013 5f3e eb45 833e a395 df3e
00000340: e56f 953e 40f7 b53e 601d 703e 6594 b03e
00000350: b77d 2440 a102 5f3e e2a2 8f3e 1ee1 5a40
00000360: e0d9 8e3e ba18 b63e 7de3 6f3e df19 dd3e
00000370: 8017 923e c2a9 793e 7d71 9b3f c5e6 743e
00000380: f90a bb3e 3c79 223f 29cd 0a3f 431f 863e
00000390: 1f45 003f 5785 813e a3e4 753e 395b e03e
000003a0: 0152 5c3e ef60 633e f873 5e3e 26f9 b83e
000003b0: ebdb c83e d81a 8e3e f3a8 873e 8db9 853e
000003c0: 291d 5d3e d5e5 813e ad9a 8c3e 78ff c540
000003d0: 7732 8f3e ce73 813e 20f4 7d3e 37ba 953e
000003e0: 4078 4e3e 2013 173c 7359 883d 233c 4e3e
000003f0: 1852 603e 20c5 fc3e ffb0 4d3e e032 a33e

conv2.bias f4 [250]
-0.03840495 -0.008762415 0.17843115 -0.0075077754 0.011944471 0.029153707 0.015136243 -0.0943867
-0.003506512 -0.054793764 -0.009163349 0.01641149 0.052658696 0.029525472 -0.035755057 -0.08123943
-0.06915988 -0.07940341 -0.17500022 -0.038247634 -0.067027256 0.03716826 0.016812695 -0.0318128
0.048939034 0.01441353 0.026433095 0.045504637 -0.10947372 0.0044004666 -0.010098822 0.019513968
0.008936321 -0.014301373 -0.087896116 0.0016339729 -0.09080188 -0.34850717 0.011944444 -0.16041279
0.0025615916 0.013266413 0.0067849155 0.04979702 -0.017011095 0.11500821 -0.009991907 0.007392224
0.16851088 -0.1132527 0.05517133 0.029797671 -0.03974496 -0.10223606 0.0006498086 -0.007032977
-0.016770756 0.0031713943 -0.053318553 0.009587568 0.023406364 -0.013441027 -0.006212146 0.035154562
-0.079418495 0.033007585 0.028392479 -0.011661767 0.20810491 -0.010315577 0.00837154 -0.045336995
-0.048897155 -0.27684733 -0.04470851 0.08004839 -0.12822619 -0.3555179 0.010263375 -0.018233996
-0.1474969 -0.1993606 0.35118628 0.009409357 -0.101239584 -0.07890209 0.025963075 0.022508418
-0.004790634 0.09922709 0.007768258 -0.012302382 -0.12969118 0.058911733 -0.00042759572 -0.057296522
0.015120715 -0.034679048 0.046363544 -0.1080805 -0.04600336 -0.05232543 0.020841105 -0.0032940274
0.00027920154 -0.14365825 -0.14639518 -0.020515231 -0.0050550452 0.043745615 -0.03204321 0.14115076
-0.01894697 -0.01638196 -0.14662518 0.010492508 0.10855769 -0.013316384 -0.13418321 0.01143588
-0.057104208 0.026179513 -0.0030407754 -0.0118932845 -0.15098812 -0.05726126 9.2783506e-05 0.048727386
0.0005434192 0.06727553 -0.22611244 0.006656895 -7.159057e-05 0.022157317 0.062080927 0.017482096
0.0128667485 -0.013315883 0.008595322 -0.06119645 -0.0014465811 -0.019257657 0.005557608 0.059482314
-0.01789328 -0.011255193 -0.20862974 0.010398543 -0.0004784543 0.08143957 0.013336177 0.0985462
0.0070099006 0.010198658 -0.0059069693 -0.007525081 0.06926262 -0.047544748 0.017661303 0.043971784
0.081817284 -0.24531806 -0.027806198 -0.02160329 0.010242538 0.16243707 0.029814975 -0.04840426
0.016603455 -0.003665843 -0.04404463 -0.0006768658 0.057906196 -0.12237127 -0.037887197 -0.24005492
-0.017873881 0.013713852 0.013918071 -0.0035321035 0.06691796 -0.011883961 0.14729916 -0.03582361
0.054951012 0.012426129 -0.0030108448 0.13568887 -0.037038233 0.008483133 0.103047095 0.022322211
0.004090042 -0.0778108 0.023441875 -0.013646684 -0.038953595 -0.0042487285 -0.006875491 0.022255715
0.15030779 -0.0018777614 0.019054793 0.14427593 -0.20125614 0.008836863 0.009504737 -0.06583364
-0.024869412 -0.15768886 -0.03899903 -0.0063303453 0.032253858 -0.008711666 0.07212031 0.014162065
-0.20769246 -0.10464876 -0.013654074 0.0056487033 0.08340997 0.0014552044 0.036061294 0.08449458
0.23233558 -0.087093204 -0.152775 0.054396763 0.006993145 0.100118 0.038619276 -0.08094754
-0.06409912 0.01887464 0.03880292 0.00010994128 -0.0129972305 0.008362158 -0.062596425 -0.22017334
0.0061927172 0.30651468 0.041699562 -0.03458687 -0.08333482 -0.0015566364 -0.04303315 -0.3880817
0.017364185 -0.008938802
00000000: 824e 1dbd 3b90 0fbc a8b6 363e c903 f6bb
00000010: beb2 433c c1d3 ee3c 01fe 773c d04d c1bd
00000020: 82cd 65bb 6d6f 60bd df21 16bc 6471 863c
00000030: a5b0 573d 67df f13c e573 12bd dc60 a6bd
00000040: b2a3 8dbd 419e a2bd 4233 33be 8da9 1cbd
00000050: 9645 89bd bf3d 183d c7ba 893c 234e 02bd
00000060: 4c74 483d ba26 6c3c 388a d83c 1263 3a3d
00000070: c233 e0bd ca31 903b 8875 25bc c2db 9f3c
00000080: a669 123c 4e50 6abc e102 b4bd 082b d63a
00000090: 56f6 b9bd 886f b2be a1b2 433c 4043 24be
000000a0: 60e0 273b 5e5b 593c ff53 de3b f6f7 4b3d
000000b0: da5a 8bbc 6d89 eb3d 18b5 23bc 783a f23b
000000c0: 1e8e 2c3e 08f1 e7bd 55fb 613d 3f1a f43c
000000d0: 9ccb 22bd 2461 d1bd eb57 2a3a e374 e6bb
000000e0: d362 89bc 2bd7 4f3b 8e64 5abd 2d15 1d3c
000000f0: b4be bf3c c137 5cbc 428f cbbb 3bfe 0f3d
00000100: 2aa6 a2bd f632 073d 5897 e83c ff10 3fbc
00000110: 7419 553e aa02 29bc c928 093c 49b3 39bd
00000120: 6248 48bd efbe 8dbe 4520 37bd 69f0 a33d
00000130: ba4d 03be 7106 b6be b727 283c 765f 95bc
00000140: 6d09 17be 2f25 4cbe b0ce b33e b429 1a3c
00000150: b356 cfbd 6b97 a1bd 84b0 d43c 9363 b83c
00000160: c0fa 9cbb 9337 cb3d df8c fe3b ee8f 49bc
00000170: c4cd 04be 6e4d 713d ed2e e0b9 c2af 6abd
00000180: e0bc 773c 9e0b 0ebd b3e7 3d3d 4f59 ddbd
00000190: 056e 3cbd 3153 56bd f7ba aa3c 9ce0 57bb
000001a0: cc61 9239 261b 13be 9ee8 15be 8f0f a8bc
000001b0: cba4 a5bb 9a2e 333d be3f 03bd d389 103e
000001c0: ad36 9bbc 7633 86bc e924 16be c5e8 2b3c
000001d0: 7f53 de3d f62c 5abc 5367 09be 8f5d 3b3c
000001e0: 1ae6 69bd 6b76 d63c bf47 47bb 0ddc 42bc
000001f0: a19c 1abe c88a 6abd c494 c238 5e96 473d
00000200: 3f74 0e3a c1c7 893d 058a 67be 1522 da3b
00000210: e522 96b8 4383 b53c 9248 7e3d 9d36 8f3c
00000220: 0ecf 523c dd2a 5abc 65d3 0c3c 21a9 7abd
00000230: 359b bdba 3cc2 9dbc 981c b63b baa3 733d
00000240: ee94 92bc b367 38bc 09a3 55be a75e 2a3c
00000250: 0dd9 fab9 cac9 a63d fb7f 5a3c 97d2 c93d
00000260: 4fb3 e53b 4618 273c 408f c1bb f494 f6bb
00000270: 8fd9 8d3d 48be 42bd 70ae 903c c21b 343d
00000280: d28f a73d a834 7bbe d3c9 e3bc 62f9 b0bc
00000290: 51d0 273c e755 263e 893e f43c 8c43 46bd
000002a0: f803 883c a43e 70bb 2468 34bd b26f 31ba
000002b0: 0c2f 6d3d ca9d fabd 9b2f 1bbd f5d0 75be
000002c0: 3f6c 92bc 10b0 603c 9f08 643c dd7a 67bb
000002d0: 490c 893d f2b4 42bc 97d5 163e c7bb 12bd
000002e0: 5014 613d f696 4b3c 9851 45bb 06f2 0a3e
000002f0: 67b5 17bd d7fc 0a3c 5b0a d33d 12dd b63c
00000300: c205 863b 455b 9fbd 2d09 c03c 5796 5fbc
00000310: ce8d 1fbd eb38 8bbb cc4b e1bb 9e51 b63c
00000320: 49ea 193e 381f f6ba cc18 9c3c 12bd 133e
00000330: 1716 4ebe 7dc8 103c c2b9 1b3c cad3 86bd
00000340: f0ba cbbc 3079 21be 72bd 1fbd c96e cfbb
00000350: 9f1c 043d 60bb 0ebc d0b3 933d 0208 683c
00000360: 55ad 54be 1752 d6bd 56b5 5fbc c218 b93b
00000370: d9d2 aa3d 8fbc be3a 02b5 133d 7f0b ad3d
00000380: 61e9 6d3e ec5d b2bd 0d71 1cbe 24cf 5e3d
00000390: c126 e53b aa0a cd3d 3f2f 1e3d d3c7 a5bd
000003a0: 6646 83bd fd9e 9a3c d0ef 1e3d 4690 e638
000003b0: 56f2 54bc 6f01 093c 8e32 80bd 1f75 61be
000003c0: 47ec ca3b 7eef 9c3e 29cd 2a3d f6aa 0dbd
000003d0: 72ab aabd 0d08 ccba 8743 30bd a5b2 c6be
000003e0: 563f 8e3c 0e74 12bc

conv2.lin.weight f4 [250, 500]
0.63395834 0.67436767 0.6684131 0.67070824 0.7076091 0.66743857 0.55304074 0.5882009
0.5319735 0.54457325 0.6666724 0.6149336 0.63564473 0.6129664 0.72392124 0.4994674
0.7377502 0.7244553 0.5146794 0.7268236 0.52940464 0.51520073 0.59502697 0.55827636
0.5576703 0.4839466 0.5938433 0.5654016 0.7113012 0.64297163 0.635776 0.71784407
0.66590774 0.5869772 0.58074075 0.6251479 0.57800573 0.73081815 0.5259119 0.6806406
0.631999 0.5640142 0.5815229 0.6606938 0.59056544 0.6158678 0.47420627 0.56831884
0.6328046 0.54591864 0.63352305 0.58948064 0.6006572 0.721433 0.5394396 0.5536626
0.64204293 0.71753526 0.56755346 0.64196193 0.59140766 0.61788696 0.6818167 0.5614697
0.5283858 0.56873375 0.561727 0.5083075 0.5242924 0.6141107 0.52403986 0.5559599
0.5545877 0.57185817 0.51719797 0.51454276 0.570837 0.5753005 0.60320216 0.6136628
0.59975857 0.6254443 0.6290903 0.6109438 0.5894453 0.5335749 0.61844283 0.64942414
0.6693174 0.6568817 0.64025754 0.6614259 0.67394334 0.6440944 0.61081326 0.5391613
0.65187895 0.6940544 0.65224123 0.5652061 0.67289364 0.66685784 0.5865885 0.6701501
0.564093 0.5402814 0.72787243 0.54094356 0.64672333 0.50049025 0.6647509 0.72572255
0.58963066 0.6169934 0.6079407 0.6276095 0.59020805 0.58751386 0.47734687 0.60944
0.67358404 0.6126765 0.6101401 0.56425625 0.6073185 0.6207033 0.5824564 0.65763587
0.55547476 0.5315688 0.5261675 0.5393064 0.6122416 0.6508941 0.5626167 0.5552701
0.5589122 0.52405924 0.5826026 0.53841335 0.50823647 0.64973253 0.5758878 0.7029035
0.6017115 0.6546527 0.61696017 0.6337801 0.6137102 0.62574303 0.66684455 0.6039891
0.5103537 0.5422983 0.68491757 0.5310692 0.6989038 0.6965564 0.71842265 0.66859096
0.6062958 0.7071019 0.56724834 0.59109986 0.64260507 0.5429251 0.6378866 0.6150503
0.5610021 0.6368551 0.6376162 0.5725953 0.56735474 0.6691258 0.5597669 0.5330274
0.56097275 0.5315561 0.5191879 0.5485115 0.5586336 0.6657641 0.5282243 0.6039417
0.5604036 0.5229884 0.52640873 0.65572995 0.5898655 0.6968823 0.7224762 0.57716054
0.4918613 0.61163175 0.7031986 0.6647843 0.6040234 0.66058606 0.5033821 0.48303923
0.5099472 0.64698935 0.73042387 0.6320317 0.6459659 0.5268192 0.57137394 0.70314896
0.5778738 0.5120633 0.5905532 0.61913735 0.6549973 0.54429096 0.52266103 0.62823474
0.60272664 0.6134582 0.6127327 0.7385283 0.57970226 0.51674104 0.67436254 0.59294546
0.497491 0.60488117 0.6242813 0.59374714 0.7125925 0.53532505 0.5477523 0.71834844
0.5629429 0.5607048 0.6221786 0.6549146 0.5818742 0.5829675 0.64160246 0.53186345
0.59864783 0.7313851 0.5210351 0.6068987 0.5472337 0.48399657 0.68796825 0.6157781
0.6614956 0.57193714 0.5530318 0.5172459 0.5544775 0.68248886 0.48432648 0.69592094
00000000: 184b 223f 5ca3 2c3f 1f1d 2b3f 89b3 2b3f
00000010: df25 353f 41dd 2a3f 1494 0d3f 5694 163f
00000020: 6a2f 083f 2769 0b3f 0bab 2a3f 4a6c 1d3f
00000030: 9db9 223f 5eeb 1c3f e752 393f 31ba ff3e
00000040: 32dd 3c3f e775 393f 07c2 033f 1d11 3a3f
00000050: 1087 073f 32e4 033f b053 183f 33eb 0e3f
00000060: 7bc3 0e3f d9c7 f73e 1d06 183f 29be 103f
00000070: d617 363f ca99 243f 37c2 223f a1c4 373f
00000080: ee78 2a3f 2344 163f 6dab 143f b109 203f
00000090: 2ff8 133f e616 3b3f 2aa2 063f 763e 2e3f
000000a0: b0ca 213f 3c63 103f afde 143f 3b23 293f
000000b0: 4c2f 173f 83a9 1d3f 2acb f23e 587d 113f
000000c0: 7bff 213f 53c1 0b3f 912e 223f 34e8 163f
000000d0: acc4 193f d5af 383f b718 0a3f d5bc 0d3f
000000e0: ed5c 243f 64b0 373f 2f4b 113f 9e57 243f
000000f0: 7e66 173f d72d 1e3f 8a8b 2e3f 7abc 0f3f
00000100: 4b44 073f 8998 113f 57cd 0f3f 7120 023f
00000110: 0738 063f 5c36 1d3f 7a27 063f 6353 0e3f
00000120: 76f9 0d3f 4c65 123f 1667 043f 13b9 033f
00000130: 6022 123f e546 133f 756b 1a3f 0119 1d3f
00000140: c789 193f 1e1d 203f 100c 213f d066 1c3f
00000150: e3e5 163f 5d98 083f 4552 1e3f a940 263f
00000160: 6358 2b3f 6629 283f ebe7 233f 3553 293f
00000170: 8d87 2c3f 5fe3 243f 425e 1c3f 7a06 0a3f
00000180: 8ae1 263f 8dad 313f 48f9 263f 59b1 103f
00000190: c242 2c3f 32b7 2a3f aa2a 163f f58e 2b3f
000001a0: 6668 103f e24f 0a3f d955 3a3f 477b 0a3f
000001b0: a98f 253f 2120 003f 1d2d 2a3f f4c8 393f
000001c0: 09f2 163f 48f3 1d3f 00a2 1b3f 04ab 203f
000001d0: e017 173f 4f67 163f cf66 f43e 4304 1c3f
000001e0: 0170 2c3f 5ed8 1c3f 2432 1c3f 1973 103f
000001f0: 3a79 1b3f 69e6 1e3f dd1b 153f d35a 283f
00000200: 9833 0e3f e514 083f eab2 063f fc0f 0a3f
00000210: debb 1c3f ffa0 263f a607 103f 2e26 0e3f
00000220: df14 0f3f bf28 063f 7225 153f 75d5 093f
00000230: c91b 023f df54 263f 626d 133f 7cf1 333f
00000240: c409 1a3f 5297 273f 1af1 1d3f 6a3f 223f
00000250: 1d1c 1d3f b230 203f 53b6 2a3f 089f 1a3f
00000260: 8aa6 023f 10d4 0a3f c256 2f3f 27f4 073f
00000270: 5ceb 323f 8551 323f 8cea 373f c728 2b3f
00000280: 3436 1b3f a104 353f 3037 113f 5252 173f
00000290: c481 243f 24fd 0a3f 894c 233f f073 1d3f
000002a0: d59d 0f3f f008 233f d13a 233f 9b95 123f
000002b0: 293e 113f d44b 2b3f e24c 0f3f 7c74 083f
000002c0: e99b 0f3f 1014 083f 80e9 043f 406b 0c3f
000002d0: 9d02 0f3f 846f 2a3f b539 073f ec9b 1a3f
000002e0: 9c76 0f3f 91e2 053f b9c2 063f ebdd 273f
000002f0: 6d01 173f e166 323f 33f4 383f cbc0 133f
00000300: 3fd5 fb3e e693 1c3f d304 343f 4e2f 2a3f
00000310: 47a1 1a3f 2b1c 293f a6dd 003f eb50 f73e
00000320: e68b 023f 18a1 253f 0ffd 3a3f d4cc 213f
00000330: 055e 253f a0dd 063f 9045 123f 9201 343f
00000340: 8aef 133f 9516 033f 7f2e 173f c97f 1e3f
00000350: e7ad 273f a756 0b3f 1dcd 053f fed3 203f
00000360: 4b4c 1a3f 990b 1d3f 0ddc 1c3f 3110 3d3f
00000370: 5e67 143f 2449 043f 06a3 2c3f 46cb 173f
00000380: 24b7 fe3e 7ed9 1a3f e6d0 1f3f d0ff 173f
00000390: 766c 363f 100b 093f 7f39 0c3f afe5 373f
000003a0: 071d 103f 5a8a 0f3f 1947 1f3f 7ca8 273f
000003b0: b5f5 143f 5c3d 153f 0f40 243f 3428 083f
000003c0: fc40 193f 0e3c 3b3f 8e62 053f b75d 1b3f
000003d0: 8217 0c3f 66ce f73e b01e 303f a2a3 1d3f
000003e0: c757 293f 796a 123f 7e93 0d3f 3a6a 043f
000003f0: 3df2 0d3f 97b7 2e3f a4f9 f73e e027 323f
