Degree-GCN-model.pth (torch, 642464 bytes, 20 tensors)

conv1.bias f4 [500]
00000000: 7483 99c0 bd05 ad3e bb76 b840 86e8 6c40
00000010: f159 0d3e a9c6 56be a08a 523f d3b5 70be
00000020: 6b1b 0140 9a6f 91bf f63d cebc 9c37 9f3f
00000030: 75ba 2abf b105 e0bd 07f2 153f f445 dabe
00000040: b32b 67be 3fbd 713d 17a8 6d40 8993 eb3e
00000050: 5e02 d3bf a168 853e ba6b 7340 f498 6a3f
00000060: 2f3a cc3e 2b6c 0cc0 ec5d f8be ca3e 373f
00000070: a2bc 9f40 71a7 8e3d 29e2 93bd f6ea 253f
00000080: da76 02c0 ce9c 4c3f 50a1 07c0 de63 123f
00000090: f985 0240 a20f 343f 73ae 81c0 436d 21bf
000000a0: ebaa f9bf 2a09 0d3f 9411 753d d3ae e4be
000000b0: f9ef 8c3c b3ef 6a3d 1065 853d 1591 cd3f
000000c0: ce48 1ac0 ceac 0cbe 5b82 5bbc cf50 533f
000000d0: cd22 373d 3cdd a4bf 9065 e93e e461 c33e
000000e0: 7194 f63f 612c 29be 5e6e 6fbf 8136 253e
000000f0: 4e10 97be 4026 19bf ca14 5c3e fed8 b8be
00000100: 53d8 9b3f 80df 203c 34f3 8c3e eaae f73e
00000110: d425 f03f 8760 8640 2367 613d cbf6 a13f
00000120: 2ec1 3a3f 8e0e 1ebf 3810 c5bf 9a3b 933e
00000130: 8e18 783c cac1 a73e 4d41 b5bf bf39 56bf
00000140: fe12 8ac0 6bc6 89be b000 9fbf b31d 4340
00000150: 923f d73e c01e 83be 99f6 7d3f 132f 2d3e
00000160: 6729 6fbe 32b5 1c3e b4c9 9c40 6cdc d8bd
00000170: 9895 cfbe a56c 1b40 3090 493d a08b b440
00000180: 32ef 63bf d849 943f 036a bb3f 3bba 6cbe
00000190: b0c7 f5bf 97a5 e33f 0dcb f93d 08a8 10bf
000001a0: 7e29 e4bd a5bf 9c3f 6dc9 6bbe 01d6 7d40
000001b0: 8a94 143e ce9c 4a3f 1030 663f a9b1 16be
000001c0: 4b38 7b3e e023 713e de75 343e 8727 a6be
000001d0: 1a54 8dbf 3bb3 103f b3a6 99bf e9b3 7bbf
000001e0: 413b 133d 0020 ef3e 0113 a83e 0d09 dd3f
000001f0: 91e4 d3bf 2f4e 3f40 5ee9 9f40 f46e c7bd
00000200: 97d8 7e3f bdae 4b3d a133 293e 85f2 f73f
00000210: ef74 853f 0b25 e6be b897 4dbe 2ecd e6be
00000220: 4641 0e40 ea45 263f af8c 0b40 5622 c2bf
00000230: ad39 9640 799d 7bbf 5ca7 103d ce07 8c40
00000240: 1de1 05be 5659 85bf 42b5 c63d a1ce 1e3d
00000250: ff4d 0ac0 4a68 ca3e 5122 fd3f 024e 0abe
00000260: 3b12 14be 86db f83e 6900 6540 3359 22c0
00000270: 8f46 9cbf 99dc 9b3e 3a2f 663f a71e 4e40
00000280: ca0d 5240 788d f43e 778c 3dbf ddad e840
00000290: bc28 efbf 156c 5cbf 83d1 883e b080 5abf
000002a0: 340a 17bf ff37 2740 9a44 1dc0 dede 02be
000002b0: 245d 063f 776b 7cbe 04b3 d5bf 201c 713e
000002c0: 3dfe 6640 83eb 3e3f 27f1 303e 884a 34bf
000002d0: 141a 843f 9b5c 53be 461c 293e e281 833e
000002e0: ac3b 8b40 12c4 3bbe 08fc 2bbf 09a1 f5be
000002f0: 9730 a9be 3e78 4abe a38e 263e b87f 3040
00000300: 4112 f4bc 09ef 863e 7c03 533e 238b c63d
00000310: ac56 723f 430d 7bbe 6bd7 dd3e 0591 98bf
00000320: 734b 073e dcd3 06c0 5dcb 5abe 04c1 c140
00000330: 09ee 51be 1bef bf3d 8a1b 9cbf fcec a5bf
00000340: 2a7f b93e 3b2f 9fbf d553 a440 9849 12bd
00000350: 9b3c 8b3e 7318 d23e 2cfa 97bf df2a 6abf
00000360: 9ebb 18bf 6fe1 9abf 697e 843f c6cd 00c0
00000370: d9c0 df3f f7b5 003e 8cf6 9bbf 9d15 c63e
00000380: 8268 f4be 9c03 9640 169d 6b40 172e 583f
00000390: a253 a2bf 21f3 ad3f 6ccb 003f ebe5 7a3e
000003a0: d390 453d 4332 ff3e 335a 6e3f ac9e 5240
000003b0: 5b30 8e40 46fd 8abe 9f15 cfbe 8969 293f
000003c0: a614 d23e 2e61 81be 29d3 25be fa05 c8bf
000003d0: 09cd da3e 31d6 163f 0145 a3bf 46e8 e63d
000003e0: cdf9 b6be 5e0c 1b3f 7461 55bd 9a35 b1be
000003f0: 09f2 973e 19dc bebd 1dfd 3a3e 2c34 943f
-4.7972965 0.3379344 5.7644935 3.701692 0.13803841 -0.2097422 0.82242775 -0.2350686
2.0172985 -1.1362183 -0.02517603 1.2438846 -0.6669076 -0.109385855 0.5857243 -0.42631495
-0.22575264 0.05901837 3.7133844 0.46010998 -1.6485097 0.26056388 3.80345 0.9163964
0.3988814 -2.194102 -0.48509157 0.71580184 4.9917765 0.06965531 -0.07220871 0.64811647
-2.0385041 0.79926765 -2.1192207 0.57183635 2.039427 0.70336354 -4.052545 -0.63057345
-1.9505285 0.5509211 0.059831217 -0.4466463 0.017204272 0.0573575 0.06513417 1.60599
-2.4106936 -0.13737795 -0.013397778 0.8254518 0.044710923 -1.2880015 0.455853 0.38160622
1.9264051 -0.16520835 -0.9352778 0.16134073 -0.29504627 -0.5982399 0.21492305 -0.36103052
1.2175392 0.009818912 0.275293 0.48375636 1.8761544 4.199283 0.05503 1.265344
0.7295102 -0.6174096 -1.5395575 0.2875641 0.015142573 0.32765037 -1.4160553 -0.83681864
-4.3148184 -0.26909193 -1.2422085 3.0486877 0.42040688 -0.25609398 0.99204403 0.16912489
-0.23355637 0.15303496 4.899622 -0.10588917 -0.40543818 2.4285061 0.049209774 5.642044
-0.8903686 1.1585035 1.4641727 -0.23117916 -1.9201565 1.7784909 0.12196932 -0.56506395
-0.111407265 1.2245985 -0.23026057 3.9661868 0.14509788 0.79145515 0.8991709 -0.1471621
0.24533193 0.23548841 0.17623088 -0.32452032 -1.1041291 0.56523484 -1.2003998 -0.98321396
0.03594518 0.46704102 0.32827 1.7268387 -1.6554128 2.989147 4.997237 -0.097379595
0.9954924 0.04972719 0.16523601 1.9370886 1.042631 -0.44950137 -0.20077407 -0.45078415
2.222734 0.6495043 2.1804616 -1.5166728 4.6945405 -0.9828716 0.035315856 4.3759527
-0.13074155 -1.0417888 0.09702541 0.038771275 -2.1610105 0.3953269 1.9776098 -0.1350632
-0.1446008 0.48604983 3.57815 -2.5366943 -1.2209033 0.3044174 0.8991581 3.2206209
3.2820916 0.47764182 -0.7404246 7.2712235 -1.8684306 -0.8610242 0.26722345 -0.8535261
-0.58999944 2.6127927 -2.457312 -0.1278033 0.5248587 -0.2465037 -1.6695256 0.23545885
3.6092675 0.7457811 0.17279492 -0.70426226 1.0320458 -0.20640795 0.16514692 0.2568503
4.351034 -0.18336514 -0.67181444 -0.47974423 -0.33044884 -0.19772431 0.16265349 2.7577953
-0.02979386 0.26354244 0.20606798 0.09694507 0.946635 -0.24516778 0.43328413 -1.1919256
0.13212375 -2.1066809 -0.2136664 6.0548115 -0.2050096 0.093717776 -1.2195904 -1.2962947
0.3622983 -1.2436289 5.1352334 -0.035714716 0.27194676 0.41034278 -1.1873221 -0.91471666
-0.5966128 -1.2100047 1.0351077 -2.0125594 1.7480727 0.12569414 -1.2184615 0.38688365
-0.47735983 4.6879406 3.6814628 0.8444533 -1.2681773 1.3589822 0.503104 0.24501769
0.04823382 0.49843034 0.93106383 3.2909346 4.443403 -0.27146357 -0.40446183 0.6617666
0.41031379 -0.25269455 -0.16193832 -1.5626824 0.42734554 0.5892058 -1.2755433 0.112747714
-0.35737458 0.60565746 -0.05209489 -0.34611207 0.29676846 -0.09319324 0.18260618 1.1578422

conv1.lin.weight f4 [500, 1]
00000000: 39ee bb3f fbb0 0340 1617 fa3f 13f4 c13f
00000010: ee04 23bf 822a 12bf 91f2 d13f 0e70 223f
00000020: ba9b d13f 0049 1dc0 56ab 0dbf 71d4 5e3f
00000030: 5ec4 f63f c229 00bf 22a3 993f 27df b23f
00000040: d903 58bd 16f8 bf3f 5450 ee3f 2fce 0cbf
00000050: 1df8 a03f 419e 4e3f 69a4 50bf 81d7 59bd
00000060: c82e a63f d466 1e3f 9469 40bf 5bb6 f03f
00000070: 83d1 0340 f01d edbe 7674 b4bf 2a46 0ac0
00000080: 8f94 2bc0 6e01 6cbf d06d f53f 1741 b6bf
00000090: ffaa c93f 26be d8bf 6abc b63f 28c5 e63f
000000a0: c710 a7bf 122e fe3f 9db5 7cbe 7852 10bf
000000b0: 4f8b 2abf 63c5 0fbf c121 1340 b672 3cbf
000000c0: c4e9 e83f 3cfc f2bf ef13 f0be 4eec 22c0
000000d0: 977c 2f3f ab67 753f 82c7 e43f 83a8 13bf
000000e0: 8c44 363f b091 333f 000c 0cbf ca13 a63f
000000f0: 7ce7 3d3f 202b 37c0 30ae 12bf 0b98 5dbf
00000100: cc69 08bf 95a8 bb3e 4736 fb3f 62c7 0d3f
00000110: 3d72 14c0 8f0d c83f 80d1 13bf 0fe1 a83f
00000120: 2f5e 543f 710c 04bf 1c0f 903f 429e 0fbf
00000130: 3ef6 26bf f308 f23f 7880 21c0 7fab 1740
00000140: f8c9 e33f 6ce2 f03e f19f 903f 0cc1 a53f
00000150: 69d3 e6be bd0c f23f 3ee0 d13f de76 e0be
00000160: d901 21c0 c933 00bf 3d12 7b3f 52b4 8f3f
00000170: ab97 5ebf 0b13 0a40 d302 16bf 9e1b bb3f
00000180: 15cf d93f 4407 8cbf 5986 1ec0 d9f1 09c0
00000190: 68eb c93f 441b 823f af38 12bf d308 fc3f
000001a0: 8de6 313f e91e e13f c646 38c0 f725 1d3f
000001b0: eaab 0cbf 8bd3 20c0 c592 7c3f 1ace 2fbf
000001c0: c97a 1dbf a2a5 09bf 4e39 7f3f f740 2b3f
000001d0: cf82 213f 7121 313f b014 e93f 0cdc ff3f
000001e0: de28 d43f 5444 11c0 d5f4 0ebf 5f08 e53f
000001f0: fbae 733f d452 273f 4033 0d40 0387 4e3f
00000200: 0372 0340 a03d 853f 3d48 06bf c148 0e40
00000210: cce0 12bf 02af fa3f 5e80 fa3e 2c8f c13f
00000220: 3204 c53f e227 b13f 445e 2dc0 2f68 793f
00000230: 5c7a e93f be42 26c0 0e4c 283f b434 0440
00000240: 9872 953f 36ee 263f 1467 18bf d426 f4be
00000250: 9012 d63f 6434 d53e d91a b6bf 8e3a 12bf
00000260: da23 26bf a237 be3f 515c b13f 4e80 bf3f
00000270: b9bb 0cbf ee02 14bf 9348 2ec0 9e2e d43f
00000280: 7449 dc3f 2158 0c3f ca4f 0fc0 2571 a03f
00000290: fe9f a93f dc4a 0040 b8ed 54c0 6f1b 753f
000002a0: 7831 e13f 04a5 d43f b0b7 e23f 7106 19bf
000002b0: 1de2 efbe bf7b 28bf af3a 0140 0ecc 00bf
000002c0: 3c65 983f ae13 6a3f e415 59bf 87b5 203f
000002d0: e67b 8fbf 5cd3 33c0 8651 06bf fbdd 16bf
000002e0: 6ebc 253f 5dd6 8dbd 9fa2 993f 4feb 0a3f
000002f0: 73bf 79bf 55b7 16bf 97d7 38bf 67d9 303f
00000300: e7fe c83f f22e f8be ee34 0fbf b42a 0040
00000310: caf3 09bf 2c8e d43f 5321 2f3f dd4a 423f
00000320: bd27 07bf d149 eb3f 8e41 ddbf 99f7 e93f
00000330: 75aa 36bf b32a 11bf b06e f23f 6928 0040
00000340: cd89 e8be 31e3 0140 2bd0 a03f 572b 0bc0
00000350: 4f9c 0cbf a732 19bf 937a e83f 389f 13c0
00000360: 4a53 563f b3a4 f53f 4565 30bf 847e d03f
00000370: e92b ec3f a5c8 1bbf 7150 dc3f ccff 703e
00000380: 396c 0d3f ac0d 0b40 e5d5 b43f abce 7ebf
00000390: 088b e43f 76d2 a3bf 0b75 8f3e 1ae1 18bf
000003a0: cb76 20bf 66aa 083f 6e58 fbbf 47dc 793f
000003b0: 14c5 da3f 89a6 273f ad4c ed3f 4ee7 0fbf
000003c0: 2c5f 0dbf cda5 f03f 5ee7 a53e 41ef b43f
000003d0: 5456 0840 9ca1 eb3f 4607 f53f 89da 623f
000003e0: 1849 e93f a978 d13f c137 39bf b569 28c0
000003f0: cac1 16bf 8eae 30bf 04c0 f2be 77f3 f93f
1.4682075 2.057677 1.9538295 1.515261 -0.636794 -0.5709611 1.640215 0.6345223
1.6375649 -2.4575806 -0.5533956 0.8704291 1.9278677 -0.5006372 1.2002909 1.3974351
-0.052738044 1.4997585 1.8618264 -0.5500211 1.2575718 0.80710226 -0.8150087 -0.053184036
1.2983027 0.61875653 -0.751611 1.880565 2.0596626 -0.46311903 -1.4098041 -2.1605325
-2.6809423 -0.9218968 1.9174137 -1.4238614 1.5755309 -1.6933029 1.427625 1.8028917
-1.3051995 1.985781 -0.24678655 -0.5637584 -0.6661882 -0.56160563 2.2989352 -0.73612535
1.819634 -1.8983226 -0.46890208 -2.545673 0.68549484 0.9586131 1.7873385 -0.57679003
0.71198344 0.70144176 -0.5470581 1.2974789 0.7418134 -2.8620071 -0.5729704 -0.86560124
-0.53286433 0.36652055 1.9625939 0.5538236 -2.3194726 1.5629138 -0.57741547 1.3193682
0.8295621 -0.51581484 1.1254611 -0.5610086 -0.65219486 1.8908981 -2.523466 2.3698423
1.7796011 0.47047746 1.129881 1.2949538 -0.45083168 1.8910137 1.6396558 -0.43840688
-2.5157378 -0.5007902 0.98074704 1.1226904 -0.86950177 2.1574123 -0.5859806 1.4617803
1.7016321 -1.0939717 -2.47695 -2.1553862 1.5774965 1.0164571 -0.5711774 1.9690193
0.6949242 1.7587558 -2.8793197 0.61386055 -0.5494982 -2.5129116 0.9866145 -0.6867386
-0.6151548 -0.5376836 0.99696815 0.66896003 0.63090223 0.6919165 1.8209438 1.9989028
1.6574972 -2.2697954 -0.55842334 1.789318 0.95188874 0.6536076 2.206253 0.8067476
2.0538337 1.0409431 -0.52453977 2.2231905 -0.5737426 1.9584658 0.4892606 1.5121818
1.5391905 1.3840296 -2.7088785 0.97424597 1.8240466 -2.5978236 0.6574105 2.0657167
1.1675596 0.6520723 -0.59532285 -0.47685874 1.6724415 0.41641533 -1.4226943 -0.571206
-0.64898455 1.4860728 1.3856298 1.496103 -0.5497394 -0.5781697 -2.7231796 1.6576726
1.7209916 0.54821974 -2.239245 1.2534529 1.3251951 2.004569 -3.3270092 0.95744985
1.7593222 1.6612859 1.7712307 -0.59775454 -0.46852198 -0.6581382 2.0192068 -0.5031136
1.1905894 0.9143628 -0.8479903 0.6277699 -1.1209686 -2.8097754 -0.52468145 -0.58932465
0.64740646 -0.06925652 1.2002753 0.542653 -0.97557753 -0.5887349 -0.72203964 0.6908173
1.570279 -0.48473316 -0.5594014 2.0026064 -0.5388762 1.6605887 0.68410224 0.7589548
-0.5279501 1.8381902 -1.7285631 1.8278686 -0.71353847 -0.5670578 1.8940029 2.0024664
-0.45417634 2.0294917 1.2563528 -2.1745203 -0.5492601 -0.59842914 1.8162407 -2.306593
0.8372084 1.9190887 -0.68904525 1.628861 1.84509 -0.60853034 1.7212049 0.23535079
0.5524326 2.1727095 1.4127775 -0.995341 1.7854929 -1.2798603 0.28018984 -0.5971848
-0.62681264 0.5338501 -1.9636362 0.9760174 1.7091393 0.6548849 1.8539025 -0.5621232
-0.55223346 1.8800598 0.32403082 1.4135514 2.130269 1.8408694 1.9142845 0.8861471
1.8225431 1.6364948 -0.723507 -2.6314518 -0.5888945 -0.6901635 -0.4741212 1.9527425

bn1.weight f4 [500]
00000000: 7923 a540 7e58 5540 7409 9540 ff88 4b40
00000010: 2939 273e a369 5d3e 5b9c 3340 b17e bf3d
00000020: a316 5340 0f18 cb40 fab9 603e 08bc 3640
00000030: 898d 6140 b62b 11be a29c a140 db88 6140
00000040: 0370 56be a39c 8940 04cc 9f40 b9d5 8d3e
00000050: 522d 9440 6560 8140 7634 433f 2ae3 fabe
00000060: 6d97 ef3f 9146 7340 9db4 293f 3253 4040
00000070: ae9d ae40 0656 353e e48b b440 d1f0 7f40
00000080: 58d5 ab40 0c47 263f ec05 4d40 712c 7040
00000090: a9e3 9140 2899 d840 13ce 8240 8cf6 5440
000000a0: 0647 6140 8615 3c40 70ac 24be ad4e f0bd
000000b0: 7933 e33c 8202 54bf db22 7340 7832 813f
000000c0: 882e 5540 5669 b440 f95a ec3d 7c43 b240
000000d0: 282b 3c40 5879 8c40 bd53 5840 42bf 263e
000000e0: 3104 bb40 cf39 8940 4d6e 393f 2dab 9840
000000f0: e08c 5ebb deb4 a240 675d 6dbe 2fe8 ccbd
00000100: 197c 4e3f db2f e33e 9445 9e40 db14 e13c
00000110: abbf 8c40 ee20 6540 0739 c8be 2b39 9740
00000120: 669c 8540 60d2 093f 6ba4 9240 30dc 41bf
00000130: 4d07 24be 6b19 5340 9796 9040 9005 bf40
00000140: 6c48 8640 d600 3d3e ea1e a640 cc3a 8c40
00000150: 0d7b bcbe 8de3 06bd 45ef 4e40 fb41 013e
00000160: a331 a740 5395 0abf 1663 a640 3788 2240
00000170: f41c c3bc 27c0 7640 d131 3440 40b4 9e40
00000180: cc30 3640 55f1 bf40 9a48 9c40 13b3 b240
00000190: c7d9 9940 6798 5140 373f d9be d970 a040
000001a0: 7a15 f73f a88c 8a40 6c12 6640 1bdb 9940
000001b0: 6e4e 7e3f 0ebd a240 b152 4240 8b45 c1bd
000001c0: 01ba d03e 4720 36be e2a5 cebf 6b78 a540
000001d0: bba0 b640 e0a9 9940 f89d 4e40 d695 4740
000001e0: 74ef 5140 0231 ac40 4890 04bf 7934 be40
000001f0: 6cb7 c140 9ce7 b840 080f a840 e6ff 9640
00000200: 0326 a340 9767 8a40 49a9 49bf 5033 6240
00000210: daa0 323f c178 5d40 00db 2bbf 7bba 6440
00000220: 07f3 9d40 4604 1f40 b460 acc0 2b99 9d40
00000230: 2265 8840 bcbe a640 aee7 8640 f6b6 b640
00000240: bf76 3840 196d c740 f9c4 0b3e 5dde 15be
00000250: 5f8c 0440 9a75 1b3e 6d8a bc40 8602 dabe
00000260: 8fad 4740 e9f8 8340 b454 8240 fc9d 9640
00000270: 428d 57c0 9e5a 61bf dd7e 9d40 8d84 9340
00000280: d636 8940 3e07 ed3d c16e 9c40 f379 8f40
00000290: 3ed7 6240 033d 5540 ee03 0240 027e 5340
000002a0: 964e 0f40 e6cd 9140 4a65 4c40 a6d7 85be
000002b0: 3443 babf f875 61bd f1e8 5940 e1f2 9ebd
000002c0: c625 a240 e506 8340 cd97 1e3f ab6f c340
000002d0: 3b1c 253f 924b fc3e 4bd9 61be 8207 9abe
000002e0: 407d be40 64e7 b93e 8180 8b40 761e 323e
000002f0: 1907 9040 8d33 d0bd 8ea1 88be cbcc 7640
00000300: 817e 9340 93fe 12bd 483e 21bf 99e5 3340
00000310: 5e9e 233f 8d31 8e40 ce68 bb40 c5f4 8040
00000320: d931 81be bf94 4c40 9b10 3b40 26dc 9b40
00000330: 20fe 7cbd d689 e7be 4993 3a40 a0c0 5f40
00000340: 924c b33e 748e 6440 f462 b840 8aae ad40
00000350: b909 813d 5c0a bf3e cf67 4f40 757d ab40
00000360: 828a 9d40 6699 3d40 7334 5a3e a7a8 8440
00000370: 8303 b940 7416 cc3e 4959 2140 7cae 103e
00000380: 4518 8e3d 4cb4 a040 2015 9140 310e 473f
00000390: 5371 8a40 3526 7440 d181 3d3f b3f5 963e
000003a0: 6aef 14be 073a 233e b7d9 da3f b665 a840
000003b0: d392 9440 ddb7 5340 f320 9840 8735 09be
000003c0: 7a85 d13f 283d 08c0 18ee 1fbf f1ad 9540
000003d0: 14a5 fb3f 16c1 4e40 5883 4140 c342 5b40
000003e0: 1612 9140 2f57 0a40 cc87 b73d 8c99 a940
000003f0: 6af2 12be 3a7e c1bd 51b3 cfbd c780 9440
5.16058 3.3335261 4.657404 3.1802366 0.16330399 0.21622328 2.8064182 0.09350336
3.2982566 6.346687 0.21945944 2.8552265 3.5242636 -0.1417683 5.05037 3.523978
-0.20941167 4.3003707 4.9936543 0.2770212 4.6305323 4.043017 0.76251924 -0.49001437
1.8718086 3.801182 0.6629122 3.0050778 5.456748 0.17708597 5.6420765 3.9990733
5.369793 0.6495216 3.2034864 3.7527125 4.5590405 6.768696 4.0876555 3.327548
3.51996 2.9388137 -0.16081405 -0.11733756 0.027734505 -0.82816327 3.7990024 1.0093527
3.330965 5.6378584 0.11540789 5.570738 2.940134 4.3898125 3.380111 0.16283897
5.8442616 4.2883067 0.7243393 4.7708955 -0.003395848 5.0845785 -0.23180161 -0.10005223
0.8065811 0.44372448 4.9459934 0.027475765 4.398397 3.5801349 -0.39106008 4.7257285
4.1753416 0.5383663 4.5825706 -0.75726604 -0.1601841 3.2984264 4.5183825 5.969429
4.1963406 0.1845735 5.1912737 4.3821774 -0.3681263 -0.032931853 3.2333539 0.12622826
5.224809 -0.541341 5.1995955 2.539564 -0.023817517 3.855478 2.8155406 4.959503
2.8467283 5.9982095 4.8838625 5.5843596 4.807834 3.274927 -0.42431042 5.0137753
1.9303429 4.32967 3.5948744 4.8079963 0.99338424 5.085578 3.036297 -0.094370924
0.4076691 -0.1778575 -1.6144373 5.1709495 5.7071204 4.8019867 3.2283916 3.1185203
3.28024 5.3809824 -0.51782656 5.9439054 6.0536404 5.7782726 5.251835 4.7187376
5.09839 4.3251452 -0.78773934 3.5343819 0.6977669 3.4604952 -0.6713104 3.5738819
4.9359164 2.4846358 -5.3868046 4.9249473 4.2623453 5.210783 4.215781 5.709834
2.8822477 6.2320676 0.13649358 -0.14635606 2.0710676 0.1518158 5.8918977 -0.4258005
3.1199682 4.1241345 4.0728397 4.706785 -3.3679967 -0.88028896 4.9217362 4.6099305
4.287944 0.11573647 4.88852 4.4836364 3.5443873 3.3318489 2.0314898 3.304566
2.2391715 4.556384 3.1936822 -0.2614109 -1.4551759 -0.055044144 3.4048426 -0.07761169
5.067111 4.0945916 0.6195038 6.1073813 0.644962 0.49276406 -0.22055547 -0.30083853
5.9527893 0.3630935 4.3594365 0.17394432 4.5008664 -0.101660825 -0.26685756 3.8562496
4.6091924 -0.035887312 -0.6298566 2.8108885 0.63913524 4.4435487 5.8565435 4.029879
-0.25233343 3.1965787 2.9228885 4.8706236 -0.06176579 -0.45222348 2.9152396 3.496132
0.35019356 3.5711946 5.7620792 5.427556 0.063006826 0.3731259 3.240711 5.3590646
4.9231577 2.9624877 0.2130907 4.1455874 5.7816787 0.3986088 2.5210745 0.1412906
0.06938223 5.022009 4.5338287 0.7775603 4.3263335 3.814832 0.7402621 0.2948433
-0.14544454 0.15940104 1.7097691 5.262416 4.642923 3.3080971 4.754022 -0.13399325
1.6368859 -2.1287327 -0.6247268 4.677483 1.9659753 3.230535 3.0236416 3.4259498
4.5334578 2.1615713 0.08961448 5.2999935 -0.14350286 -0.09447904 -0.10141624 4.64072

bn1.bias f4 [500]
00000000: 2686 5ac0 125d 923f e99b 52c0 fbe2 9a3f
00000010: a75c 4ac0 3bec 39bf 0828 9f3f 2eaf 2741
00000020: 6a79 b03f 7b2a d340 d7ea 26bf 76f8 8a3f
00000030: 4db9 ab3f 19f4 8ebf 7fe0 55c0 3fe2 ab3f
00000040: b50f 80bf b205 b33f aac4 55c0 d369 67bf
00000050: b31a 53c0 e05d 38c0 2bd4 69c0 334e e7bf
00000060: 4b62 073f ee11 b93f 4a3d 9cc0 eace a03f
00000070: 156e 4cc0 a939 cdbf a999 87bf fd49 6ebf
00000080: 7efa 0640 b032 f5bf d5f1 9b3f 81aa a2be
00000090: cc4b 47c0 6a7d 8440 014b 3cc0 36ff a13f
000000a0: f53d b6bf d609 7c3f f7a9 01c0 610e 1dc0
000000b0: 1d53 0bc0 b3d8 3ec0 ae1d 913f 49a5 6bc0
000000c0: 7f20 933f 8021 8dbf 776e 76bf e58a 3c40
000000d0: fc18 bf3f cad5 49c0 6e86 a43f ea1e babf
000000e0: 5896 5dc0 62ca 44c0 f80a 5dc0 c50d 4ac0
000000f0: 4085 a641 b72c c33f 249d c6bf 7725 94be
00000100: fe68 72c0 e951 b041 c6c1 53c0 4b2b 24bf
00000110: 544f 9fbf 092c ae3f 29eb bfbf 1a20 48c0
00000120: 0cf5 3fc0 98b5 a3c0 2336 44c0 7da0 32c0
00000130: 9ccc 02bf b4ac a03f c0b4 9f3f dc58 5ec0
00000140: 8df4 a03f 13e8 21bf 8f97 54c0 12c9 4ec0
00000150: 8e27 a9bf 7c72 3e41 4068 b73f f23b 4abf
00000160: 163e 23bf 0b73 cebf ab28 5cc0 3432 3d3f
00000170: 6731 c0bd e568 ba3f 2f98 93bf d606 52c0
00000180: eca0 8a3f 6a58 e240 cbff 03c0 ab23 86bf
00000190: 7cd3 4dc0 0c8d 9f3f 1584 d0bf a9a1 56c0
000001a0: 6580 0b3f c16b 45c0 9d83 3abf 92b4 4ec0
000001b0: 90da 60c0 ef83 b53f d3cb 933f 0225 a6be
000001c0: 7801 40c0 fab2 ebbf 7e79 97c0 47fd 5ac0
000001d0: e19b 4fc0 a956 46c0 4c3c 9d3f 619a 883f
000001e0: a6a1 9f3f 5f49 81bf 171e 15c0 636b 5dc0
000001f0: f97a 61c0 703b 55c0 06f5 58c0 4405 4ac0
00000200: 3341 5ac0 8f90 46c0 9705 4ec0 552d ac3f
00000210: 7bce 02c0 899f a83f 14a4 0040 1421 bf3f
00000220: abe9 4bc0 94dd 5b3f 8d75 5ec0 ebd6 52c0
00000230: 612f 44c0 db9c e2be 1729 63c0 cec1 54c0
00000240: d35d 8c3f a44c 62c0 9043 99bf 1dc0 68bf
00000250: 78c3 173f 9231 18bf 7420 1abf d339 e6bf
00000260: 68e4 2b41 f5c8 3dc0 e2dc 3bc0 3c74 42c0
00000270: 3054 79c0 c1dd 4ec0 085d 01c0 143b 43c0
00000280: 6458 45c0 5ff6 0dbf a775 b7bf 8dd3 48c0
00000290: dd78 ac3f 9418 a23f 8b88 2b41 684e b93f
000002a0: 5049 5a3f a53a 4ec0 9fb8 9b3f 2a76 e3bf
000002b0: 4e55 c4c0 a7f7 c3be feb4 7d3f 12cb b5bf
000002c0: 8e91 56c0 b521 5fc0 046a 50c0 9979 63c0
000002d0: b9ff f8bf 330e d640 dd70 b6bf 253d 08c0
000002e0: b9c5 5dc0 d5c8 87c0 b6a5 3bc0 7d70 1bbf
000002f0: b13b f3bf 7ca7 85bf 7581 fcbf 6030 933f
00000300: b433 43c0 35e4 10bf ccac 25c0 b1bf 883f
00000310: 133b f3bf 542d 4cc0 bf2a 5cc0 d2c1 37c0
00000320: 3bfb bbbf fb57 cd3f d1d4 5abf ac40 4ec0
00000330: bbb1 c0be 8ed5 acbf 8b2a 8e3f d624 aa3f
00000340: 8c2c b9bf b3fd 843f 7d9c 56c0 84cc ff3f
00000350: 6b1f b9bf 225e b5bf d737 8e3f 8742 71bf
00000360: 4de3 53c0 c4bb 8e3f 2bf4 afbf ac08 3dc0
00000370: 5c34 59c0 1d4a 4cc0 e312 8f3f 058b 0cbf
00000380: 05a0 eebe f4fa 56c0 28b4 4ec0 1350 14c0
00000390: 4d20 47c0 6d67 c5bf e411 21c0 9848 98bf
000003a0: 8384 eabe 865a 0cbf de95 23be 5bce 5ec0
000003b0: 88a4 44c0 9ad6 7c3f bb88 4bc0 f6f9 c3be
000003c0: acae f03f f5f8 4040 9a9a 2640 3a04 57c0
000003d0: c5ab 42c0 8a00 b73f 5e2f c23f 37e4 a63f
000003e0: 74fb 3fc0 1282 673f 9ba1 14c0 c617 09c0
000003f0: 4683 06c0 af94 8bbe 5b3a cbbf d290 53c0
-3.4144378 1.1434653 -3.290766 1.2100519 -3.161905 -0.72626084 1.2434092 10.4802685
1.3787053 6.5989356 -0.6520209 1.0857074 1.3415924 -1.1168243 -3.3418272 1.342842
-1.0004793 1.3986113 -3.3401284 -0.9039585 -3.2985046 -2.8807297 -3.6535747 -1.807074
0.5288436 1.4458597 -4.8824816 1.2563145 -3.1942189 -1.6033221 -1.0593768 -0.9308165
2.1090388 -1.9156094 1.2183176 -0.3177071 -3.1140013 4.1403093 -2.9420779 1.2656009
-1.4237658 0.9845251 -2.0259988 -2.4540026 -2.1769478 -2.9819763 1.1337183 -3.6819632
1.1494292 -1.1025848 -0.96262306 2.9459774 1.49295 -3.1536736 1.2853525 -1.4540684
-3.4623013 -3.0748525 -3.4537945 -3.1570904 20.815063 1.5248021 -1.5516706 -0.28934833
-3.7876582 22.039995 -3.308702 -0.6412856 -1.2446084 1.3607188 -1.499364 -3.1269593
-2.9993315 -5.115917 -3.0658042 -2.7910454 -0.5109346 1.2552705 1.2477036 -3.4741735
1.2574631 -0.6324474 -3.3217504 -3.2310224 -1.3215196 11.90295 1.432869 -0.7899772
-0.6376661 -1.6128858 -3.4399822 0.7390473 -0.09384423 1.4563261 -1.1530818 -3.2816672
1.083036 7.0732927 -2.0624874 -1.0479635 -3.216033 1.2464919 -1.6290308 -3.353617
0.5449279 -3.0847018 -0.72857076 -3.2297711 -3.51334 1.4180888 1.1546577 -0.3245011
-3.0000896 -1.8413994 -4.7335806 -3.4217088 -3.243889 -3.0990393 1.2284026 1.0672113
1.2471206 -1.0100516 -2.3299615 -3.4596794 -3.5231307 -3.3317528 -3.389955 -3.1565714
-3.4102294 -3.1025732 -3.2190912 1.3451334 -2.0438526 1.3173686 2.0100145 1.493197
-3.186137 0.85884976 -3.4759247 -3.2943676 -3.0653918 -0.44260296 -3.549383 -3.324329
1.0966133 -3.5359278 -1.1973743 -0.9091814 0.59282637 -0.5945064 -0.6020577 -1.7986397
10.743263 -2.9653904 -2.9353566 -3.0383444 -3.8957634 -3.2322848 -2.0213032 -3.0504808
-3.08352 -0.5545406 -1.433278 -3.137912 1.3474385 1.2663751 10.720836 1.4477053
0.85268116 -3.2223294 1.2165717 -1.7770436 -6.135413 -0.3827488 0.991043 -1.4202597
-3.352634 -3.4864323 -3.2564707 -3.5542967 -1.945304 6.6892333 -1.4253193 -2.128732
-3.465193 -4.2432656 -2.9319892 -0.6071852 -1.9002591 -1.0441737 -1.9727007 1.1499138
-3.0500307 -0.56598216 -2.5886717 1.06835 -1.9002403 -3.1902666 -3.440109 -2.8712049
-1.4686044 1.6042475 -0.8548098 -3.2226973 -0.37635598 -1.3502672 1.1106733 1.3292491
-1.446672 1.0389923 -3.3533013 1.9984288 -1.4462713 -1.4169352 1.1110791 -0.9424214
-3.3107483 1.1151052 -1.3746389 -2.9536543 -3.3938208 -3.1920235 1.1177639 -0.54899627
-0.4660646 -3.359067 -3.2297459 -2.3173873 -3.1113465 -1.5422188 -2.516717 -1.1897154
-0.45804223 -0.5482563 -0.15975139 -3.481345 -3.0725422 0.98764956 -3.1802204 -0.38276643
1.8803306 3.0151951 2.6031861 -3.359633 -3.041734 1.429704 1.5170705 1.3038396
-2.9997225 0.90432847 -2.3223636 -2.142076 -2.1017623 -0.27261874 -1.5877184 -3.3057141

bn1.running_mean f4 [500]
00000000: 285a 8ac0 6c32 803f d795 cc40 331a 8640
00000010: b615 8abd 9fb5 c9be 4305 ad3f c7cf f8bc
00000020: f204 2340 699c f5bf a59e 50be 0279 c33f
00000030: 8c0a 38bd b0b5 8abe 4f50 793f 419e ca3c
00000040: 5298 78be 4ecc 0a3f 9521 8a40 d8b6 903e
00000050: c118 9fbf 1226 053f 5097 6240 5a34 663f
00000060: 1d47 513f 1988 ffbf ff43 3abf 9b2f a93f
00000070: 6318 b540 e65e a3bd 0e2f 04bf 25c3 59bd
00000080: a501 3ac0 0877 003f 910a c0bf e10b dc3d
00000090: 751b 2340 624c 2a3e 71de 65c0 8eea 48bd
000000a0: 5ded 17c0 c591 983f dd28 a2bc 46e8 20bf
000000b0: 097d 4abe b6a2 fdbd fda0 4e3f 472a af3f
000000c0: 9594 e9bf 17f5 40bf 78a4 28be 794a 69ba
000000d0: f532 883e 6194 7abf 9b2b 843f 2a32 483e
000000e0: 5f3d 0a40 3a25 7a3d 074f 8ebf 14a6 143f
000000f0: 4313 64bd fa82 c3bf 1032 f63c eaeb 23bf
00000100: 86d6 853f 8bdf 013e 03aa 683f 3196 293f
00000110: 3e3a 913f 3b9a 9640 bc6c 06be 8392 d83f
00000120: 1964 7f3f 9da9 48bf eab5 96bf d938 da3d
00000130: e0f9 47be 1be1 6f3f d427 0fc0 30d4 93bd
00000140: 6d81 6fc0 9336 f0bd c986 60bf 23db 5d40
00000150: a3c5 8c3e b149 b53e 1699 c23f bdb0 e23c
00000160: 7970 87bf ed03 0cbc 6e15 a740 f74c 833e
00000170: b09c 2fbf 0eec 4740 5e80 17be b590 c340
00000180: 39c4 aebe e7b2 4f3f aa9c 293f e780 6dbf
00000190: fe9b b4bf dcb0 0640 6245 7fbd c1d5 8f3d
000001a0: 6a52 e73d 3453 e53f cacc 94bf 0a81 8540
000001b0: b8e2 03bd 6ff5 9dbc 68b4 9b3f 74cb bcbe
000001c0: 01e7 3f3d c0f7 7d3d 55ed fe3e fdd0 dfbd
000001d0: 1dc9 66bf e9e7 493f db22 1dbf 3b45 adbe
000001e0: 7934 123f 93c1 89be eca5 173e 3c6a 1340
000001f0: 4440 acbf 19f8 4c40 2ec2 b640 2741 263e
00000200: 0e4b d43f 4325 c53e 9d52 83bb a7cf 2940
00000210: ef85 5b3f e077 3a3e 5a96 37bd a635 173d
00000220: 7901 2e40 d548 8c3f f335 a73f d2d4 99bf
00000230: 5715 a940 d656 e9bf 840b 7d3e 285a a140
00000240: 204f 7c3e 086c 54bf ffac c2bd 3ab3 ebbd
00000250: 379d cfbf 5d99 073f b1d0 c03f a883 a3be
00000260: b8f9 b4be 760e 773f 50b6 8040 db71 03c0
00000270: 64bb b2bf d165 f13d 2617 ab3c 7169 7040
00000280: 59bc 7540 f98e 273f 8b8c bbbf 8da0 f540
00000290: 3c54 b8bf de8d 5bbe 3b2a 4ebf a24f 0bbf
000002a0: 46f1 b8bc e187 4940 e965 f1bf de2e a4be
000002b0: 3554 bf3e d1ee eabe 6553 82bf 5cc4 953d
000002c0: a6a7 7f40 4c62 853f c275 cebd b0dc 00bf
000002d0: f09c 2b3f 077f 8ebf 75bd 87bb eb9b 883d
000002e0: 021e 9240 dea5 52be 0e97 91be e3fb 9bbe
000002f0: 5b69 27bf 1b7e c6be b300 90bd 4667 3e40
00000300: b24a f43e 856d db3d 1d85 d13c a93b 3e3f
00000310: fdd3 453f 809c 943e d36a 273f 319c 72bf
00000320: cf8c 1cbd 49b3 c1bf d936 44bf 69ae d440
00000330: ffd6 debe bdc5 b6bd 8fcc 1bbf 9374 26bf
00000340: 8aef 5c3e 36d7 16bf 2e49 b140 8cfd 3cbf
00000350: 4300 c23d 0d79 5e3e 1413 1abf 87cd d3bf
00000360: 165a a7be dc7a 17bf ba12 503f f05b bebf
00000370: b5eb 1540 8eb0 90bd ca9e 29bf b4f6 ec3e
00000380: cb25 99be 645e ac40 ae68 8440 50f7 053f
00000390: 19ef 30bf 7ddc 713f 24f0 173f 325d 563d
000003a0: 5bb4 1dbe 87b1 2b3f 43de 953e 08d5 6640
000003b0: 12e1 9f40 f0ff 74bd 664e 463e 91f6 f53e
000003c0: 6099 6a3e fbd1 b23e 00f2 6cbd 4d95 8dbf
000003d0: 49ab 8e3f ea71 973f bb85 28bf 0b13 cc3e
000003e0: 057c 6c3e 3806 913f c031 92be 314f 98bf
000003f0: 4aa5 da3d 78ba a1be eaba f23c 6fcc e43f
-4.3235054 1.0015388 6.393291 4.190698 -0.06742422 -0.39396378 1.3517231 -0.030372513
2.5471768 -1.9188358 -0.20373018 1.5271304 -0.044931933 -0.27091742 0.97388166 0.024733664
-0.24276856 0.54217994 4.3165994 0.282645 -1.2429429 0.52011216 3.5404854 0.8992363
0.81749135 -1.9963409 -0.72760004 1.3217653 5.659227 -0.07977085 -0.516343 -0.05316462
-2.9063504 0.5018163 -1.5003225 0.10744453 2.5485508 0.166307 -3.5917017 -0.049051814
-2.3738625 1.1919485 -0.019794876 -0.6285442 -0.1977426 -0.1238455 0.807144 1.3684777
-1.8248469 -0.7537398 -0.1646899 -0.0008899342 0.26601377 -0.9788266 1.0325807 0.19550386
2.1599958 0.06107066 -1.1117867 0.58065915 -0.055682432 -1.5274346 0.030053169 -0.6403185
1.0456092 0.12682931 0.9088442 0.662448 1.1345899 4.706327 -0.13127416 1.6919712
0.9976211 -0.7838381 -1.1774266 0.10655374 -0.19528913 0.9370286 -2.236806 -0.07218206
-3.7422745 -0.11729159 -0.87705666 3.4665 0.27494535 0.35407785 1.5202968 0.027672166
-1.0581199 -0.008545858 5.221366 0.25644657 -0.6859846 3.1237826 -0.14795062 6.1114144
-0.3413408 0.8113236 0.66254675 -0.92774814 -1.4110105 2.1045446 -0.062322028 0.07023192
0.11295016 1.7916017 -1.1624997 4.172002 -0.032198638 -0.01928207 1.2164431 -0.36873972
0.046851162 0.06200385 0.49790445 -0.10928533 -0.90150625 0.7886949 -0.6138131 -0.3384188
0.57111317 -0.26905498 0.14809388 2.303359 -1.3457112 3.2026427 5.7112036 0.16235791
1.6585405 0.3850499 -0.004007651 2.653299 0.8575124 0.18209791 -0.04482112 0.036916398
2.71884 1.0959727 1.3063339 -1.2018073 5.283855 -1.8229625 0.24711424 5.0422554
0.24639559 -0.8297734 -0.09505653 -0.11508794 -1.6219853 0.5296839 1.5063688 -0.31936383
-0.3534677 0.9650644 4.022255 -2.0538242 -1.3963437 0.11786998 0.020885061 3.7564356
3.8396208 0.65452534 -1.4652265 7.6758485 -1.4400706 -0.21440837 -0.8053319 -0.54418385
-0.022575986 3.1489184 -1.8859226 -0.32067007 0.37368932 -0.45885327 -1.01817 0.07312843
3.9946074 1.0420623 -0.10081054 -0.5033674 0.6703634 -1.1132516 -0.004142458 0.06670364
4.566163 -0.20571086 -0.28435558 -0.30465612 -0.65395135 -0.38768086 -0.07031383 2.9750533
0.47713238 0.107142486 0.025576169 0.74309784 0.77276593 0.2902565 0.65397376 -0.9476958
-0.038220223 -1.5132838 -0.7664619 6.6462903 -0.43523404 -0.08924434 -0.60859007 -0.6502163
0.21575752 -0.58922136 5.540183 -0.7382438 0.09472706 0.21725865 -0.6018536 -1.6547097
-0.32685918 -0.59171844 0.81278574 -1.4871807 2.3425114 -0.07064925 -0.6625792 0.4628197
-0.29911646 5.3865223 4.1377783 0.52330494 -0.69114834 0.94477063 0.593508 0.05233497
-0.15400831 0.6706776 0.29271135 3.6067524 4.9962244 -0.059814394 0.19365844 0.48039678
0.2291007 0.34925827 -0.057847977 -1.1061188 1.1146022 1.1831639 -0.65829057 0.3985828
0.23094185 1.1330023 -0.2855358 -1.1899167 0.10676058 -0.31587577 0.029630143 1.7874888

bn1.running_var f4 [500]
00000000: 3d54 f33e 52ab 6e3f 4056 573f b470 013f
00000010: caf8 b63d 7418 933d 97b2 173f 4386 b53d
00000020: 6138 173f 3941 aa3f 1e2f 8a3d 45de 2a3e
00000030: 0591 513f 2b2f 623d bda2 a23e 2228 dc3e
00000040: faa2 203a a687 fd3e acb7 433f 0081 883d
00000050: 3283 b23e c810 133e afdb 153e 6a5d 233a
00000060: b91c be3e cc95 ac3d c6e6 fe3d 8359 473f
00000070: aa7c 6f3f c58d 413d 4319 e03e 0bc1 833f
00000080: 5a99 ca3f 60be 3f3e 8455 4f3f 89e9 e43e
00000090: 2612 0c3f 7ab2 213f 5711 e63e ec46 373f
000000a0: 5a13 c03e c85c 5e3f abd8 5b3c 5a68 8f3d
000000b0: e340 c83d 8250 8e3d 01fd 943f 9981 f43d
000000c0: 6f8a 3a3f 0517 4b3f f76a 463d b1b7 b63f
000000d0: 37e0 d33d a976 4f3e fe18 343f 3a1d 963d
000000e0: c1d7 e43d 5425 de3d 8309 873d ed08 be3e
000000f0: c350 f83d e509 e73f f621 943d 800a 293e
00000100: e41e 803d 980b f23c f561 593f cf65 8a3d
00000110: 34a2 973f 2ccd 093f a070 963d ce81 c43e
00000120: d05d 1b3e 3c1b 703d 56f7 8e3e 1903 8e3d
00000130: e0ed bf3d c29d 493f 4394 b33f 8e69 9e3f
00000140: 836e 323f cec0 473d ee18 903e 0a4e bd3e
00000150: 5c6b 373d 97b1 493f 5d8a 173f dc72 2d3d
00000160: 537e b23f 8f52 623d 163c 593e e920 8e3e
00000170: 6691 2a3e 1b2f 833f 4fe6 9a3d 1417 f13e
00000180: 9136 233f 0a00 873e 05e7 ac3f e2e6 823f
00000190: 906f 0c3f adef 683e 0235 933d c5c3 5a3f
000001a0: 11bf d93d 908c 2e3f ec56 ea3f 9414 aa3d
000001b0: 933e 883d 45ce b13f c878 5b3e 7dcc d43d
000001c0: 74bf aa3d e272 823d 2e3e 603e fb0b ca3d
000001d0: 819d b33d bd22 d83d 51e1 3a3f 0741 613f
000001e0: f3e1 1a3f 6948 913f cdb4 8c3d 289f 343f
000001f0: c67e 4c3e add1 c03d 7a64 893f 50ee 123e
00000200: 6ffd 6d3f f29f 743e 434c 783d f652 8b3f
00000210: 3a88 943d 4c3b 583f 161e 583d 46e7 003f
00000220: 8bae 053f 45f3 d73e 8a06 cf3f cb41 563e
00000230: 1dc4 3b3f c838 be3f 9e2f c33d 3db2 703f
00000240: 44ac 993e 20e6 bf3d 69ea 9f3d 7135 4d3d
00000250: a7b1 1d3f db7b 1c3d 9d1b e43e c238 933d
00000260: 933b be3d 8143 f93e 82a3 d83e 6da2 fc3e
00000270: 7872 883d 4ad5 963d ccd1 d03f 9218 1b3f
00000280: 5d32 273f 739c 873d 5469 8d3f 6d5d b13e
00000290: 8303 c63e eb8e 623f 4e14 1c40 8cae 4e3e
000002a0: a080 2e3f 4fc1 1b3f fae0 303f 9039 a13d
000002b0: 9f18 463d 7171 c33d 1dda 653f 6f6d 643d
000002c0: cefe 9f3e 6bcb 3c3e 7f3b 223e 6cde b13d
000002d0: 30bf 8d3e c3a5 de3f a36e 783d aab5 9c3d
000002e0: 9830 bd3d 1183 8a3a 869d a23e fcde 843d
000002f0: 0298 563e 6465 9c3d 0f3d eb3d be27 d73d
00000300: 482a 0b3f bd0a 543d 1733 8d3d d710 623f
00000310: 2f07 833d 4ea0 1b3f 2a40 d33d 6d0b 023e
00000320: 7b89 7b3d 2983 3e3f ef66 283f 039a 3c3f
00000330: 55bb e53d 5417 913d cf3d 4a3f 3711 623f
00000340: a826 3a3d 7f31 683f d418 b23e d072 853f
00000350: 5c20 883d c596 a13d 0bfb 393f 3755 963f
00000360: d73a 1e3e 9198 4f3f 043b d63d 26ba 153f
00000370: dc12 403f 1617 a73d fe0b 273f 97f1 473c
00000380: 0eb4 893d fd1d 853f 4f55 e13e fd82 5f3e
00000390: d8ed 333f 0d5b b83e a2b1 8d3c eeea a03d
000003a0: ea47 b13d 5b98 803d 4664 593f 6510 573e
000003b0: 03e3 243f 5169 c13d 1ff5 413f a993 8e3d
000003c0: d795 893d b65b 473f 666b be3c 9d8d e13e
000003d0: 67f3 7f3f 1018 3f3f 6d94 4e3f cf13 313e
000003e0: 5f70 3b3f 5ff9 163f 0f32 ec3d 0a2f c33f
000003f0: 1c7b 9c3d 37ed d63d ffdb 4a3d e523 573f
0.47525206 0.93230164 0.8411598 0.50562596 0.089341715 0.071823984 0.5925688 0.08863499
0.590704 1.3301154 0.06747268 0.16686352 0.8186191 0.055220764 0.31764784 0.4299937
0.0006127801 0.49517554 0.76452136 0.0666523 0.3486572 0.1436187 0.14634584 0.00062318763
0.3713129 0.08427009 0.1244636 0.7787096 0.935496 0.047254343 0.43769273 1.0293287
1.5828049 0.18724966 0.8098986 0.44709423 0.5471519 0.6316296 0.44935104 0.71592593
0.37514764 0.8686032 0.013418357 0.07002325 0.09778001 0.069489494 1.1639711 0.11938781
0.7286748 0.79332 0.048441853 1.4274808 0.103455 0.20260109 0.70350635 0.07329793
0.11173964 0.108469635 0.06593611 0.37116185 0.12124779 1.8049895 0.0723304 0.16507912
0.06255892 0.029546544 0.84915096 0.067577 1.1846375 0.5382869 0.073457 0.38380283
0.15172505 0.058619723 0.27923077 0.069341846 0.09371543 0.78756344 1.4029621 1.2375963
0.6969988 0.048767857 0.2814402 0.36973602 0.04478012 0.78786606 0.591955 0.042345867
1.3944801 0.055254515 0.21214327 0.27759483 0.16657028 1.024875 0.07563459 0.4708792
0.63755137 0.26367217 1.3508002 1.022671 0.5485773 0.22747679 0.07187845 0.8545497
0.10632146 0.6818323 1.8307776 0.08304706 0.0665256 1.3891073 0.21432793 0.103905655
0.08337298 0.063695684 0.2189872 0.09865566 0.08770276 0.10553501 0.73000056 0.8798985
0.6050102 1.1350223 0.068704225 0.70555353 0.19970235 0.094149925 1.0733788 0.14348722
0.92964834 0.2388914 0.060619604 1.0884693 0.07252546 0.8446548 0.052763067 0.50352895
0.52219456 0.42177787 1.617387 0.20923536 0.7334612 1.4861078 0.09530567 0.9402197
0.3001424 0.09370065 0.07808382 0.050099794 0.615992 0.038204055 0.44552317 0.0718856
0.09288707 0.48684314 0.42312247 0.4934267 0.06662458 0.073649004 1.6314025 0.60584366
0.65311223 0.06621637 1.1047769 0.3464159 0.38674554 0.88499326 2.4387393 0.20183772
0.68165016 0.6084184 0.69093287 0.07872307 0.048363324 0.095431216 0.8978594 0.055768427
0.31249088 0.18436973 0.15843008 0.08685002 0.27684927 1.7394336 0.060652386 0.07651837
0.09237784 0.0010567625 0.31760806 0.064878434 0.20956424 0.07636526 0.114862554 0.10505627
0.5436139 0.051768053 0.0689451 0.88306946 0.063978545 0.6079148 0.10314973 0.12699671
0.06141041 0.74418885 0.65782064 0.73672503 0.112173714 0.070845276 0.7900056 0.8830752
0.04544702 0.90700525 0.34784567 1.0425663 0.06646797 0.07890085 0.72648686 1.1744756
0.15452133 0.8109217 0.10460475 0.58487165 0.7502878 0.081587 0.65252674 0.012203596
0.06723796 1.0399777 0.44010398 0.21827312 0.70284796 0.36006966 0.017296616 0.07857309
0.08656295 0.062790595 0.8491863 0.21002348 0.6440889 0.09443916 0.7576465 0.06961758
0.06718033 0.77874315 0.023244571 0.44053355 0.9998078 0.7464609 0.8069523 0.17292713
0.7321834 0.5897426 0.115329854 1.524873 0.07640669 0.10494464 0.04952621 0.84039146

conv2.bias f4 [250]
00000000: 757f 0c3d 97e1 d4bb 53df 60be 4cc4 a3bd
00000010: 2172 963c 5358 273d 44e5 1a3e eca6 243e
00000020: 3312 72bb 5d56 783c 808e 02bd 779c ef3b
00000030: 64e0 d5bb 3d3c a6b9 3ffe 9c3c bc59 34bd
00000040: e3cb 423d 3426 1a3e b7ba 35be 15aa 623d
00000050: 031d ee3d c904 b4bd 0acc 453c 3aa2 7cbc
00000060: 71cc b3bb 6962 073d 7a20 fabd cfc0 093c
00000070: 88f3 de3d dee2 65bd 50a2 3a3d 9df4 40bd
00000080: 5316 0cbd 343d 01bc 211b 1cbd 687e 09bd
00000090: 4820 e03c dc78 44bd 3e2f 8fbd 519a efbb
000000a0: dbd2 a1bd bf9c 9b3d 210e 87bd 3c7a c23d
000000b0: 233c 5cbd 522c d83d 7626 9c3b ad15 cabd
000000c0: 5a51 4c3c fdd3 793d 1d8e b73d ac0d 193c
000000d0: 5db1 9a3d f46f 453d 66d7 e63c d672 1fbd
000000e0: cbce e93c dcee bc3e 161e 5d3d 6cff 853a
000000f0: 8509 a83d b0a4 663c 28a3 5d3c 84e3 3ebd
00000100: 0f8c a4bd aef2 c6bc 4844 efbd 54a6 0d3e
00000110: f008 f9bd 330f 1cbd 50fc 803c bce1 0dbd
00000120: d41f 9f3b 5883 153d fcde 4cbd 06ba 07be
00000130: 58a2 75bd c180 e8bc 65ae 673d 847e 31bc
00000140: fb7d 2f3e 28c8 4a3d 96aa ad3d 1675 513d
00000150: d301 83bd a212 013c cb6d 3cbc df73 46bc
00000160: 62fa 273e 09f3 693e 6774 c0bd 2a14 a53e
00000170: 15f4 55bc dd49 f23c 4eca 74bc fcac fcbc
00000180: 43ef 59bb 9079 bfbd 43ae 913b 06fd fabc
00000190: 6eb1 c6bb 2b95 f2bb 60a0 81ba 054a 18bb
000001a0: d1ad cb3c 050c 95bc f2d7 aabc 2384 bdbd
000001b0: 68e1 02bd a760 44be a077 1cbd 6b4a 6b3d
000001c0: 1e82 13be b2c9 38be e6b6 5ebe 7671 f93c
000001d0: febb 5cbd d205 1cbd ac6c 7dbd 7cc5 05bd
000001e0: c483 7f3c 8497 f13c a5c9 333d 1cfe b83c
000001f0: 0455 863d d8d6 a63c 62de a83c 054c cb3d
00000200: 3c75 74bc f0a2 023e 115e 923b 5aea 9b3c
00000210: 4f24 11b9 4c2f 80bd be38 05be f7e1 18be
00000220: bc73 74be 593a 83bd 8200 66bb f4a2 8b3b
00000230: cb70 ccbd a6e5 723c 7683 24be 158b 6c3c
00000240: 2c80 31bd 8042 b7bc a746 30be 5cb6 c8bd
00000250: ea19 ad3d 41d1 a1bd 8163 f0bb af44 28bc
00000260: b804 ed3b 6c63 423c 5ce3 3bbd d71a 733d
00000270: 387f 473c 5f25 32bc 31c8 203d 758a 5ebd
00000280: 8fc9 1fbd 467b c6bc a9f0 063c 1c7c 033e
00000290: fea5 dfba b3cb 543c 862e 3cbe b264 3cbe
000002a0: 5375 713e 9365 4c3d 1bfd 69bc e6b1 75bd
000002b0: 4b19 623b 1c60 053e a802 f1bd 3b96 023d
000002c0: 9a77 23bf 31b0 16bd 9f4c a7bc 17cb 83bb
000002d0: a465 8fbc a63d 84ba 0f57 02bd 82fb 86bc
000002e0: 8d01 6a3c 4ae4 afbd 2766 b93c 0889 27bd
000002f0: d72a e4bc ee9d 4e3d bba3 ef3c 7a02 81bc
00000300: 1e4a 003d 6463 05be de84 043e f8bc ff3d
00000310: 92b8 1c3d 56cd 2d3d e332 303d a4d1 b63b
00000320: 1c04 06bc 0e8a 62bd 178d 8cbd b80e 2ebc
00000330: 80a2 7cbd 0bf8 5fbd a1a4 b9bb 4804 0e3b
00000340: cdcf 01be 9729 353d bb58 37bc 6a1d 2fbc
00000350: 285e 443d 4797 543b c4d6 efbd 1d7d e23c
00000360: 0f4b c8bc ced4 0bbc 9391 d0bd 9394 5abd
00000370: 0f5a 52bd 27f6 98bc acbc 013c 6c09 5bbe
00000380: 30a9 4abd 64b1 883d 5fd4 1fbd 7e31 88bc
00000390: 59f7 c1bd dbe5 92bb 6b99 d8bc cdc5 01be
000003a0: 61a5 4a3e 7ffc a63c 07b3 a0bc 6ebb c6bd
000003b0: 864f ad3d 97db 1ebd 4616 a33c b4f5 40bd
000003c0: 350b ddbc 597a ebbd 1739 96be 2e3f 20bd
000003d0: f7fe e53c fe57 c43d 8ee7 e2be 894d 59bd
000003e0: 4b90 11be 588f c6bb
0.03430124 -0.006496619 -0.21960191 -0.07996425 0.018364968 0.040855717 0.1512652 0.160793
-0.0036937117 0.015157309 -0.03187418 0.0073123532 -0.0065269936 -0.00031706868 0.019164203 -0.04403089
0.047557723 0.15053636 -0.17747007 0.055337984 0.11626627 -0.08789975 0.0120725725 -0.015419537
-0.005487018 0.033052836 -0.12213226 0.008407786 0.10886294 -0.05612456 0.04556495 -0.04710828
-0.034200978 -0.007888127 -0.03811181 -0.033567816 0.027359143 -0.047966823 -0.069914326 -0.007312097
-0.079015456 0.07598256 -0.06594492 0.094959706 -0.05376829 0.105553284 0.004765327 -0.098674156
0.012470568 0.060993183 0.08962653 0.009341639 0.075533606 0.04820247 0.028178882 -0.038927875
0.02854099 0.36900985 0.05398377 0.0010223216 0.08204941 0.0140773505 0.013527669 -0.046603695
-0.080345266 -0.02428564 -0.116829455 0.1383298 -0.12159908 -0.038100433 0.015745312 -0.034639105
0.004856089 0.036502212 -0.050017342 -0.13254556 -0.059969276 -0.028381707 0.0565628 -0.010833386
0.17137901 0.04950729 0.08479802 0.051137052 -0.06396832 0.007877978 -0.011500786 -0.012112587
0.16404107 0.22846617 -0.09397202 0.32241946 -0.013058682 0.029576236 -0.014940811 -0.030844204
-0.0033254183 -0.09349358 0.0044458224 -0.03063823 -0.0060636317 -0.007403036 -0.0009889714 -0.0023237478
0.024863156 -0.018194208 -0.020854924 -0.09253719 -0.031953245 -0.19177495 -0.03820002 0.057444017
-0.14405105 -0.1804569 -0.21749458 0.03044961 -0.05389022 -0.03809149 -0.061871216 -0.03265904
0.01559538 0.029491194 0.043893475 0.022582106 0.06559184 0.020366117 0.020613853 0.09926609
-0.014920529 0.12757468 0.00446678 0.019032646 -0.00013841804 -0.06259021 -0.13009927 -0.14929949
-0.23872274 -0.06407613 -0.0035095518 0.004261369 -0.09982451 0.01482526 -0.16065773 0.014437457
-0.043335125 -0.022370577 -0.17214452 -0.09800407 0.08452208 -0.0790124 -0.0073360805 -0.010270282
0.0072332285 0.011864524 -0.045871124 0.05935177 0.012176327 -0.010873168 0.039253417 -0.05433126
-0.03901058 -0.024228703 0.008236089 0.12840313 -0.0017063019 0.012988019 -0.18377122 -0.18397787
0.23579912 0.049901556 -0.014281536 -0.05998411 0.003449994 0.13024944 -0.11768085 0.031881552
-0.6385437 -0.036789123 -0.020422278 -0.004022013 -0.01750452 -0.0010089173 -0.031821307 -0.01647735
0.014282596 -0.085884646 0.022631718 -0.040902168 -0.027852459 0.050443582 0.029252877 -0.015748251
0.031320684 -0.13026196 0.1294131 0.12487215 0.038261957 0.04243215 0.04301728 0.0055791903
-0.008179691 -0.05530744 -0.06862848 -0.010623626 -0.06167841 -0.05467991 -0.0056653772 0.0021670032
-0.12676926 0.044229116 -0.011190589 -0.010688165 0.047941357 0.00324388 -0.11710885 0.02764755
-0.024449853 -0.008534623 -0.10184016 -0.053364348 -0.051355418 -0.018672062 0.007918518 -0.21390313
-0.049477756 0.066744596 -0.039020892 -0.016625162 -0.09471006 -0.0044829673 -0.026440343 -0.12673111
0.1978965 0.020384071 -0.019616617 -0.09703718 0.084624335 -0.038783636 0.019908082 -0.04710932
-0.026982883 -0.11497945 -0.2934043 -0.039122753 0.028075678 0.09587096 -0.44317287 -0.05305246
-0.142152 -0.0060595684

conv2.lin.weight f4 [250, 500]
00000000: 5ee7 4dbf 27d6 d8bd 24c4 40bf 1223 0fbe
00000010: ad51 42bf c27e 5d3e 990f 58bd 9cc9 a03e
00000020: b324 48be 3da9 5bbf cd95 853e c772 3ebe
00000030: 4b2c 08be b3b9 a23e 4d2b 6cbf 2728 c4bd
00000040: 601a 9a3e 71b8 34be 7256 45bf 361d 4e3e
00000050: f4ff 6cbf 8ee9 4dbf bef2 7b3e 0d94 8c3e
00000060: ba05 80be 6d0a 85be ea16 8a3e 3824 4ebd
00000070: cd44 55bf 51a1 a03e 8bd7 58bf ae56 35bf
00000080: 9c8a 40bf 056e 45bf 2708 c9bd 8a5c 59bf
00000090: 58e3 4ebf b1e1 55bf 131c 44bf ccab 33bd
000000a0: 051f 3cbf 8774 e5bd 5da5 753e 72e6 52bf
000000b0: 81ea 42bf e050 3abf 02b4 f3bd c4a8 103f
000000c0: 8bfd 2ebe 0057 4dbf 0d0a 8a3e f744 38bf
000000d0: 6590 46bd 6910 61bf b0e2 a4bc ebfe 523d
000000e0: b52d 2dbf 8454 54bf b81a 863d 7356 52bf
000000f0: 529a 3e3e 8362 2fbf 859e 673e 698f 51bf
00000100: 61d7 793e 00ee 053f 7cac 58bf 27e4 0e3f
00000110: 5ea4 51bf 0f81 b1bc f180 393e 9be5 52bf
00000120: 66bd 46bf 4d32 4d3e 77e9 49bf dcbc 29bf
00000130: ebd3 5dbf 021c 31be 70de 44bf c912 61bf
00000140: ae87 fdbd baf3 aa3e 036f 62bf 7f1d 5ebf
00000150: 01bf 503e fe15 9b3e f2ec 1cbd f0bb 203e
00000160: 2c09 50bf e298 433e ae17 6abf f078 42bd
00000170: a583 4ebf 89d8 93bd 2885 5bbf c013 5abf
00000180: 37e5 0fbe 3971 64bf c40d 46bf 7085 33bf
00000190: 429f 52bf b08c 01be fa30 483e 1e32 65bf
000001a0: a00d 80be ac1b 47bf 5d90 4bbf 9371 69bf
000001b0: 992f 8e3e 3c39 30bf d214 05be 0af9 59bf
000001c0: 09a5 51bf b751 953e d397 40bf 2395 41bf
000001d0: 7610 49bf e87c 57bf 0449 2cbd 9efa e3bd
000001e0: 3369 03be 6cda 5cbf 39b4 30bf ec3a 63bf
000001f0: 3f19 68bf 7606 58bf 5d16 71bf be7c 6abf
00000200: 2be2 70bf e867 5abf 6412 993e 82c4 d1bc
00000210: b7fd 36bf 974f f0bd 20fb 0b3f 1219 16be
00000220: b848 50bf 3c89 44be b2e4 4ebf 77f3 6dbf
00000230: b734 44bf 49ab 3abf 2737 58bf 3527 4dbf
00000240: b9b7 efbd 04c6 41bf 4ea6 aa3d 42f6 543e
00000250: dbf7 ae3c c077 303e 609b 4dbf 4398 833e
00000260: bfce 51bf c91d 6cbf 3274 47bf 2b08 6ebf
00000270: 26c2 44bf 436c 323e 7e9f 30bf 080c 4cbf
00000280: b937 43bf fb8f aa3e c96f 4ebf d812 56bf
00000290: 60d8 44be ac12 33be 86f3 443e 2cb8 35bd
000002a0: 3f17 acbd a726 61bf 751e f8bd 828f 44be
000002b0: 3519 55bf db30 3bbf 061b 0b3c 46b9 683e
000002c0: 9f62 51bf 3816 5ebf d62a a63e 2ff9 37bf
000002d0: 71e7 4dbf 8c17 493e 400f 4c3e d89a 2a3e
000002e0: d3f4 29bf 7b31 493e 466f 64bf b7c8 9e3e
000002f0: d727 51bf 2cbd 223e 21c7 37bf e3b4 93be
00000300: feb1 5cbf 7391 9b3e 1f8c 42bf 7081 c4bd
00000310: e604 35bf 847b 4cbf 9d36 30bf 7a1a 4fbf
00000320: 6da9 3a3e 5180 1dbe db08 41bf 0cac 68bf
00000330: 169e 5fbf 3382 8d3e 7ff4 f1bd 202f ccbd
00000340: f8df 583e 734d c9bd 8cf0 61bf f60a 43bf
00000350: d2f0 8e3e b4a3 2fbe 6498 7cbd 3bda 3bbf
00000360: 321f 43bf 8a3d 39bd 70a9 3fbf bc4e 61bf
00000370: ad34 48bf 2c09 62bf b342 0bbe e9ee 803e
00000380: 417b e13e 5441 47bf aed5 45bf 9c42 51bf
00000390: 85b3 54bf 18b2 41bf 11b6 3fbf 4e99 cabd
000003a0: 5647 5fbf 505d 363e 6420 33bf f9be 53bf
000003b0: b82a 5abf 5af1 8bbe 5a8b 68bf 8f7f 3bbf
000003c0: 594f 5cbf 56e9 2bbe 0025 8f3e f73c 42bf
000003d0: 22f5 3fbf 2490 05be c3d0 2cbe a10d debd
000003e0: bb60 58bf e000 f4bc 9198 40bf 497c 4dbf
000003f0: 2d49 223e 91d5 50bf 7cd6 843e 6db6 4ebf
-0.80431163 -0.10587721 -0.75299287 -0.13978222 -0.7590588 0.21630386 -0.05274925 0.31403816
-0.1954525 -0.8580511 0.2609085 -0.18598472 -0.13298146 0.31782302 -0.9225357 -0.09577971
0.30098248 -0.17648484 -0.7708503 0.2012833 -0.92578053 -0.804345 0.24604318 0.27456704
-0.2500437 -0.25984517 0.26970607 -0.05032751 -0.83308107 0.31373075 -0.8470389 -0.7083539
-0.752115 -0.77121 -0.09816008 -0.8490683 -0.8081565 -0.835475 -0.7660534 -0.04386501
-0.7348483 -0.112038665 0.23988862 -0.8238288 -0.76139075 -0.72779655 -0.11899568 0.56507516
-0.17088906 -0.80210876 0.26960793 -0.7198023 -0.04847755 -0.87915665 -0.020127624 0.05151264
-0.6764787 -0.8294146 0.06548065 -0.8216316 0.18613556 -0.6850969 0.22619064 -0.8185945
0.24398567 0.52316284 -0.8463819 0.5581688 -0.8189143 -0.021667985 0.18115593 -0.823816
-0.7763275 0.2003872 -0.78871864 -0.663038 -0.86651486 -0.1729584 -0.7690191 -0.8791929
-0.123793945 0.33389074 -0.8845064 -0.8676376 0.20385362 0.30290216 -0.038311906 0.15696692
-0.81263995 0.19101289 -0.9144238 -0.047478616 -0.80669624 -0.07219035 -0.85750055 -0.85186386
-0.14052282 -0.89235264 -0.77364755 -0.70125484 -0.8227426 -0.12651324 0.19549933 -0.895296
-0.25010395 -0.777766 -0.79517156 -0.91188926 0.2777069 -0.6883733 -0.12996224 -0.8514563
-0.8189245 0.29163906 -0.75231665 -0.7561819 -0.7854074 -0.84174967 -0.04206182 -0.11131786
-0.12833099 -0.86270785 -0.69025 -0.8876178 -0.9066352 -0.8438486 -0.9417475 -0.9159659
-0.94095105 -0.853148 0.29896843 -0.025606398 -0.7148089 -0.117339306 0.5468006 -0.14658001
-0.8136096 -0.19192976 -0.8081771 -0.9294962 -0.76642936 -0.7291761 -0.84459156 -0.8013795
-0.11704964 -0.7569277 0.08332501 0.20797065 0.021358421 0.17233181 -0.8031521 0.25702104
-0.81956095 -0.9223295 -0.77911675 -0.92981213 -0.76858747 0.17424111 -0.68993366 -0.7970586
-0.762569 0.33312973 -0.8063932 -0.83622503 -0.19223166 -0.17487592 0.19233522 -0.044365093
-0.08402871 -0.87949604 -0.12115184 -0.19195369 -0.8324159 -0.7312142 0.00849033 0.22726926
-0.8179111 -0.86752653 0.32454556 -0.718646 -0.80431277 0.19637889 0.19927692 0.1666063
-0.663892 0.19647782 -0.8923229 0.31012508 -0.81701416 0.15892476 -0.7178822 -0.28848943
-0.86209095 0.30384406 -0.7599506 -0.09595001 -0.707106 -0.7987597 -0.68833333 -0.80899775
0.18228693 -0.1538098 -0.7540414 -0.9088752 -0.87350595 0.27638397 -0.11814212 -0.09969926
0.21179187 -0.098292254 -0.8825767 -0.761886 0.27918106 -0.17152292 -0.06166877 -0.7337987
-0.76219475 -0.045224704 -0.74867916 -0.88010764 -0.78205377 -0.88295245 -0.13599662 0.25182274
0.44039348 -0.7783406 -0.77279174 -0.8174226 -0.83086425 -0.75662374 -0.74887186 -0.09892522
-0.87218225 0.17809033 -0.699713 -0.82713276 -0.85221434 -0.27332574 -0.90837634 -0.73241514
-0.86058575 -0.1678823 0.27957916 -0.75874275 -0.7498342 -0.13043267 -0.16876511 -0.10842443
-0.845226 -0.029785573 -0.752328 -0.8026777 0.15848227 -0.81575876 0.2594489 -0.8074711
