Eigen-GCN-model.pth (torch, 642464 bytes, 20 tensors)

conv1.bias f4 [500]
0.25547725 0.15936287 -0.03298591 0.1901025 0.58174026 0.27158 -0.3401222 0.5484501
0.5209453 0.50408465 0.24892059 -0.33068177 -0.1318033 -0.10646084 0.32331428 0.21253464
-0.17690837 0.8892681 0.16254467 -0.25926605 -0.25888094 0.64550006 0.40577897 -0.12836146
0.07292532 0.47286204 0.5805822 -0.4089336 -0.20637605 0.18273067 0.11951801 0.046013195
-0.19855362 0.09679849 -0.2907381 -0.5122604 0.25445265 0.71276987 -0.6409767 -0.30720678
-0.10390557 -0.3210404 0.5926525 0.44792202 -0.2326476 0.1695309 0.1293169 1.067496
1.0085335 0.5185819 1.2920808 -0.72999495 0.22994037 -0.20207696 0.24334058 -0.019082583
-0.24546304 -0.5835459 0.47073993 0.04452885 -0.16943577 0.1409511 -0.4886415 -0.15116817
0.22359821 0.33984783 -0.35054114 0.3114191 -0.24262218 -0.1873936 0.045020778 0.7760269
-0.00999508 0.47357735 0.14271308 0.076923005 -0.03718207 -0.10277402 -1.0409228 0.3185822
-0.47824904 0.010894103 0.324653 0.24002272 -0.2520604 -0.09353487 -0.43063992 0.42770174
-0.11917606 0.21544899 -0.19018069 0.70807534 0.63708913 0.3479663 0.39007598 -0.5061841
-0.37051934 0.64336324 -0.01588046 0.1722217 0.07500782 -0.30877656 1.3774271 0.92283005
0.9339846 -0.046901863 -0.33579844 0.25318396 0.6165101 0.28223366 -0.24490342 0.32794905
0.06824262 -0.03939679 0.39090282 0.16454025 -1.0602169 0.17925665 0.44405147 0.9540034
0.28978008 0.6952042 -0.33161116 0.07256132 -0.4206911 0.55950034 1.1011481 0.39553562
0.4598416 -0.32887334 0.20382985 0.22522235 0.21683232 -0.02300902 -0.18875434 0.4188835
-0.3189135 0.30676538 0.2747127 0.2323404 -0.46904406 0.5990749 -0.9739404 -0.12402093
0.14811161 0.35530025 -0.013158624 0.13617435 1.8114568 0.21239565 -0.17940088 -0.27847874
0.42710757 0.58431387 0.33667856 -0.12572648 -0.043817397 0.22943686 -0.44756514 -0.019338565
0.43469808 -0.34974715 -0.38509405 -0.18932076 0.13250771 -0.28601947 -0.032793496 -0.6505823
0.036749776 -0.19488607 -0.29010272 -0.109902486 -0.24365994 0.41862518 0.3513313 -0.26040375
0.4735702 0.59266275 0.007938469 0.7278691 0.22256587 -0.2311878 0.24954027 0.1339805
0.7204213 -0.026892515 0.34680903 -0.1316145 0.114385195 0.18843962 0.03735793 1.0793307
0.08225439 0.14964592 -0.118001096 0.20113428 0.29902852 0.7834153 0.5117117 0.33820418
0.32116523 -0.10675697 0.63956034 0.017983967 -0.056536123 0.63428235 -0.06615966 0.8007128
-0.28741318 -0.10879913 0.04540092 0.052700885 0.46716526 0.09487316 -0.30057073 0.40006107
-0.07577344 -0.48831967 -0.6313739 -0.31950682 -0.5379721 0.34257615 -0.8720652 -0.033657532
0.20562953 0.3295885 0.2149288 0.26912093 1.1008924 -0.9863904 0.56926495 0.43371117
0.1775365 0.68131185 -0.1831537 0.60965145 0.75738466 -0.7852695 0.3690433 0.21133773
-0.022545792 0.19037227 -0.22438379 0.3694166 0.029232655 -0.091214605 -0.014779448 0.12241877
0.4405319 0.4261185 0.4143038 0.28395978 0.59189916 0.32461694 0.05403879 0.6457073
00000000: eacd 823e 0530 233e 3c1c 07bd 3baa 423e
00000010: eeec 143f 890c 8b3e 7f24 aebe 3a67 0c3f
00000020: ac5c 053f b10b 013f 0ae5 7e3e 1f4f a9be
00000030: 72f7 06be 2408 dabd 7389 a53e aea2 593e
00000040: 7827 35be 13a7 633f 1c72 263e 85be 84be
00000050: 0b8c 84be 7e3f 253f 43c2 cf3e 3071 03be
00000060: df59 953d f91a f23e 09a1 143f bf5f d1be
00000070: 3e54 53be c01d 3b3e dcc5 f43d 5578 3c3d
00000080: a451 4bbe 493e c63d a0db 94be 7f23 03bf
00000090: 9e47 823e 1678 363f 0d17 24bf 354a 9dbe
000000a0: 72cc d4bd 685f a4be 13b8 173f 0956 e53e
000000b0: 2c3b 6ebe 8299 2d3e a66b 043e b5a3 883f
000000c0: a017 813f c9c1 043f e762 a53f f3e0 3abf
000000d0: 7d75 6b3e 43ed 4ebe 462e 793e 1453 9cbc
000000e0: aa5a 7bbe 4463 15bf d304 f13e e263 363d
000000f0: 9280 2dbe 7c55 103e 382f fabe d4cb 1abe
00000100: eef6 643e 8900 ae3e 217a b3be 5372 9f3e
00000110: f371 78be 1ce4 3fbe b567 383d b3a9 463f
00000120: 67c2 23bc bb78 f23e 6123 123e cf89 9d3d
00000130: 3a4c 18bd 2f7b d2bd f53c 85bf 351d a33e
00000140: 0fdd f4be 2e7d 323c eb38 a63e 84c8 753e
00000150: 100e 81be 368f bfbd d67c dcbe b9fb da3e
00000160: 9412 f4bd a99e 5c3e babe 42be 6d44 353f
00000170: 4618 233f a428 b23e 0ab8 c73e 4895 01bf
00000180: b6b4 bdbe 74b3 243f bd17 82bc e35a 303e
00000190: b39d 993d f617 9ebe 884f b03f 973e 6c3f
000001a0: 9d19 6f3f 2b1c 40bd c6ed abbe 54a1 813e
000001b0: 9bd3 1d3f ee80 903e f6c7 7abe f0e8 a73e
000001c0: c9c2 8b3d 875e 21bd 6a24 c83e 3d7d 283e
000001d0: 30b5 87bf 0e8f 373e b75a e33e 9139 743f
000001e0: 0e5e 943e e7f8 313f f0c8 a9be 089b 943d
000001f0: d364 d7be 6a3b 0f3f 6cf2 8c3f a583 ca3e
00000200: 5c70 eb3e 1662 a8be c6b8 503e b0a0 663e
00000210: 4b09 5e3e 6a7d bcbc d148 41be e677 d63e
00000220: a148 a3be 5a10 9d3e 25a7 8c3e a4ea 6d3e
00000230: 8b26 f0be f95c 193f 2854 79bf affe fdbd
00000240: 92aa 173e eae9 b53e 4597 57bc 4a71 0b3e
00000250: d1dd e73f 3f7e 593e ddb4 37be c494 8ebe
00000260: d8ad da3e 9895 153f 2261 ac3e 71be 00be
00000270: df79 33bd 7ff1 6a3e 4227 e5be e96b 9ebc
00000280: bf90 de3e 0f12 b3be 0c2b c5be 4ddd 41be
00000290: 1ab0 073e 2571 92be 7952 06bd 908c 26bf
000002a0: ef86 163d 3790 47be 5888 94be 8e14 e1bd
000002b0: fe81 79be 0a56 d63e b2e1 b33e a453 85be
000002c0: cb77 f23e bfb8 173f 5a10 023c a155 3a3f
000002d0: 4fe8 633e 7fbc 6cbe 7c87 7f3e 2f32 093e
000002e0: 886d 383f b14d dcbc f490 b13e f4c5 06be
000002f0: c942 ea3d 51f6 403e a104 193d 8227 8a3f
00000300: fd74 a83d c83c 193e 8faa f1bd 25f6 4d3e
00000310: 441a 993e e88d 483f 8aff 023f 1929 ad3e
00000320: c56f a43e 66a3 dabd 3aba 233f 1d53 933c
00000330: 6c92 67bd 5460 223f b77e 87bd 84fb 4c3f
00000340: d227 93be 14d2 debd 51f6 393d e2dc 573d
00000350: 4930 ef3e dc4c c23d 68e4 99be ced4 cc3e
00000360: 1b2f 9bbd 0905 fabe b8a1 21bf 6696 a3be
00000370: 8ab8 09bf 2466 af3e aa3f 5fbf 7bdc 09bd
00000380: 8c90 523e d3bf a83e 4c16 5c3e 38ca 893e
00000390: 0bea 8c3f 1584 7cbf 59bb 113f 640f de3e
000003a0: 21cc 353e 746a 2e3f a58c 3bbe 1e12 1c3f
000003b0: f6e3 413f 6c07 49bf 3ef3 bc3e eb68 583e
000003c0: f4b1 b8bc f3f0 423e ddc4 65be 2c24 bd3e
000003d0: 5279 ef3c b9ce babd 7f25 72bc b1b6 fa3d
000003e0: 668d e13e 342c da3e a11f d43e 2d63 913e
000003f0: b486 173f 3134 a63e c757 5d3d 134d 253f

conv1.lin.weight f4 [500, 1]
0.53487307 -0.5094107 0.5712953 0.66654855 -0.5576813 0.58362335 0.5818357 -0.5582906
0.7501533 -0.5700157 -0.65632635 0.66708267 0.61387837 -0.5663159 0.6367861 -0.6993054
-0.59364706 0.5836797 -0.5872112 -0.60758525 0.6411443 0.6038411 -0.5523584 0.5965028
-0.6741707 -0.57823026 -0.5847755 0.6727026 -0.52989864 -0.49807867 -0.53206027 0.6491251
0.6665574 0.65233946 0.6110888 -0.6691658 0.37130094 0.7657839 -0.61887795 -0.62515384
-0.62937 -0.4809397 -0.8994467 0.5517034 0.17373352 0.63362205 -0.6551014 -0.54510695
0.6210698 0.7001968 -0.71893924 -0.3973791 0.595725 -0.5531997 0.49013123 0.64326066
-0.65307134 -0.6549281 0.5813166 0.5893322 -0.7264765 0.6135176 -0.61637694 -0.73453915
0.59596217 -0.45051184 -0.635995 0.47952998 -0.7228502 -0.66094804 -0.5936779 -0.59894764
-0.7099818 -0.550013 0.6270704 -0.6685295 0.6878461 0.6103506 -0.7965703 0.53676766
-0.7880412 -0.49156523 -0.17767593 0.45883515 -0.79105407 0.6382922 -0.62875795 0.4985978
0.6141895 0.58537054 -0.7804477 -0.5957831 0.7374574 0.5815559 -0.58303505 -0.39293882
-0.564974 -0.5621519 0.59331983 0.67284167 0.5939463 0.60507137 0.65569633 0.57716554
-0.6013633 -0.69768524 -0.62827337 0.35140553 0.6143128 0.32404226 0.6308074 0.396039
-0.6780278 -0.76422966 -0.57387394 0.6140735 -0.6194942 0.62363744 0.5720431 0.7431058
0.57189626 0.5767012 0.57853174 -0.71423066 -0.56961024 0.5397887 -0.54495037 0.6193766
0.57456785 0.6311582 -0.7089832 -0.32723415 -0.8473667 0.7355346 -0.59512275 0.57203203
0.60731286 -0.5547881 0.6345155 -0.5864305 -0.6755245 -0.5987231 -0.57790715 0.63429815
0.61766446 -0.65421796 -0.5976263 0.6290904 0.6154251 -0.5839718 0.6703638 -0.50827944
-0.5016826 0.76628846 0.5726781 -0.7170627 -0.7221851 0.6355827 -0.635346 0.65092164
0.5955448 -0.63630015 0.67753273 -0.61257267 -0.555653 -0.6295554 -0.59075093 -0.6325801
0.60074663 -0.86534375 0.5947933 -0.5887382 0.63304436 0.55129224 0.57599825 -0.5528702
0.77535164 0.6147563 -0.6535959 0.55680186 0.6061022 -0.71208036 0.67211825 -0.5743156
0.7217141 -0.62586796 0.6779117 -0.6952976 0.66271996 -0.5260676 -0.6911894 0.69121283
0.57185334 -0.5669654 -0.5926114 -0.3858572 0.58016616 0.7751571 0.74556696 -0.51774025
-0.29453525 -0.6740184 0.63836753 0.6268744 0.660701 0.6223467 0.6809565 0.5576358
-0.61346185 0.6147799 -0.7058991 0.64701635 -0.5355733 -0.5568498 -0.6894419 0.54835975
0.6472858 -0.5646314 -0.72218627 -0.6116381 -0.6402052 0.5690253 -0.6612866 0.65356755
0.6276057 -1.3259491 0.76004636 -0.57649654 0.5794404 -0.6450857 -0.54822344 0.62341934
0.6336633 0.57064337 0.57035714 -0.56013256 0.77325326 -0.5981281 0.46935 -0.51835275
-0.54214174 -0.4343067 0.5953608 -0.5580708 0.59222823 0.65296036 -0.6621795 0.5464143
0.60116744 0.6277222 0.57652754 0.5936823 0.6686266 0.62145936 -0.68682337 0.75131977
00000000: 71ed 083f bd68 02bf 6940 123f eda2 2a3f
00000010: 34c4 0ebf 5768 153f 2ff3 143f 22ec 0ebf
00000020: 0c0a 403f 8dec 11bf 0105 28bf eec5 2a3f
00000030: 2227 1d3f 14fa 10bf 6a04 233f ae05 33bf
00000040: 41f9 17bf 086c 153f 7953 16bf b58a 1bbf
00000050: 0822 243f 5595 1a3f 5c67 0dbf 68b4 183f
00000060: 7396 2cbf e606 14bf d9b3 15bf 3d36 2c3f
00000070: 70a7 07bf 2b04 ffbe 1a35 08bf 102d 263f
00000080: 81a3 2a3f b8ff 263f 5170 1c3f 734e 2bbf
00000090: 281b be3e 6a0a 443f c96e 1ebf 150a 20bf
000000a0: 641e 21bf ba3d f6be 2442 66bf 6f3c 0d3f
000000b0: 33e7 313e 0e35 223f bab4 27bf 218c 0bbf
000000c0: 6efe 1e3f 1940 333f 670c 38bf 4675 cbbe
000000d0: 6f81 183f 7f9e 0dbf 7bf2 fa3e bbac 243f
000000e0: af2f 27bf 5ea9 27bf 2ad1 143f 7ade 163f
000000f0: 5dfa 39bf 7d0f 1d3f e1ca 1dbf c20a 3cbf
00000100: fa90 183f 7da9 e6be 91d0 22bf f484 f53e
00000110: b60c 39bf e433 29bf 46fb 17bf a254 19bf
00000120: 5ec1 35bf a7cd 0cbf b087 203f c024 2bbf
00000130: af16 303f f03f 1c3f 08ec 4bbf 9b69 093f
00000140: 11bd 49bf 70ae fbbe aef0 35be 71ec ea3e
00000150: 8582 4abf 1e67 233f 48f6 20bf 3648 ff3e
00000160: 863b 1d3f d8da 153f 6ccb 47bf 3e85 18bf
00000170: 02ca 3c3f d9e0 143f c941 15bf 472f c9be
00000180: 23a2 10bf 30e9 0fbf cfe3 173f 5a3f 2c3f
00000190: dd0c 183f f5e5 1a3f b7db 273f 1fc1 133f
000001a0: f2f2 19bf 809b 32bf 86d6 20bf 6deb b33e
000001b0: 9b43 1d3f dee8 a53e 987c 213f a0c5 ca3e
000001c0: 3b93 2dbf 8ea4 43bf 67e9 12bf ec33 1d3f
000001d0: 2c97 1ebf b4a6 1f3f 6b71 123f 2f3c 3e3f
000001e0: cb67 123f b1a2 133f a81a 143f d2d7 36bf
000001f0: fad1 11bf 982f 0a3f de81 0bbf 778f 1e3f
00000200: e116 133f 9593 213f ec7f 35bf 3c8b a7be
00000210: 06ed 58bf ff4b 3c3f f759 18bf b170 123f
00000220: db78 1b3f 9806 0ebf 9c6f 223f 4f20 16bf
00000230: 2cef 2cbf eb45 19bf b9f1 13bf 5d61 223f
00000240: 421f 1e3f d47a 27bf 0afe 18bf 120c 213f
00000250: 808c 1d3f 2d7f 15bf f69c 2b3f 9a1e 02bf
00000260: 456e 00bf 7b2b 443f 089b 123f 6c91 37bf
00000270: 1fe1 38bf 8cb5 223f 09a6 22bf cda2 263f
00000280: a075 183f 91e4 22bf c972 2d3f 90d1 1cbf
00000290: 463f 0ebf 8b2a 21bf 743b 17bf c5f0 21bf
000002a0: 88ca 193f 2b87 5dbf 6044 183f 8cb7 16bf
000002b0: 320f 223f 7d21 0d3f 9f74 133f e788 0dbf
000002c0: 727d 463f ab60 1d3f 1052 27bf 918a 0e3f
000002d0: 8429 1b3f e64a 36bf f10f 2c3f 5906 13bf
000002e0: 41c2 383f e238 20bf 9f8b 2d3f 06ff 31bf
000002f0: 04a8 293f 5eac 06bf caf1 30bf 53f3 303f
00000300: fb64 123f a524 11bf 61b5 17bf 138f c5be
00000310: c585 143f b270 463f 7add 3e3f a08a 04bf
00000320: 53cd 96be 788c 2cbf 0e6c 233f d77a 203f
00000330: b323 293f 1d52 1f3f 2a53 2e3f 38c1 0e3f
00000340: d60b 1dbf 3762 1d3f ceb5 34bf dda2 253f
00000350: 551b 09bf b58d 0ebf 447f 30bf 4e61 0c3f
00000360: 86b4 253f af8b 10bf 33e1 38bf 5194 1cbf
00000370: 7de4 23bf a4ab 113f 144a 29bf 3450 273f
00000380: c4aa 203f b3b8 a9bf 6692 423f 4795 13bf
00000390: 3556 143f 5624 25bf 5f58 0cbf 6998 1f3f
000003a0: c237 223f af15 123f ed02 123f d964 0fbf
000003b0: edf3 453f ec1e 19bf a54e f03e c4b2 04bf
000003c0: cdc9 0abf 735d debe 9169 183f badd 0ebf
000003d0: 459c 173f 6928 273f 9984 29bf cfe1 0b3f
000003e0: 1ce6 193f 67b2 203f 4f97 133f 90fb 173f
000003f0: 1d2b 2b3f f617 1f3f a8d3 2fbf 7e56 403f

bn1.weight f4 [500]
1.5504955 1.3077593 0.37245557 1.8998493 -0.11415316 1.9922438 0.36596864 0.45845255
1.3309369 1.280641 1.1975857 1.9564519 1.884207 1.1166345 1.4248713 1.2549051
1.1988814 1.9338689 1.4911938 0.025786994 1.5776811 1.601483 0.97021306 0.48125187
2.4196265 1.6594754 1.9937435 1.6795548 1.7080956 1.5826116 0.9740027 1.9039167
2.011624 1.8585925 1.9407775 1.6141388 1.5680071 3.1964056 1.5003084 1.6361655
-0.014270084 1.7381027 2.2720582 -0.19557819 0.04165648 2.0436826 1.505459 2.160137
1.7052236 1.3879722 2.55811 2.2795203 0.4488456 1.0882436 -0.038603894 1.9072717
1.4363824 1.6413428 0.07286879 1.5377827 0.8925948 1.8020215 1.2306511 -0.01330899
1.83902 1.7581991 0.83767307 0.08429286 1.5479668 1.5350742 1.6586361 3.6428537
-0.0068697147 1.5454148 2.0114048 -0.024516378 0.2604009 1.562062 2.4489837 0.10871388
1.244185 1.9682535 0.4384996 0.16469148 0.94687325 1.9807062 0.0040799337 0.019570481
1.6836452 0.48019528 2.7280889 1.902045 1.8011912 1.8297374 1.8276006 1.3076403
1.1843917 0.040255263 1.4788454 1.8910811 1.998 1.7997509 1.5118015 1.36027
5.653903 0.7305672 0.9443254 0.12453592 1.8600639 0.09907256 2.036133 0.12051272
1.7193593 0.92069423 0.22149098 3.518974 2.4784741 2.027591 1.7630037 1.4486086
0.25732222 1.3028439 0.55913216 1.3850645 2.3598454 1.3010839 2.0329921 1.6515536
1.5941881 1.8501527 0.6827788 1.3353055 0.92023003 2.5660613 1.1577587 2.0216322
1.5027093 1.0401326 1.8123138 1.6585517 0.7824561 3.0916457 1.8344914 1.8828675
1.7113416 2.6698241 3.4331489 1.8860008 2.4743936 1.6291345 1.9870759 1.12656
1.9185973 1.4425259 1.2552146 1.0902036 1.3400806 2.0154994 0.91231334 1.9254395
2.118075 0.7762468 2.0838144 2.0538125 0.8940133 1.4502343 2.3564916 2.541266
1.6476855 1.7102243 2.3596222 1.4716443 1.7784774 1.0790085 1.5573598 0.8282411
1.4261094 1.7291042 -0.053222746 1.982014 1.3729907 1.5089496 2.0565372 0.5931344
1.194989 0.03846383 2.0724094 0.06496773 1.9428629 1.6841645 -0.09144181 1.9953803
1.542448 2.5224652 1.5688412 1.4840125 1.488059 2.1799846 2.9330957 2.1186314
1.1362444 1.5275912 2.0589082 2.0591931 1.9637178 1.7853569 2.077948 1.989707
1.4460001 1.6944358 0.64085233 2.028391 1.5117375 1.4772595 1.5358994 0.037855122
1.9785872 1.6933796 2.4289508 0.017287124 1.6366692 1.4568787 1.811339 1.9272192
2.010073 2.279546 1.4430357 1.5313811 1.273469 2.5579076 1.1556842 1.4089068
1.8825159 1.3555232 1.3283632 0.019269902 1.8203495 2.9592237 1.7625488 1.4947927
2.1805372 1.9041117 1.3982055 1.2405158 1.5061263 0.35561255 1.408767 1.5117273
1.7449235 1.8053267 1.3846289 1.8394094 1.3296733 2.0482821 0.060967673 1.2997195
00000000: a376 c63f a864 a73f 7fb2 be3e 432e f33f
00000010: 22c9 e9bd d801 ff3f 3e60 bb3e 4bba ea3e
00000020: 245c aa3f 0bec a33f 7d4a 993f 046d fa3f
00000030: b22d f13f e1ed 8e3f 2f62 b63f bba0 a03f
00000040: f274 993f 0489 f73f 70df be3f 3f3f d33c
00000050: 74f1 c93f 65fd cc3f e25f 783f a566 f63e
00000060: 29db 1a40 b169 d43f fd32 ff3f a7fb d63f
00000070: e0a2 da3f 0493 ca3f 3e58 793f 8bb3 f33f
00000080: 73be 0040 5ce6 ed3f 666b f83f 1a9c ce3f
00000090: 75b4 c83f e991 4c40 1b0a c03f df6d d13f
000000a0: 12cd 69bc 267a de3f 6769 1140 a645 48be
000000b0: fc9f 2a3d b2cb 0240 e1b2 c03f af3f 0a40
000000c0: c444 da3f 13a9 b13f 13b8 2340 a9e3 1140
000000d0: 17cf e53e 914b 8b3f 1e1f 1ebd 7b21 f43f
000000e0: 61db b73f 8517 d23f 3b3c 953d 10d6 c43f
000000f0: 1881 643f a4a8 e63f fa85 9d3f f30d 5abc
00000100: 0265 eb3f ab0c e13f be71 563f bca1 ac3d
00000110: c723 c63f 507d c43f 304e d43f 8424 6940
00000120: 581b e1bb 27d0 c53f dbba 0040 92d6 c8bc
00000130: 4453 853e a6f1 c73f 26bc 1c40 62a5 de3d
00000140: 7441 9f3f bbef fb3f 0583 e03e e2a4 283e
00000150: 4966 723f c887 fd3f f7b0 853b 4652 a03c
00000160: b081 d73f 28dc f53e 0299 2e40 3676 f33f
00000170: 6f8d e63f d634 ea3f d1ee e93f c260 a73f
00000180: 269a 973f b4e2 243d ce4a bd3f f20e f23f
00000190: 77be ff3f 3d5e e63f b682 c13f 541d ae3f
000001a0: c6ec b440 7406 3b3f 4fbf 713f b00c ff3d
000001b0: 9316 ee3f 8ee6 ca3d 0150 0240 5fcf f63d
000001c0: f713 dc3f 9eb2 6b3f 88ce 623e df36 6140
000001d0: 529f 1e40 0dc4 0140 1baa e13f 026c b93f
000001e0: bdbf 833e 97c3 a63f 4923 0f3f cb49 b13f
000001f0: b507 1740 eb89 a63f 8b1c 0240 1c66 d33f
00000200: 5b0e cc3f ced1 ec3f 97ca 2e3f 4aeb aa3f
00000210: 3294 6b3f 593a 2440 7031 943f 6c62 0140
00000220: c758 c03f 1123 853f e6f9 e73f 6c4b d43f
00000230: 0b4f 483f 86dd 4540 9dd0 ea3f cd01 f13f
00000240: 3e0d db3f 66de 2a40 b6b8 5b40 7968 f13f
00000250: 775c 1e40 7b87 d03f 8158 fe3f 1e33 903f
00000260: 9994 f53f b0a4 b83f dfaa a03f cb8b 8b3f
00000270: c387 ab3f f1fd 0040 5e8d 693f cd74 f63f
00000280: 8a8e 0740 1cb8 463f 375d 0540 aa71 0340
00000290: 0ede 643f 47a1 b93f c2d0 1640 1aa4 2240
000002a0: 5ce7 d23f a1e8 da3f 0d04 1740 d75e bc3f
000002b0: 26a5 e33f f31c 8a3f 9157 c73f 9c07 543f
000002c0: c18a b63f 4953 dd3f 1800 5abd a2b2 fd3f
000002d0: 29be af3f 4325 c13f 4e9e 0340 a8d7 173f
000002e0: 66f5 983f 408c 1d3d 5ba2 0440 cd0d 853d
000002f0: bbaf f83f b492 d73f d845 bbbd 9f68 ff3f
00000300: f06e c53f 1270 2140 cacf c83f 1ff4 bd3f
00000310: b878 be3f de84 0b40 d7b7 3b40 a897 0740
00000320: 7570 913f 1c88 c33f 27c5 0340 d2c9 0340
00000330: 1b5b fb3f 9386 e43f 1afd 0440 b8ae fe3f
00000340: 8816 b93f 46e3 d83f e60e 243f 28d1 0140
00000350: 9d80 c13f d716 bd3f 5a98 c43f f90d 1b3d
00000360: 5842 fd3f aac0 d83f ee73 1b40 ba9d 8d3c
00000370: 607e d13f 007b ba3f f5d9 e73f 1eaf f63f
00000380: 09a5 0040 15e4 1140 65b5 b83f 4c04 c43f
00000390: 0801 a33f c2b4 2340 76ed 933f 0f57 b43f
000003a0: 48f6 f03f c981 ad3f ce07 aa3f eadb 9d3c
000003b0: 3601 e93f ec63 3d40 339b e13f 5e55 bf3f
000003c0: ec8d 0b40 efb9 f33f 66f8 b23f 39c9 9e3f
000003d0: bfc8 c03f d912 b63e 7a52 b43f 4880 c13f
000003e0: a759 df3f f214 e73f 853b b13f c471 eb3f
000003f0: bc32 aa3f 0e17 0340 3db9 793d 355d a63f

bn1.bias f4 [500]
-1.5001484 -0.671528 4.1066394 0.12941611 1.145714 -1.3958175 4.232838 0.23867187
-1.0855709 -1.0111738 0.5324529 0.14372614 -0.31660882 -1.0628331 -1.1635087 0.62426376
-1.7308873 -1.3259761 -0.7054587 1.562883 0.021532329 -1.1248752 -1.3990191 4.6947618
-0.19773902 -1.1147931 -0.943933 -1.395368 -0.80908036 -0.7533176 -0.9237491 0.026157293
0.13624565 0.024920387 0.05748046 0.806922 -0.28267902 -2.1063192 0.7497601 0.8240729
2.4090054 -1.1897354 -0.17174536 -0.5880323 -0.58973294 0.13638714 0.66777736 -1.0230242
0.023671992 -1.1076808 -0.15346809 -1.0793483 4.60524 -1.3332456 -0.6142325 0.025649974
0.63904613 0.82788086 0.5353309 0.021866502 0.39742067 0.010304066 0.5473701 1.2666703
-1.3043658 -1.1813943 0.4222371 -0.62872684 0.6864458 0.7710199 -0.64794165 -1.7244222
1.2593015 -1.4769652 0.14149623 3.045064 3.569117 0.0220031 -0.18519938 -0.6126527
0.55310833 -0.93174773 -1.1735873 -0.5922326 0.42181852 0.13219419 2.473051 -0.59946793
0.023073826 4.264441 -0.17784004 -0.90070415 -1.2851019 -1.2891198 -0.8649536 -0.6192333
-0.44769537 -0.65254796 0.020542359 0.025686773 -1.368728 0.0040966114 -1.2600121 -1.9702752
-1.721147 1.0829617 0.4891617 -0.6273996 0.025004845 -0.59135014 0.13753252 -0.62348276
0.7577371 0.41006425 -0.80385464 -2.3352273 -0.15036845 0.1410761 -1.2816862 -1.1929299
3.731975 -2.1416898 -0.293774 0.6963102 -1.1168226 -0.24704555 -0.9626553 0.022244873
-1.1126664 0.024483105 1.0275714 -0.6323558 0.40951407 -1.7359893 -0.59394866 -1.385521
0.020421352 -1.5015591 0.024916392 -0.7856517 0.39548224 -1.4630309 -0.8684245 0.036277212
0.022342337 -0.17403698 -1.6246222 0.031453166 -1.6783892 -0.771142 0.13845916 -1.0788535
-0.90812665 -1.4327486 -1.0709896 0.48524258 0.66139185 0.14022876 1.3622437 0.133469
-1.4386681 0.7541719 -1.4156424 -0.123442285 -0.48990706 0.7262635 -1.1156311 -0.1642714
-0.1521919 -0.101922594 -1.6026167 -0.6968898 0.024234895 -0.25813487 -1.0934994 -0.8042181
-1.0546811 -1.4606359 1.2533277 -1.3868135 0.018603982 0.75277776 0.026280213 -1.1854278
-1.1430764 2.9789324 0.1391783 2.8553193 0.13538344 -1.1270136 1.6378921 0.13736066
-1.1903604 -1.1945082 -1.0766537 -1.0426245 -1.0577799 -1.4809275 -1.9468797 -1.0029199
-0.53765815 0.76506 0.12890987 0.023967847 0.13044912 0.13423826 0.1295668 -1.4952186
0.9164826 0.022974307 0.43932804 0.027405558 -0.7844528 -0.700044 0.7762615 -0.42467245
0.14446561 -1.1371669 -0.144629 1.3990537 0.7284399 -1.1186465 0.9257106 0.02613762
0.14461957 -0.14858565 -1.1492133 -0.7251658 -1.0619866 -0.35397622 -1.0857747 -1.0865364
0.13746622 -1.3614022 -1.9211514 -0.6422288 -1.2490518 -1.4001685 -1.0490812 -0.7158165
-1.0321119 -0.9012646 0.019133791 -1.7910423 -1.2149994 4.012148 0.70899576 0.021075051
-1.2651443 0.02455913 -2.0050306 -1.2933801 -1.796636 -1.3889273 2.6497736 -1.1035606
00000000: dd04 c0bf 42e9 2bbf 9769 8340 a885 043e
00000010: c2a6 923f 26aa b2bf 6973 8740 6666 743e
00000020: fdf3 8abf 256e 81bf d54e 083f f22c 133e
00000030: 8d1a a2be ea0a 88bf daed 94bf c0cf 1f3f
00000040: b78d ddbf 96b9 a9bf f198 34bf 8d0c c83f
00000050: 9164 b03c e9fb 8fbf 0f13 b3bf 7d3b 9640
00000060: 197c 4abe 8ab1 8ebf 98a5 71bf 6b9b b2bf
00000070: e41f 4fbf 6cd9 40bf d27a 6cbf d247 d63c
00000080: fb83 0b3e d725 cc3c a170 6b3d 7192 4e3f
00000090: 4ebb 90be efcd 06c0 47f0 3f3f 71f6 523f
000000a0: 252d 1a40 4049 98bf 04de 2fbe 4989 16bf
000000b0: bdf8 16bf 12a9 0b3e 75f3 2a3f 75f2 82bf
000000c0: c4eb c13c 7cc8 8dbf bd26 1dbe 1628 8abf
000000d0: 205e 9340 cba7 aabf 573e 1dbf e51f d23c
000000e0: 8798 233f 00f0 533f 720b 093f 6121 b33c
000000f0: b97a cb3e 63d2 283c 7220 0c3f 4122 a23f
00000100: 75f5 a6bf ee37 97bf 762f d83e 3ef4 20bf
00000110: e9ba 2f3f 8f61 453f 81df 25bf deb9 dcbf
00000120: cb30 a13f 320d bdbf 63e4 103e 54e2 4240
00000130: 6a6c 6440 d83f b43c e8a4 3dbe cfd6 1cbf
00000140: 8298 0d3f 0587 6ebf 1c38 96bf 8e9c 17bf
00000150: 99f8 d73e ea5d 073e 7846 1e40 bb76 19bf
00000160: 5205 bd3c 4d76 8840 b31b 36be 8c94 66bf
00000170: 387e a4bf e101 a5bf 996d 5dbf 1386 1ebf
00000180: 5438 e5be 620d 27bf 7348 a83c 116d d23c
00000190: 7b32 afbf de3c 863b 1448 a1bf fa31 fcbf
000001a0: 8b4e dcbf 7d9e 8a3f 6773 fa3e 439d 20bf
000001b0: f6d6 cc3c b962 17bf 53d5 0c3e 919c 1fbf
000001c0: 0ffb 413f f1f3 d13e 6bc9 4dbf 5d74 15c0
000001d0: 30fa 19be 4176 103e 4b0e a4bf edb1 98bf
000001e0: aed8 6e40 7211 09c0 8c69 96be 6341 323f
000001f0: 0bf4 8ebf 82f9 7cbe 9470 76bf e13a b63c
00000200: da6b 8ebf cb90 c83c 7687 833f 12e2 21bf
00000210: d4ab d13e e634 debf 050d 18bf c158 b1bf
00000220: ae4a a73c 1733 c0bf 761d cc3c 7820 49bf
00000230: a67c ca3e 9944 bbbf 1151 5ebf 6a97 143d
00000240: 4707 b73c c036 32be 9ff3 cfbf 09d5 003d
00000250: 75d5 d6bf 9069 45bf 3dc8 0d3e df17 8abf
00000260: fd7a 68bf 4e64 b7bf 3016 89bf b771 f83e
00000270: fa50 293f 2198 0f3e 005e ae3f 19ac 083e
00000280: 4726 b8bf 6911 413f c533 b5bf 4fcf fcbd
00000290: 19d5 fabe 68ec 393f 00cd 8ebf c336 28be
000002a0: 32d8 1bbe cbbc d0bd 8b22 cdbf 5f67 32bf
000002b0: 4288 c63c 412a 84be caf7 8bbf 3de1 4dbf
000002c0: caff 86bf 1ef6 babf 0b6d a03f 1b83 b1bf
000002d0: 6167 983c 0bb6 403f 9a49 d73c 19bc 97bf
000002e0: 5450 92bf d4a6 3e40 c284 0e3e 8dbd 3640
000002f0: f5a1 0a3e fb41 90bf 73a6 d13f 46a8 0c3e
00000300: bb5d 98bf a5e5 98bf cacf 89bf b874 85bf
00000310: 5565 87bf 088f bdbf 5b33 f9bf ae5f 80bf
00000320: f7a3 09bf f9da 433f f300 043e 3858 c43c
00000330: 7494 053e c175 093e 29ad 043e 5363 bfbf
00000340: 9b9e 6a3f 9d34 bc3c 9bef e03e 9f81 e03c
00000350: e6d1 48bf 1536 33bf 13b9 463f ab6e d9be
00000360: cbee 133e af8e 91bf a019 14be 3114 b33f
00000370: 0a7b 3a3f cf2f 8fbf 5ffb 6c3f 901e d63c
00000380: 2717 143e d626 18be 6c19 93bf 77a4 39bf
00000390: 2def 87bf 5f3c b5be aafa 8abf a013 8bbf
000003a0: f2c3 0c3e 6d42 aebf 4ae8 f5bf 1b69 24bf
000003b0: eee0 9fbf b938 b3bf 4b48 86bf c03f 37bf
000003c0: 3e1c 84bf 47b9 66bf 78be 9c3c e040 e5bf
000003d0: 1a85 9bbf 8463 8040 bf80 353f 96a5 ac3c
000003e0: 40f0 a1bf 3b30 c93c 6c52 00c0 7b8d a5bf
000003f0: 2bf8 e5bf 5fc8 b1bf e495 2940 7941 8dbf

bn1.running_mean f4 [500]
0.41094926 0.017795587 0.13420162 0.38424712 0.42008358 0.43972328 -0.172859 0.38900915
0.73829925 0.3380934 0.0632521 -0.1385056 0.04714881 -0.26811695 0.5082398 0.0005185062
-0.34807932 1.059268 -0.008485343 -0.435308 -0.07213709 0.8201993 0.24593528 0.046443477
-0.130702 0.29814306 0.38128617 -0.21383268 -0.39236152 0.030815568 -0.039187044 0.23197241
-0.00417911 0.28796265 -0.11233104 -0.7258541 0.36025274 0.93608165 -0.8177937 -0.49067333
-0.28625384 -0.45368627 0.32705876 0.60784715 -0.18228668 0.35245788 -0.0503661 0.91565835
1.1947258 0.7216527 1.0890754 -0.8319623 0.4049526 -0.36259255 0.3854174 0.1670994
-0.42464924 -0.77655536 0.6393145 0.21754782 -0.38235974 0.31859156 -0.65732324 -0.36404082
0.39632297 0.19089404 -0.5272301 0.45042282 -0.43320855 -0.36662325 -0.14818104 0.62165034
-0.21579887 0.30955666 0.32373855 -0.11696192 0.16307382 0.07527373 -1.2635007 0.47417766
-0.71315694 -0.15102768 0.27314904 0.3730277 -0.48444772 0.09008725 -0.6129036 0.5722328
0.05849332 0.38845 -0.40892667 0.5381722 0.85104734 0.5174562 0.20902696 -0.6149121
-0.5345853 0.48040903 0.15567537 0.36644077 0.24618803 -0.13286199 1.5664207 1.0860648
0.7824462 -0.25286672 -0.52116436 0.35504767 0.79824674 0.37616527 -0.060366184 0.4427508
-0.13632078 -0.25777143 0.22455084 0.3417411 -1.2445887 0.36162755 0.6098778 1.1692847
0.45507902 0.86292267 -0.16392425 -0.12703687 -0.59091496 0.71538156 0.95115834 0.5722331
0.62554646 -0.14674693 -0.0018632386 0.117000505 -0.026905816 0.1907804 -0.35737783 0.58455753
-0.14258517 0.14694291 0.45997638 0.067875534 -0.66336834 0.4227594 -1.1486145 0.059671048
0.32702923 0.15994605 -0.17843358 0.31737047 1.9899983 0.046856545 0.01656296 -0.41680995
0.29435343 0.8064642 0.50166774 -0.33381367 -0.23818982 0.41400933 -0.63508487 0.16887784
0.60696685 -0.5277018 -0.18924966 -0.37951148 -0.025572216 -0.4739208 -0.1857636 -0.83205605
0.21111275 -0.44420582 -0.11784705 -0.28381875 -0.061132163 0.5790458 0.5173235 -0.4178952
0.698219 0.76946145 -0.18131392 0.889472 0.39975032 -0.45154068 0.4449867 -0.032536954
0.9294726 -0.20811263 0.54254866 -0.3330212 0.30645022 0.040830996 -0.16282673 1.2816094
0.24806686 -0.001537766 -0.29126167 0.082443565 0.46782765 1.0062301 0.73060423 0.18505913
0.23848958 -0.30076623 0.82555807 0.19863358 0.13657223 0.8175972 0.13248697 0.96152234
-0.46097952 0.070071 -0.16002138 0.24194852 0.29915243 -0.074889645 -0.4935012 0.55901664
0.113086276 -0.6643386 -0.8456206 -0.49681616 -0.71178454 0.5075781 -1.0506852 0.15701388
0.38828427 -0.055031538 0.43592045 0.096987605 1.2705159 -1.171959 0.404005 0.61379987
0.36175954 0.84765524 -0.018019835 0.44728285 0.9820553 -0.9325389 0.50669575 0.0711774
-0.23215911 0.07180013 -0.051064726 0.20770147 0.20065758 0.09706312 -0.20644037 0.282813
0.61648804 0.60304236 0.5794202 0.45569235 0.7859949 0.50440824 -0.14567132 0.8636248
00000000: f167 d23e 0dc8 913c 266c 093e 0abc c43e
00000010: 3215 d73e 6923 e13e f301 31be 352c c73e
00000020: 2e01 3d3f 941a ad3e 518a 813d 69d4 0dbe
00000030: 1c1f 413d a046 89be 011c 023f 5dec 073a
00000040: 7437 b2be 1896 873f 1c06 0bbc b1e0 debe
00000050: 9cbc 93bd 95f8 513f 75d6 7b3e 843b 3e3d
00000060: bfd6 05be 35a6 983e f137 c33e f4f6 5abe
00000070: 9ce3 c8be ee70 fc3c 9882 20bd 2d8a 6d3e
00000080: eaf0 88bb d76f 933e d10d e6bd 93d1 39bf
00000090: 0c73 b83e 0ca3 6f3f ee5a 51bf 8939 fbbe
000000a0: dd8f 92be 9149 e8be 3f74 a73e df9b 1b3f
000000b0: 5ca9 3abe 5c75 b43e af4c 4ebd 9668 6a3f
000000c0: c6ec 983f 3bbe 383f d366 8b3f 7bfb 54bf
000000d0: f255 cf3e bba5 b9be 6e55 c53e 1b1c 2b3e
000000e0: a06b d9be 55cc 46bf 1daa 233f dbc4 5e3e
000000f0: a8c4 c3be 6f1e a33e 5646 28bf 8f63 babe
00000100: d8ea ca3e ba79 433e 8df8 06bf d29d e63e
00000110: 83cd ddbe 0bb6 bbbe c5bc 17be 7a24 1f3f
00000120: 61fa 5cbe 367e 9e3e 0fc1 a53e bb89 efbd
00000130: d3fc 263e 1d29 9a3d 64ba a1bf 6ac7 f23e
00000140: 7491 36bf 00a7 1abe 31da 8b3e 7dfd be3e
00000150: 8809 f8be aa7f b83d 40e7 1cbf d97d 123f
00000160: b196 6f3d ebe2 c63e d65e d1be a7c5 093f
00000170: 3dde 593f 0278 043f 2a0b 563e e16a 1dbf
00000180: 95da 08bf 2cf8 f53e 5d69 1f3e 209e bb3e
00000190: b718 7c3e f90c 08be 7980 c83f 2c04 8b3f
000001a0: 654e 483f bf77 81be 076b 05bf cfc8 b53e
000001b0: e659 4c3f bc98 c03e 8842 77bd 3cb0 e23e
000001c0: ad97 0bbe 9efa 83be a8f0 653e b1f8 ae3e
000001d0: af4e 9fbf 3f27 b93e f420 1c3f 1fab 953f
000001e0: 1e00 e93e 80e8 5c3f c2db 27be f415 02be
000001f0: 3446 17bf 3f23 373f 1d7f 733f de7d 123f
00000200: d023 203f d444 16be ea37 f4ba f69d ef3d
00000210: 9669 dcbc f05b 433e 3afa b6be 90a5 153f
00000220: d901 12be 3478 163e 0682 eb3e 5402 8b3d
00000230: 82d2 29bf ec73 d83e cd05 93bf a169 743d
00000240: 6070 a73e e6c8 233e 4bb7 36be 627e a23e
00000250: 44b8 fe3f a6ec 3f3d 0baf 873c 1d68 d5be
00000260: 7eb5 963e 7074 4e3f 4c6d 003f a0e9 aabe
00000270: 08e8 73be 08f9 d33e ec94 22bf 50ee 2c3e
00000280: 2e62 1b3f 7717 07bf aaca 41be 544f c2be
00000290: d37c d1bc bfa5 f2be d038 3ebe a001 55bf
000002a0: f12d 583e f26e e3be cb59 f1bd b150 91be
000002b0: b865 7abd 583c 143f 506f 043f 5cf6 d5be
000002c0: 7bbe 323f 6dfb 443f 5baa 39be 70b4 633f
000002d0: 13ac cc3e 5730 e7be 4cd5 e33e 7845 05bd
000002e0: ebf1 6d3f 7a1b 55be 78e4 0a3f c181 aabe
000002f0: 0be7 9c3e 673e 273d 0dbc 26be c70b a43f
00000300: 3d05 7e3e dd8e c9ba 4020 95be 2cd8 a83d
00000310: 1b87 ef3e 26cc 803f e108 3b3f 2480 3d3e
00000320: 9d36 743e 08fe 99be c657 533f 9a66 4b3e
00000330: 97d9 0b3e 0d4e 513f aaaa 073e 5426 763f
00000340: 8205 ecbe 6281 8f3d a5dc 23be 5ac1 773e
00000350: 822a 993e be5f 99bd 30ac fcbe b71b 0f3f
00000360: c799 e73d 1812 2abf 977a 58bf b05e febe
00000370: 8337 36bf a3f0 013f da7c 86bf 3fc8 203e
00000380: 32cd c63e c068 61bd f730 df3e 70a1 c63d
00000390: 44a0 a23f c102 96bf bed9 ce3e fd21 1d3f
000003a0: 8c38 b93e efff 583f 559e 93bc 4202 e53e
000003b0: fa67 7b3f dfba 6ebf d0b6 013f 75c5 913d
000003c0: 1ebb 6dbe f20b 933d 3f29 51bd b2af 543e
000003d0: 2e79 4d3e 07c9 c63d 1b65 53be decc 903e
000003e0: 29d2 1d3f fc60 1a3f e254 143f 8250 e93e
000003f0: f636 493f e620 013f dd2a 15be 8416 5d3f

bn1.running_var f4 [500]
0.076232255 0.06914704 0.08696785 0.11838678 0.082872376 0.090761535 0.090206526 0.083053574
0.14994743 0.08657876 0.11478621 0.11857471 0.100415654 0.085456535 0.10805024 0.13032183
0.09390605 0.09077892 0.0918811 0.09836764 0.1095036 0.097158164 0.08129793 0.09481185
0.12110274 0.089092575 0.091120236 0.12058381 0.07481701 0.066102885 0.07542871 0.11227196
0.11838958 0.11339285 0.09950529 0.119321324 0.036726054 0.15623884 0.10205824 0.10413876
0.10554791 0.06163895 0.21552858 0.08110518 0.008042757 0.10697873 0.11435808 0.07916428
0.10278268 0.13064106 0.1377121 0.04205721 0.09456479 0.0815458 0.06401212 0.11025648
0.11364968 0.11429641 0.09004572 0.09253769 0.14064623 0.10029388 0.10123505 0.14377044
0.09464004 0.054088634 0.107782535 0.061272986 0.13925543 0.11640796 0.093915984 0.095590584
0.13431764 0.08060884 0.10477802 0.119091295 0.12607224 0.099264815 0.1690517 0.07677326
0.16552967 0.064375296 0.008411915 0.056098446 0.16678369 0.10856161 0.10534272 0.06624271
0.100517444 0.09130599 0.16228381 0.09458309 0.14491326 0.09011959 0.090578645 0.041138496
0.085054174 0.084206335 0.093788795 0.120633796 0.093999244 0.097555235 0.11456255 0.08876422
0.09636307 0.12971108 0.105181076 0.03290443 0.10055798 0.027979542 0.10603057 0.04179393
0.12251005 0.15565883 0.08775474 0.10047953 0.10226128 0.103633925 0.087195806 0.14714332
0.0871509 0.08861926 0.08918501 0.13594891 0.086411886 0.07763969 0.07912529 0.102222
0.08796687 0.10614705 0.13394605 0.028522793 0.191394 0.14415216 0.09437361 0.08719211
0.0982794 0.08201467 0.107279666 0.09163692 0.12160153 0.095518984 0.08899207 0.10720598
0.101658076 0.11404332 0.09516916 0.10545394 0.10092086 0.09087005 0.11974559 0.06882733
0.06705715 0.1564671 0.08738927 0.13702863 0.1389967 0.10764206 0.107562065 0.112899736
0.09450754 0.10788601 0.12231847 0.09998907 0.082270585 0.10561066 0.09299205 0.10662654
0.096161254 0.19949155 0.09426908 0.092359565 0.106784314 0.08098434 0.08840552 0.08144737
0.16018991 0.10069141 0.11382995 0.082611166 0.09788796 0.13512883 0.12037329 0.08788996
0.13879289 0.10437661 0.122455545 0.1288186 0.11703003 0.07374384 0.12730154 0.12731184
0.087137714 0.0856328 0.09357885 0.039676722 0.08968966 0.16010429 0.14810115 0.07141522
0.023108773 0.121059224 0.10858718 0.10471247 0.11631863 0.10320551 0.123557016 0.08285882
0.10027968 0.10071136 0.1327835 0.111549236 0.076433174 0.08262525 0.12666385 0.080125056
0.11164275 0.08495142 0.1389625 0.099684305 0.10921444 0.0862779 0.11652905 0.11381618
0.10495699 0.4683716 0.15392846 0.08855826 0.0894654 0.11088391 0.080085054 0.10356094
0.10699296 0.08676941 0.08668194 0.083602466 0.15932299 0.09532922 0.05869808 0.07159524
0.07831557 0.050247952 0.09444925 0.082989275 0.09345791 0.113608345 0.11684232 0.07955077
0.09630074 0.1049955 0.08856805 0.09391669 0.11912973 0.1029103 0.12569778 0.15041342
00000000: a81f 9c3d f79c 8d3d 331c b23d c574 f23d
00000010: feb8 a93d 2fe1 b93d 33be b83d fe17 aa3d
00000020: d28b 193e 3450 b13d 0815 eb3d 4cd7 f23d
00000030: b9a6 cd3d d603 af3d 7249 dd3d 1673 053e
00000040: d151 c03d 4cea b93d 282c bc3d f974 c93d
00000050: 6c43 e03d dcfa c63d 877f a63d b72c c23d
00000060: b704 f83d 2b76 b63d 3f9d ba3d a5f4 f63d
00000070: a939 993d f360 873d 5e7a 9a3d d7ee e53d
00000080: 3c76 f23d 833a e83d 6ec9 cb3d bd5e f43d
00000090: 0f6e 163d 13fd 1f3e e903 d13d b446 d53d
000000a0: 8129 d83d 2079 7c3d 86b3 5c3e 791a a63d
000000b0: c5c5 033c aa17 db3d 9234 ea3d e220 a23d
000000c0: ba7f d23d c5c6 053e 6704 0d3e 2e44 2c3d
000000d0: 2fab c13d 7c01 a73d c918 833d 26ce e13d
000000e0: 2ac1 e83d 3c14 ea3d e469 b83d 6784 bd3d
000000f0: 9105 103e e166 cd3d 5254 cf3d 8f38 133e
00000100: a3d2 c13d 0b8c 5d3d 17bd dc3d 62f9 7a3d
00000110: fa98 0e3e 4c67 ee3d 0657 c03d ffc4 c33d
00000120: 908a 093e 3f16 a53d dc95 d63d 23e6 f33d
00000130: 1519 013e 5a4b cb3d e41b 2d3e 4d3b 9d3d
00000140: 9c80 293e 32d7 833d 21d2 093c 7cc7 653d
00000150: 58c9 2a3e 8d55 de3d edbd d73d 42aa 873d
00000160: 17dc cd3d a3fe ba3d ba2d 263e c7b4 c13d
00000170: 2464 143e 9f90 b83d 4c81 b93d d780 283d
00000180: e230 ae3d 5f74 ac3d 5714 c03d da0e f73d
00000190: ad82 c03d 0acb c73d c59f ea3d 04ca b53d
000001a0: 005a c53d fbd2 043e 2d69 d73d ccc6 063d
000001b0: 58f1 cd3d 5a35 e53c 8e26 d93d 1d30 2b3d
000001c0: 8de6 fa3d 0765 1f3e c2b8 b33d 36c8 cd3d
000001d0: 5d6e d13d 063e d43d b793 b23d bdac 163e
000001e0: 2c7c b23d 047e b53d a1a6 b63d 3136 0b3e
000001f0: b7f8 b03d 8f01 9f3d 710c a23d c559 d13d
00000200: f927 b43d a063 d93d 2729 093e a2a8 e93c
00000210: cafc 433e a09c 133e f446 c13d c791 b23d
00000220: b646 c93d 4ff7 a73d 71b5 db3d 23ac bb3d
00000230: 390a f93d 759f c33d 7941 b63d cf8e db3d
00000240: 1c32 d03d 8b8f e93d 0ce8 c23d 3cf8 d73d
00000250: 99af ce3d 141a ba3d 2d3d f53d 58f5 8c3d
00000260: 4255 893d e938 203e 25f9 b23d 3c51 0c3e
00000270: 2755 0e3e 7173 dc3d 8049 dc3d fa37 e73d
00000280: 2b8d c13d 57f3 dc3d 1b82 fa3d 12c7 cc3d
00000290: 7b7d a83d 674a d83d 9e72 be3d 045f da3d
000002a0: 31f0 c43d 8347 4c3e 2610 c13d 0327 bd3d
000002b0: bcb1 da3d 1edb a53d f40d b53d e1cd a63d
000002c0: d308 243e 4c37 ce3d ad1f e93d 0b30 a93d
000002d0: 7c79 c83d 365f 0a3e 4586 f63d a7ff b33d
000002e0: b91f 0e3e 67c3 d53d f9c9 fa3d 06e9 033e
000002f0: 71ad ef3d 0307 973d 565b 023e 095e 023e
00000300: 4275 b23d 4060 af3d 45a6 bf3d 0f84 223d
00000310: 36af b73d 61f2 233e d4a7 173e 2542 923d
00000320: 9c4e bd3c e6ed f73d f562 de3d 7e73 d63d
00000330: 7638 ee3d 695d d33d 760b fd3d e3b1 a93d
00000340: 6f5f cd3d c241 ce3d 66f8 073e ed73 e43d
00000350: ff88 9c3d 6d37 a93d 2bb4 013e 9b18 a43d
00000360: f4a4 e43d 03fb ad3d 304c 0e3e 4927 cc3d
00000370: d2ab df3d 78b2 b03d c8a6 ee3d 7518 e93d
00000380: b1f3 d63d 67ce ef3e 6c9f 1d3e 085e b53d
00000390: a339 b73d 1a17 e33d a203 a43d c217 d43d
000003a0: 201f db3d 29b4 b13d 4d86 b13d c537 ab3d
000003b0: 9125 233e f73b c33d 666d 703d 86a0 923d
000003c0: ea63 a03d ccd0 4d3d 9c6e c13d 48f6 a93d
000003d0: dc66 bf3d 7eab e83d 074b ef3d 84eb a23d
000003e0: 5339 c53d e107 d73d 2a63 b53d 6557 c03d
000003f0: 4afa f33d a3c2 d23d ebb6 003e fa05 1a3e

conv2.bias f4 [250]
0.030180365 -0.049651396 -0.0145375645 -0.14357556 0.002519253 0.034054253 0.22799644 -0.073746264
0.0023030643 0.15324493 0.032207157 -0.010909224 -0.042707026 -0.14247982 0.19174501 0.004797909
0.037896205 -0.036994588 -0.03627332 0.011024794 0.040125124 0.028453838 -0.037255753 -0.00557829
-0.03603601 -0.119828805 -0.027396783 -0.05122283 -0.061851837 -0.037587475 0.025863646 0.11202207
0.20758732 -0.014431975 0.049656723 0.069879465 -0.013745578 -0.122647025 0.11251461 0.013826036
-0.05827812 -0.23829865 0.017113497 -0.08873267 0.020404484 -0.0068881772 0.026365308 -0.07151386
0.079316236 0.16488804 -0.04943851 0.029348224 -0.033680398 -0.10453299 -0.007845219 0.03591225
0.060786963 0.08209847 -0.020750746 -0.11202471 0.015704809 -0.027087972 -0.028548399 0.35536185
0.039119337 -0.107184 -0.100190245 0.10260029 0.05021708 -0.0025948486 -0.013410035 -0.14416271
-0.023031712 -0.2828004 -0.032147452 -0.0005988337 0.023180759 -0.089642 -0.12557888 -0.114342235
-0.07743237 0.15719703 -0.013694479 -0.08755332 -3.34918e-05 -0.019455317 -0.03547929 0.045601614
-0.31883368 0.2105191 0.059651386 -0.037444923 -0.057119112 0.0010917728 -0.008378811 0.027424114
0.045058507 0.007808248 0.14359947 0.19157681 0.023033816 0.014504076 0.004761066 0.10839501
-0.0374444 0.09311033 0.15162498 0.12062282 0.0031519611 0.038809627 -0.18012351 0.07063576
-0.08857706 0.1901476 0.03206605 -0.16728778 -0.25229698 0.13022058 -0.077484265 0.102205426
-0.097752355 -0.040684532 0.10091593 -0.20165624 0.022183025 -0.008895701 0.037260722 -0.002270972
-0.051503453 -0.01948345 -0.07534009 0.041462198 0.038023703 0.20909086 0.01890916 0.022760168
-0.004462647 0.012367553 0.067537345 -0.08780722 0.024246601 0.010703411 -0.11167583 0.11929093
0.0011638106 -0.019818673 -0.10081559 0.01083169 0.025192538 -0.113060094 0.28665802 0.1970082
-0.09232051 -0.006713388 0.02975848 0.0051366426 -0.048862927 0.06632287 -0.1798191 0.018077835
-0.007307914 -0.13387175 0.037590146 -0.021985888 -0.004909674 0.046594307 -0.08703083 0.009771652
-0.07752331 0.17438905 0.11930136 0.04548096 0.09637152 0.042421468 0.08139904 -0.22248772
-0.19705096 -0.008155676 -0.021175852 0.00932161 0.056845643 -0.0033471815 -0.025835168 -0.018881964
0.00436211 3.1376592e-05 -0.11228818 0.019781947 -0.09081094 0.08557297 0.027821472 -0.17335795
-0.07276693 0.08885021 0.046024114 0.31759965 -0.02626515 -0.28306782 -0.05122148 0.010213281
-0.09192724 0.04829114 0.0015978202 0.012899906 -0.047716793 -0.042394895 -0.0004960729 0.016085347
0.024040578 -0.015101779 0.01721345 -0.029550357 0.04048568 -0.0058224197 -0.04476426 0.033207674
0.03793882 -0.13674194 -0.042786576 -0.024898691 0.25166288 -0.09056127 -0.012141478 0.004536063
0.29170173 -0.02242781 6.922954e-05 0.0007421356 0.12747155 -0.0043419073 -0.14675844 0.081452094
0.0150294425 -0.009817986 -0.06976757 0.01144234 0.06683777 0.030606952 -0.014944424 0.041859567
-0.006098283 -0.030983327 0.011264962 0.15586866 0.018429408 -0.050022893 -0.061288904 -0.010789627
0.03818782 -0.23755173
00000000: d03c f73c 435f 4bbd f72e 6ebc 7905 13be
00000010: 0d1a 253b 797c 0b3d e677 693e 4808 97bd
00000020: 02ef 163b 3dec 1c3e a7eb 033d 9abc 32bc
00000030: 90ed 2ebd 3be6 11be ce58 443e c737 9d3b
00000040: 0d39 1b3d a387 17bd 5593 14bd 56a1 343c
00000050: 3e5a 243d 0618 e93c 7d99 18bd 17ca b6bb
00000060: 7f9a 13bd ce68 f5bd 386f e0bc 08cf 51bd
00000070: 5a58 7dbd 53f5 19bd ffdf d33c d46b e53d
00000080: c591 543e 1774 6cbc d964 4b3d f71c 8f3d
00000090: 2235 61bc 5d2e fbbd 0f6e e63d 9986 623c
000000a0: 0ab5 6ebd 9004 74be 9b31 8c3c 79b9 b5bd
000000b0: 4e27 a73c 38b6 e1bb 0ffc d73c dc75 92bd
000000c0: 8d70 a23d 69d8 283e 0980 4abd b06b f03c
000000d0: 75f4 09bd 6415 d6bd 3c89 00bc b918 133d
000000e0: c0fb 783d 3e23 a83d 78fd a9bc 366d e5bd
000000f0: 5fa7 803c 98e7 ddbc 55de e9bc fdf1 b53e
00000100: 993b 203d 4983 dbbd 8b30 cdbd 1a20 d23d
00000110: 6db0 4d3d 560e 2abb c3b5 5bbc 649f 13be
00000120: 00ad bcbc 37cb 90be 0cad 03bd 0dfb 1cba
00000130: 93e5 bd3c 3a96 b7bd c097 00be 432c eabd
00000140: dd94 9ebd 42f8 203e cf5e 60bc 284f b3bd
00000150: 8c79 0cb8 c260 9fbc bb52 11bd c2c8 3a3d
00000160: 2b3e a3be 5292 573e 0355 743d d95f 19bd
00000170: bbf5 69bd d119 8f3a 4847 09bc 89a8 e03c
00000180: 458f 383d 55dc ff3b bd0b 133e b62c 443e
00000190: 6ab1 bc3c 81a2 6d3c b702 9c3b 34fe dd3d
000001a0: 4d5f 19bd a1b0 be3d 9443 1b3e 1909 f73d
000001b0: 2291 4e3b d8f6 1e3d 4c72 38be 7ba9 903d
000001c0: e467 b5bd 0db6 423e b157 033d 7d4d 2bbe
000001d0: 122d 81be 8b58 053e 12b0 9ebd 1451 d13d
000001e0: 6332 c8bd d3a4 26bd 03ad ce3d f97e 4ebe
000001f0: 2db9 b53c 46bf 11bc b39e 183d 96d4 14bb
00000200: 49f5 52bd c29b 9fbc e84b 9abd 44d4 293d
00000210: bebe 1b3d ea1b 563e 62e7 9a3c 8873 ba3c
00000220: 653b 92bb 47a1 4a3c 0551 8a3d 46d4 b3bd
00000230: cfa0 c63c 5c5d 2f3c 4cb6 e4bd ce4e f43d
00000240: 018b 983a c55a a2bc 6778 cebd 6777 313c
00000250: 9560 ce3c 0d8c e7bd d7c4 923e 85bc 493e
00000260: 8912 bdbd fbfb dbbb 0ec8 f33c 4851 a83b
00000270: 7e24 48bd 49d4 873d 8022 38be f817 943c
00000280: 3a77 efbb ad15 09be 20f8 193d c01b b4bc
00000290: 55e1 a0bb acd9 3e3d 383d b2bd 4719 203c
000002a0: 8bc4 9ebd 0b93 323e 4554 f43d 3e4a 3a3d
000002b0: 6e5e c53d 22c2 2d3d 8ab4 a63d d2d3 63be
000002c0: bac7 49be 629f 05bc fb78 adbc abb9 183c
000002d0: fad6 683d 635c 5bbb 46a4 d3bc 59ae 9abc
000002e0: 08f0 8e3b 5c9a 0338 58f7 e5bd c00d a23c
000002f0: 16fb b9bd e240 af3d dbe9 e33c bf84 31be
00000300: d406 95bd 19f7 b53d c883 3c3d 6c9c a23e
00000310: 032a d7bc 44ee 90be 9dcd 51bd 9b55 273c
00000320: 5944 bcbd eecc 453d f36d d13a 215a 533c
00000330: af72 43bd 45a6 2dbd e40a 02ba 6bc5 833c
00000340: bff0 c43c 746d 77bc 3903 8d3c 9713 f2bc
00000350: 50d4 253d ffc9 bebb bb5a 37bd c504 083d
00000360: bc65 1b3d 1406 0cbe fa40 2fbd 57f8 cbbc
00000370: f5d9 803e 3078 b9bd 0ded 46bc 41a3 943b
00000380: ee59 953e 87ba b7bc 542f 9138 e18b 423a
00000390: e787 023e 8f46 8ebb d847 16be 5bd0 a63d
000003a0: 0d3e 763c 9edb 20bc 4de2 8ebd a778 3b3c
000003b0: 3ee2 883d 6ebb fa3c 75d9 74bc f074 2b3d
000003c0: 1bd4 c7bb bfd0 fdbc ad90 383c 099c 1f3e
000003d0: 45f9 963c cee4 4cbd 130a 7bbd fac6 30bc
000003e0: d56a 1c3d c340 73be

conv2.lin.weight f4 [250, 500]
-0.7960189 -0.7136599 0.86929256 -0.97153395 0.5753047 0.40243524 0.8256446 0.4429926
0.5546037 -0.6978765 0.5386287 -0.94103503 -1.0487096 -0.68315357 0.5550534 0.4579157
-0.7805777 0.38722104 -0.71305984 0.5918105 -0.88495654 0.54591286 -0.61760885 0.9902465
0.37117964 -0.8014128 -0.83815575 0.4365787 -0.7343237 -0.8600516 -0.6926676 -0.9907498
-0.92613715 -0.99369615 -1.1029278 0.46220833 -0.8935306 -1.0618582 0.46907356 0.4674517
0.7971449 -0.7698597 0.43923262 -0.50187624 -0.58744884 -0.93972915 0.4497849 -0.7342345
-0.9080451 0.51371694 0.44947842 -0.8934529 0.86292964 -0.6347397 -0.66522545 -1.0315299
0.58446205 0.48521575 0.5771773 -0.9600088 0.5782717 -0.91015273 0.48678845 0.61863947
0.2804034 -0.82847124 0.5423422 -0.65183777 0.557025 0.47500408 -0.8476499 -1.6469887
0.67490935 -0.8843482 -1.0432442 0.6722319 0.6783773 -0.8756557 0.3151665 -0.587386
0.5686402 -0.68616885 -0.61236036 -0.61956674 0.5483812 -0.99558544 0.64466584 -0.5225218
-0.9463137 0.71907455 0.35986653 -0.7814201 0.42414358 0.41977128 -0.6824886 -0.6492457
-0.7061476 0.5956173 -0.79966694 -0.96127486 0.3280382 -1.2583041 0.38947338 0.62994117
-2.0081708 0.51803 0.59216124 -0.62286294 -1.0586033 -0.6019705 -0.9795861 -0.5512048
0.44144607 0.5236445 -0.5909128 -1.0284925 0.39223006 -0.97757244 0.4001185 0.45172346
0.79817516 0.4873402 0.508475 0.48765472 -0.78198594 -0.8289082 -0.7265858 -0.82680315
0.48368952 -0.95247686 0.52435017 -0.740391 0.6129241 0.36032382 -0.83018947 0.4826256
-0.895558 -0.63018876 -1.029996 -0.74925554 0.5008525 -1.4184428 -0.73763907 -0.9978099
-0.88684136 0.4229555 -1.3873773 -1.0020822 0.32187033 -0.7755813 -1.0745059 -0.65554005
-0.7021964 0.53127027 0.4341891 0.5685642 0.46902704 -1.0306969 0.5569181 -0.96883684
0.3754884 0.5980987 0.40867782 0.3353831 -0.64755976 0.5686321 -0.91146195 0.34729582
-0.9692098 0.47882023 0.3136391 -0.672715 -0.8588996 -0.81276065 0.47481534 -0.6937838
0.40635747 0.4533144 0.7346404 0.38746634 -0.9205377 0.5622068 -0.9792741 -0.68525577
0.53506 0.70715183 -0.95304507 0.8243085 -0.9836009 -0.781986 0.58911556 -1.020486
0.53388786 -0.84489936 -0.8939181 -0.7384701 0.42907342 0.35008115 -1.0181072 -0.86351854
-0.6000643 0.4960998 -0.9633846 -0.95541036 -0.95827395 -0.9971413 -1.0044252 0.46679693
0.5724053 -0.87071025 0.6290897 -1.0566518 -0.7259416 -0.7240153 0.61085284 -0.547879
-0.9886951 -0.88405746 0.3512818 0.6806433 0.47117084 0.49194953 0.5462542 -0.94322073
-1.0449097 0.39244273 0.55479723 -0.7293191 0.566333 0.38099217 -0.65643203 0.40945795
-0.9136495 0.4280617 0.63962007 0.5744147 0.3932446 -1.2887659 -0.8415831 -0.80491537
-0.8742587 -0.7620549 -0.9252863 -0.7298862 0.41655797 0.8622061 0.43603155 -0.80091
0.4735905 -0.9846821 0.5714708 0.4507758 0.48149633 0.4240338 0.76768196 0.44419777
00000000: e5c7 4bbf 6ab2 36bf f589 5e3f 73b6 78bf
00000010: 2b47 133f fe0b ce3e 725d 533f edcf e23e
00000020: 82fa 0d3f 09a8 32bf 92e3 093f ace7 70bf
00000030: 1e3c 86bf 27e3 2ebf fb17 0e3f ed73 ea3e
00000040: f1d3 47bf d641 c63e 178b 36bf e580 173f
00000050: 838c 62bf f2c0 0b3f 9d1b 1ebf cb80 7d3f
00000060: 420b be3e 6429 4dbf 6091 56bf 3e87 df3e
00000070: a3fc 3bbf 572c 5cbf aa52 31bf c7a1 7dbf
00000080: 5317 6dbf df62 7ebf bd2c 8dbf 92a6 ec3e
00000090: 6cbe 64bf f8ea 87bf 692a f03e d455 ef3e
000000a0: b011 4c3f 8615 45bf 19e3 e03e f67a 00bf
000000b0: 0c63 16bf 1792 70bf 354a e63e cbf6 3bbf
000000c0: a575 68bf f482 033f 0922 e63e 54b9 64bf
000000d0: f5e8 5c3f 4d7e 22bf 374c 2abf 2c09 84bf
000000e0: 4e9f 153f 336e f83e e4c1 133f 23c3 75bf
000000f0: 9d09 143f c5ff 68bf 563c f93e 285f 1e3f
00000100: 0991 8f3e b116 54bf f0d6 0a3f d7de 26bf
00000110: 3199 0e3f bc33 f33e 95ff 58bf 87d0 d2bf
00000120: dcc6 2c3f a564 62bf 0789 85bf 6417 2c3f
00000130: 22aa 2d3f f92a 60bf 815d a13e ee5e 16bf
00000140: 6792 113f c3a8 2fbf a6c3 1cbf ed9b 1ebf
00000150: b662 0c3f b0de 7ebf d208 253f fdc3 05bf
00000160: 9d41 72bf 4515 383f 6d40 b83e 260b 48bf
00000170: 5929 d93e 43ec d63e 93b7 2ebf f734 26bf
00000180: 17c6 34bf 607a 183f f9b6 4cbf 1c16 76bf
00000190: 9ff4 a73e 1c10 a1bf 0e69 c73e d343 213f
000001a0: df85 00c0 9d9d 043f e197 173f f273 1fbf
000001b0: 5080 87bf bd1a 1abf 28c6 7abf c21b 0dbf
000001c0: 3805 e23e 910d 063f 1046 17bf a4a5 83bf
000001d0: 61d2 c83e 3042 7abf 55dc cc3e 4c48 e73e
000001e0: 3555 4c3f a884 f93e 6b2b 023f e1ad f93e
000001f0: 3b30 48bf 5433 54bf 8701 3abf 5fa9 53bf
00000200: 27a6 f73e 86d5 73bf d03b 063f 448a 3dbf
00000210: 98e8 1c3f 5d7c b83e 4c87 54bf b41a f73e
00000220: 4a43 65bf 0d54 21bf e9d6 83bf 36cf 3fbf
00000230: df37 003f 898f b5bf ead5 3cbf 7870 7fbf
00000240: 0908 63bf a08d d83e 9495 b1bf 3b44 80bf
00000250: 30cc a43e 7f8c 46bf 6989 89bf 79d1 27bf
00000260: 25c3 33bf 5401 083f 094e de3e 6c8d 113f
00000270: 5024 f03e e0ed 83bf 2f92 0e3f b105 78bf
00000280: 0440 c03e ff1c 193f 383e d13e 55b7 ab3e
00000290: 7ac6 25bf e091 113f 9255 69bf c2d0 b13e
000002a0: 221e 78bf ed27 f53e 4e95 a03e 0d37 2cbf
000002b0: d8e0 5bbf 1511 50bf ff1a f33e d19b 31bf
000002c0: 160e d03e d318 e83e 6511 3c3f fd61 c63e
000002d0: 5ca8 6bbf c9ec 0f3f b5b1 7abf ec6c 2fbf
000002e0: b1f9 083f e707 353f c3fa 73bf e205 533f
000002f0: 45cd 7bbf 3c30 48bf 47d0 163f 499f 82bf
00000300: e0ac 083f 534b 58bf d1d7 64bf 600c 3dbf
00000310: 83af db3e d63d b33e 5651 82bf 8d0f 5dbf
00000320: d09d 19bf cb00 fe3e 60a0 76bf c695 74bf
00000330: 7151 75bf a744 7fbf 0191 80bf 0200 ef3e
00000340: 2789 123f dee6 5ebf 060c 213f 5e40 87bf
00000350: 4fd7 39bf 1159 39bf da60 1c3f cc41 0cbf
00000360: 1f1b 7dbf 9751 62bf 35db b33e a43e 2e3f
00000370: 4e3d f13e cfe0 fb3e 51d7 0b3f ea76 71bf
00000380: 9abf 85bf 41ee c83e 3107 0e3f a8b4 3abf
00000390: 33fb 103f 6811 c33e ee0b 28bf 79a4 d13e
000003a0: efe4 69bf e72a db3e 24be 233f d70c 133f
000003b0: 5b57 c93e 48f6 a4bf fd71 57bf ef0e 4ebf
000003c0: 6bcf 5fbf 0816 43bf 90df 6cbf d2d9 3abf
000003d0: 1647 d53e 8ab9 5c3f 873f df3e 7008 4dbf
000003e0: 747a f23e 2014 7cbf e94b 123f 16cc e63e
000003f0: b086 f63e f51a d93e ce86 443f e46d e33e
